{"format": "graph-model", "generatedBy": "2.4.1", "convertedBy": "TensorFlow.js Converter v3.8.0", "signature": {"outputs": {"Identity": {"name": "Identity"}, "Identity_1": {"name": "Identity_1"}, "Identity_2": {"name": "Identity_2"}, "Identity_3": {"name": "Identity_3"}}}, "modelTopology": {"node": [{"name": "model/agnostic_nms_layer_1/agnostic_nms/TensorArrayV2_3/element_shape", "op": "Const", "attr": {"value": {"tensor": {"dtype": "DT_INT32", "tensorShape": {}}}, "dtype": {"type": "DT_INT32"}}}, {"name": "model/agnostic_nms_layer_1/agnostic_nms/TensorArrayV2_3/num_elements", "op": "Const", "attr": {"dtype": {"type": "DT_INT32"}, "value": {"tensor": {"dtype": "DT_INT32", "tensorShape": {}}}}}, {"name": "model/agnostic_nms_layer_1/agnostic_nms/TensorArrayV2Stack/TensorListStack/element_shape", "op": "Const", "attr": {"dtype": {"type": "DT_INT32"}, "value": {"tensor": {"dtype": "DT_INT32", "tensorShape": {"dim": [{"size": "2"}]}}}}}, {"name": "model/agnostic_nms_layer_1/agnostic_nms/TensorArrayV2_4/element_shape", "op": "Const", "attr": {"value": {"tensor": {"dtype": "DT_INT32", "tensorShape": {}}}, "dtype": {"type": "DT_INT32"}}}, {"name": "model/agnostic_nms_layer_1/agnostic_nms/TensorArrayV2_4/num_elements", "op": "Const", "attr": {"dtype": {"type": "DT_INT32"}, "value": {"tensor": {"dtype": "DT_INT32", "tensorShape": {}}}}}, {"name": "model/agnostic_nms_layer_1/agnostic_nms/TensorArrayV2Stack_1/TensorListStack/element_shape", "op": "Const", "attr": {"dtype": {"type": "DT_INT32"}, "value": {"tensor": {"dtype": "DT_INT32", "tensorShape": {"dim": [{"size": "1"}]}}}}}, {"name": "model/agnostic_nms_layer_1/agnostic_nms/TensorArrayV2_5/element_shape", "op": "Const", "attr": {"dtype": {"type": "DT_INT32"}, "value": {"tensor": {"dtype": "DT_INT32", "tensorShape": {}}}}}, {"name": "model/agnostic_nms_layer_1/agnostic_nms/TensorArrayV2_5/num_elements", "op": "Const", "attr": {"dtype": {"type": "DT_INT32"}, "value": {"tensor": {"dtype": "DT_INT32", "tensorShape": {}}}}}, {"name": "model/agnostic_nms_layer_1/agnostic_nms/TensorArrayUnstack_1/TensorListFromTensor/element_shape", "op": "Const", "attr": {"dtype": {"type": "DT_INT32"}, "value": {"tensor": {"dtype": "DT_INT32", "tensorShape": {"dim": [{"size": "2"}]}}}}}, {"name": "model/agnostic_nms_layer_1/agnostic_nms/TensorArrayV2Stack_2/TensorListStack/element_shape", "op": "Const", "attr": {"dtype": {"type": "DT_INT32"}, "value": {"tensor": {"dtype": "DT_INT32", "tensorShape": {"dim": [{"size": "1"}]}}}}}, {"name": "model/agnostic_nms_layer_1/agnostic_nms/TensorArrayV2_6/element_shape", "op": "Const", "attr": {"value": {"tensor": {"dtype": "DT_INT32", "tensorShape": {}}}, "dtype": {"type": "DT_INT32"}}}, {"name": "model/agnostic_nms_layer_1/agnostic_nms/TensorArrayV2_6/num_elements", "op": "Const", "attr": {"dtype": {"type": "DT_INT32"}, "value": {"tensor": {"dtype": "DT_INT32", "tensorShape": {}}}}}, {"name": "ConstantFolding/model/tf.math.truediv/truediv_recip", "op": "Const", "attr": {"value": {"tensor": {"dtype": "DT_FLOAT", "tensorShape": {}}}, "dtype": {"type": "DT_FLOAT"}}}, {"name": "ConstantFolding/model/tf.math.truediv_1/truediv_recip", "op": "Const", "attr": {"value": {"tensor": {"dtype": "DT_FLOAT", "tensorShape": {}}}, "dtype": {"type": "DT_FLOAT"}}}, {"name": "ConstantFolding/model/tf.math.truediv_2/truediv_recip", "op": "Const", "attr": {"dtype": {"type": "DT_FLOAT"}, "value": {"tensor": {"dtype": "DT_FLOAT", "tensorShape": {}}}}}, {"name": "model/tf.split/split/split_dim", "op": "Const", "attr": {"dtype": {"type": "DT_INT32"}, "value": {"tensor": {"dtype": "DT_INT32", "tensorShape": {}}}}}, {"name": "model/tf.__operators__.getitem/strided_slice/stack", "op": "Const", "attr": {"value": {"tensor": {"dtype": "DT_INT32", "tensorShape": {"dim": [{"size": "2"}]}}}, "dtype": {"type": "DT_INT32"}}}, {"name": "model/tf.__operators__.getitem/strided_slice/stack_1", "op": "Const", "attr": {"dtype": {"type": "DT_INT32"}, "value": {"tensor": {"dtype": "DT_INT32", "tensorShape": {"dim": [{"size": "2"}]}}}}}, {"name": "model/tf.__operators__.getitem/strided_slice/stack_2", "op": "Const", "attr": {"value": {"tensor": {"dtype": "DT_INT32", "tensorShape": {"dim": [{"size": "2"}]}}}, "dtype": {"type": "DT_INT32"}}}, {"name": "ConstantFolding/model/tf.math.truediv_3/truediv_recip", "op": "Const", "attr": {"value": {"tensor": {"dtype": "DT_FLOAT", "tensorShape": {}}}, "dtype": {"type": "DT_FLOAT"}}}, {"name": "model/tf.concat/concat/axis", "op": "Const", "attr": {"value": {"tensor": {"dtype": "DT_INT32", "tensorShape": {}}}, "dtype": {"type": "DT_INT32"}}}, {"name": "model/agnostic_nms_layer_1/agnostic_nms/TensorArrayUnstack/TensorListFromTensor/element_shape", "op": "Const", "attr": {"value": {"tensor": {"dtype": "DT_INT32", "tensorShape": {"dim": [{"size": "2"}]}}}, "dtype": {"type": "DT_INT32"}}}, {"name": "model/tf.__operators__.getitem_1/strided_slice/stack", "op": "Const", "attr": {"value": {"tensor": {"dtype": "DT_INT32", "tensorShape": {"dim": [{"size": "3"}]}}}, "dtype": {"type": "DT_INT32"}}}, {"name": "model/tf.__operators__.getitem_1/strided_slice/stack_1", "op": "Const", "attr": {"dtype": {"type": "DT_INT32"}, "value": {"tensor": {"dtype": "DT_INT32", "tensorShape": {"dim": [{"size": "3"}]}}}}}, {"name": "model/tf.__operators__.getitem_1/strided_slice/stack_2", "op": "Const", "attr": {"value": {"tensor": {"dtype": "DT_INT32", "tensorShape": {"dim": [{"size": "3"}]}}}, "dtype": {"type": "DT_INT32"}}}, {"name": "model/tf__detect/strided_slice_2/stack", "op": "Const", "attr": {"dtype": {"type": "DT_INT32"}, "value": {"tensor": {"dtype": "DT_INT32", "tensorShape": {"dim": [{"size": "2"}]}}}}}, {"name": "model/tf__detect/strided_slice_2/stack_1", "op": "Const", "attr": {"value": {"tensor": {"dtype": "DT_INT32", "tensorShape": {"dim": [{"size": "2"}]}}}, "dtype": {"type": "DT_INT32"}}}, {"name": "model/tf__detect/strided_slice_2/stack_2", "op": "Const", "attr": {"value": {"tensor": {"dtype": "DT_INT32", "tensorShape": {"dim": [{"size": "2"}]}}}, "dtype": {"type": "DT_INT32"}}}, {"name": "model/tf__detect/mul_1/y", "op": "Const", "attr": {"value": {"tensor": {"dtype": "DT_FLOAT", "tensorShape": {}}}, "dtype": {"type": "DT_FLOAT"}}}, {"name": "model/tf__detect/sub", "op": "Const", "attr": {"value": {"tensor": {"dtype": "DT_FLOAT", "tensorShape": {"dim": [{"size": "1"}, {"size": "1"}, {"size": "1600"}, {"size": "2"}]}}}, "dtype": {"type": "DT_FLOAT"}}}, {"name": "model/tf__detect/mul_2", "op": "Const", "attr": {"value": {"tensor": {"dtype": "DT_FLOAT", "tensorShape": {"dim": [{"size": "1"}, {"size": "2"}]}}}, "dtype": {"type": "DT_FLOAT"}}}, {"name": "model/tf__detect/strided_slice_4/stack", "op": "Const", "attr": {"value": {"tensor": {"dtype": "DT_INT32", "tensorShape": {"dim": [{"size": "2"}]}}}, "dtype": {"type": "DT_INT32"}}}, {"name": "model/tf__detect/strided_slice_4/stack_1", "op": "Const", "attr": {"dtype": {"type": "DT_INT32"}, "value": {"tensor": {"dtype": "DT_INT32", "tensorShape": {"dim": [{"size": "2"}]}}}}}, {"name": "model/tf__detect/strided_slice_4/stack_2", "op": "Const", "attr": {"dtype": {"type": "DT_INT32"}, "value": {"tensor": {"dtype": "DT_INT32", "tensorShape": {"dim": [{"size": "2"}]}}}}}, {"name": "model/tf__detect/mul_3/y", "op": "Const", "attr": {"dtype": {"type": "DT_FLOAT"}, "value": {"tensor": {"dtype": "DT_FLOAT", "tensorShape": {}}}}}, {"name": "model/tf__detect/mul_4", "op": "Const", "attr": {"dtype": {"type": "DT_FLOAT"}, "value": {"tensor": {"dtype": "DT_FLOAT", "tensorShape": {"dim": [{"size": "1"}, {"size": "3"}, {"size": "1"}, {"size": "2"}]}}}}}, {"name": "model/tf__detect/tf__conv2d/conv2d_59/Conv2D/ReadVariableOp", "op": "Const", "attr": {"dtype": {"type": "DT_FLOAT"}, "value": {"tensor": {"dtype": "DT_FLOAT", "tensorShape": {"dim": [{"size": "1"}, {"size": "1"}, {"size": "128"}, {"size": "255"}]}}}}}, {"name": "model/tf__detect/tf__conv2d/conv2d_59/BiasAdd/ReadVariableOp", "op": "Const", "attr": {"dtype": {"type": "DT_FLOAT"}, "value": {"tensor": {"dtype": "DT_FLOAT", "tensorShape": {"dim": [{"size": "255"}]}}}}}, {"name": "model/tf__detect/Reshape/shape_1", "op": "Const", "attr": {"dtype": {"type": "DT_INT32"}, "value": {"tensor": {"dtype": "DT_INT32", "tensorShape": {"dim": [{"size": "4"}]}}}}}, {"name": "model/tf__detect/transpose/perm", "op": "Const", "attr": {"value": {"tensor": {"dtype": "DT_INT32", "tensorShape": {"dim": [{"size": "4"}]}}}, "dtype": {"type": "DT_INT32"}}}, {"name": "model/tf__detect/strided_slice_6/stack", "op": "Const", "attr": {"value": {"tensor": {"dtype": "DT_INT32", "tensorShape": {"dim": [{"size": "2"}]}}}, "dtype": {"type": "DT_INT32"}}}, {"name": "model/tf__detect/strided_slice_6/stack_1", "op": "Const", "attr": {"value": {"tensor": {"dtype": "DT_INT32", "tensorShape": {"dim": [{"size": "2"}]}}}, "dtype": {"type": "DT_INT32"}}}, {"name": "model/tf__detect/strided_slice_6/stack_2", "op": "Const", "attr": {"value": {"tensor": {"dtype": "DT_INT32", "tensorShape": {"dim": [{"size": "2"}]}}}, "dtype": {"type": "DT_INT32"}}}, {"name": "model/tf__detect/concat/axis", "op": "Const", "attr": {"dtype": {"type": "DT_INT32"}, "value": {"tensor": {"dtype": "DT_INT32", "tensorShape": {}}}}}, {"name": "model/tf__detect/Reshape_1/shape_1", "op": "Const", "attr": {"dtype": {"type": "DT_INT32"}, "value": {"tensor": {"dtype": "DT_INT32", "tensorShape": {"dim": [{"size": "3"}]}}}}}, {"name": "model/tf__detect/strided_slice_9/stack", "op": "Const", "attr": {"value": {"tensor": {"dtype": "DT_INT32", "tensorShape": {"dim": [{"size": "2"}]}}}, "dtype": {"type": "DT_INT32"}}}, {"name": "model/tf__detect/strided_slice_9/stack_1", "op": "Const", "attr": {"value": {"tensor": {"dtype": "DT_INT32", "tensorShape": {"dim": [{"size": "2"}]}}}, "dtype": {"type": "DT_INT32"}}}, {"name": "model/tf__detect/strided_slice_9/stack_2", "op": "Const", "attr": {"dtype": {"type": "DT_INT32"}, "value": {"tensor": {"dtype": "DT_INT32", "tensorShape": {"dim": [{"size": "2"}]}}}}}, {"name": "model/tf__detect/mul_8/y", "op": "Const", "attr": {"value": {"tensor": {"dtype": "DT_FLOAT", "tensorShape": {}}}, "dtype": {"type": "DT_FLOAT"}}}, {"name": "model/tf__detect/sub_1", "op": "Const", "attr": {"value": {"tensor": {"dtype": "DT_FLOAT", "tensorShape": {"dim": [{"size": "1"}, {"size": "1"}, {"size": "400"}, {"size": "2"}]}}}, "dtype": {"type": "DT_FLOAT"}}}, {"name": "model/tf__detect/mul_9", "op": "Const", "attr": {"dtype": {"type": "DT_FLOAT"}, "value": {"tensor": {"dtype": "DT_FLOAT", "tensorShape": {"dim": [{"size": "1"}, {"size": "2"}]}}}}}, {"name": "model/tf__detect/strided_slice_11/stack", "op": "Const", "attr": {"dtype": {"type": "DT_INT32"}, "value": {"tensor": {"dtype": "DT_INT32", "tensorShape": {"dim": [{"size": "2"}]}}}}}, {"name": "model/tf__detect/strided_slice_11/stack_1", "op": "Const", "attr": {"value": {"tensor": {"dtype": "DT_INT32", "tensorShape": {"dim": [{"size": "2"}]}}}, "dtype": {"type": "DT_INT32"}}}, {"name": "model/tf__detect/strided_slice_11/stack_2", "op": "Const", "attr": {"value": {"tensor": {"dtype": "DT_INT32", "tensorShape": {"dim": [{"size": "2"}]}}}, "dtype": {"type": "DT_INT32"}}}, {"name": "model/tf__detect/mul_10/y", "op": "Const", "attr": {"dtype": {"type": "DT_FLOAT"}, "value": {"tensor": {"dtype": "DT_FLOAT", "tensorShape": {}}}}}, {"name": "model/tf__detect/mul_11", "op": "Const", "attr": {"value": {"tensor": {"dtype": "DT_FLOAT", "tensorShape": {"dim": [{"size": "1"}, {"size": "3"}, {"size": "1"}, {"size": "2"}]}}}, "dtype": {"type": "DT_FLOAT"}}}, {"name": "model/tf__detect/tf__conv2d_1/conv2d_60/Conv2D/ReadVariableOp", "op": "Const", "attr": {"value": {"tensor": {"dtype": "DT_FLOAT", "tensorShape": {"dim": [{"size": "1"}, {"size": "1"}, {"size": "256"}, {"size": "255"}]}}}, "dtype": {"type": "DT_FLOAT"}}}, {"name": "model/tf__detect/tf__conv2d_1/conv2d_60/BiasAdd/ReadVariableOp", "op": "Const", "attr": {"value": {"tensor": {"dtype": "DT_FLOAT", "tensorShape": {"dim": [{"size": "255"}]}}}, "dtype": {"type": "DT_FLOAT"}}}, {"name": "model/tf__detect/Reshape_2/shape_1", "op": "Const", "attr": {"value": {"tensor": {"dtype": "DT_INT32", "tensorShape": {"dim": [{"size": "4"}]}}}, "dtype": {"type": "DT_INT32"}}}, {"name": "model/tf__detect/transpose_1/perm", "op": "Const", "attr": {"value": {"tensor": {"dtype": "DT_INT32", "tensorShape": {"dim": [{"size": "4"}]}}}, "dtype": {"type": "DT_INT32"}}}, {"name": "model/tf__detect/strided_slice_13/stack", "op": "Const", "attr": {"dtype": {"type": "DT_INT32"}, "value": {"tensor": {"dtype": "DT_INT32", "tensorShape": {"dim": [{"size": "2"}]}}}}}, {"name": "model/tf__detect/strided_slice_13/stack_1", "op": "Const", "attr": {"dtype": {"type": "DT_INT32"}, "value": {"tensor": {"dtype": "DT_INT32", "tensorShape": {"dim": [{"size": "2"}]}}}}}, {"name": "model/tf__detect/strided_slice_13/stack_2", "op": "Const", "attr": {"dtype": {"type": "DT_INT32"}, "value": {"tensor": {"dtype": "DT_INT32", "tensorShape": {"dim": [{"size": "2"}]}}}}}, {"name": "model/tf__detect/concat_1/axis", "op": "Const", "attr": {"dtype": {"type": "DT_INT32"}, "value": {"tensor": {"dtype": "DT_INT32", "tensorShape": {}}}}}, {"name": "model/tf__detect/Reshape_3/shape_1", "op": "Const", "attr": {"dtype": {"type": "DT_INT32"}, "value": {"tensor": {"dtype": "DT_INT32", "tensorShape": {"dim": [{"size": "3"}]}}}}}, {"name": "model/tf__detect/strided_slice_16/stack", "op": "Const", "attr": {"dtype": {"type": "DT_INT32"}, "value": {"tensor": {"dtype": "DT_INT32", "tensorShape": {"dim": [{"size": "2"}]}}}}}, {"name": "model/tf__detect/strided_slice_16/stack_1", "op": "Const", "attr": {"dtype": {"type": "DT_INT32"}, "value": {"tensor": {"dtype": "DT_INT32", "tensorShape": {"dim": [{"size": "2"}]}}}}}, {"name": "model/tf__detect/strided_slice_16/stack_2", "op": "Const", "attr": {"value": {"tensor": {"dtype": "DT_INT32", "tensorShape": {"dim": [{"size": "2"}]}}}, "dtype": {"type": "DT_INT32"}}}, {"name": "model/tf__detect/mul_15/y", "op": "Const", "attr": {"value": {"tensor": {"dtype": "DT_FLOAT", "tensorShape": {}}}, "dtype": {"type": "DT_FLOAT"}}}, {"name": "model/tf__detect/sub_2", "op": "Const", "attr": {"dtype": {"type": "DT_FLOAT"}, "value": {"tensor": {"dtype": "DT_FLOAT", "tensorShape": {"dim": [{"size": "1"}, {"size": "1"}, {"size": "100"}, {"size": "2"}]}}}}}, {"name": "model/tf__detect/mul_16", "op": "Const", "attr": {"dtype": {"type": "DT_FLOAT"}, "value": {"tensor": {"dtype": "DT_FLOAT", "tensorShape": {"dim": [{"size": "1"}, {"size": "2"}]}}}}}, {"name": "model/tf__detect/strided_slice_18/stack", "op": "Const", "attr": {"value": {"tensor": {"dtype": "DT_INT32", "tensorShape": {"dim": [{"size": "2"}]}}}, "dtype": {"type": "DT_INT32"}}}, {"name": "model/tf__detect/strided_slice_18/stack_1", "op": "Const", "attr": {"dtype": {"type": "DT_INT32"}, "value": {"tensor": {"dtype": "DT_INT32", "tensorShape": {"dim": [{"size": "2"}]}}}}}, {"name": "model/tf__detect/strided_slice_18/stack_2", "op": "Const", "attr": {"dtype": {"type": "DT_INT32"}, "value": {"tensor": {"dtype": "DT_INT32", "tensorShape": {"dim": [{"size": "2"}]}}}}}, {"name": "model/tf__detect/mul_17/y", "op": "Const", "attr": {"dtype": {"type": "DT_FLOAT"}, "value": {"tensor": {"dtype": "DT_FLOAT", "tensorShape": {}}}}}, {"name": "model/tf__detect/mul_18", "op": "Const", "attr": {"dtype": {"type": "DT_FLOAT"}, "value": {"tensor": {"dtype": "DT_FLOAT", "tensorShape": {"dim": [{"size": "1"}, {"size": "3"}, {"size": "1"}, {"size": "2"}]}}}}}, {"name": "model/tf__upsample_1/resize/size", "op": "Const", "attr": {"dtype": {"type": "DT_INT32"}, "value": {"tensor": {"dtype": "DT_INT32", "tensorShape": {"dim": [{"size": "2"}]}}}}}, {"name": "model/tf__concat_1/concat/axis", "op": "Const", "attr": {"value": {"tensor": {"dtype": "DT_INT32", "tensorShape": {}}}, "dtype": {"type": "DT_INT32"}}}, {"name": "model/tf__c3_5/concat/axis", "op": "Const", "attr": {"dtype": {"type": "DT_INT32"}, "value": {"tensor": {"dtype": "DT_INT32", "tensorShape": {}}}}}, {"name": "model/tf__conv_47/sequential_10/tf__pad_4/Pad/paddings", "op": "Const", "device": "/job:localhost/replica:0/task:0/device:CPU:0", "attr": {"dtype": {"type": "DT_INT32"}, "value": {"tensor": {"dtype": "DT_INT32", "tensorShape": {"dim": [{"size": "4"}, {"size": "2"}]}}}}}, {"name": "model/tf__upsample/resize/size", "op": "Const", "attr": {"dtype": {"type": "DT_INT32"}, "value": {"tensor": {"dtype": "DT_INT32", "tensorShape": {"dim": [{"size": "2"}]}}}}}, {"name": "model/tf__concat/concat/axis", "op": "Const", "attr": {"dtype": {"type": "DT_INT32"}, "value": {"tensor": {"dtype": "DT_INT32", "tensorShape": {}}}}}, {"name": "model/tf__c3_4/concat/axis", "op": "Const", "attr": {"value": {"tensor": {"dtype": "DT_INT32", "tensorShape": {}}}, "dtype": {"type": "DT_INT32"}}}, {"name": "model/tf__concat_2/concat/axis", "op": "Const", "attr": {"dtype": {"type": "DT_INT32"}, "value": {"tensor": {"dtype": "DT_INT32", "tensorShape": {}}}}}, {"name": "model/tf__c3_6/concat/axis", "op": "Const", "attr": {"dtype": {"type": "DT_INT32"}, "value": {"tensor": {"dtype": "DT_INT32", "tensorShape": {}}}}}, {"name": "model/tf__conv_53/sequential_12/tf__pad_5/Pad/paddings", "op": "Const", "device": "/job:localhost/replica:0/task:0/device:CPU:0", "attr": {"dtype": {"type": "DT_INT32"}, "value": {"tensor": {"dtype": "DT_INT32", "tensorShape": {"dim": [{"size": "4"}, {"size": "2"}]}}}}}, {"name": "model/tf__focus/strided_slice/stack", "op": "Const", "attr": {"dtype": {"type": "DT_INT32"}, "value": {"tensor": {"dtype": "DT_INT32", "tensorShape": {"dim": [{"size": "4"}]}}}}}, {"name": "model/tf__focus/strided_slice/stack_1", "op": "Const", "attr": {"value": {"tensor": {"dtype": "DT_INT32", "tensorShape": {"dim": [{"size": "4"}]}}}, "dtype": {"type": "DT_INT32"}}}, {"name": "model/tf__focus/strided_slice/stack_2", "op": "Const", "attr": {"value": {"tensor": {"dtype": "DT_INT32", "tensorShape": {"dim": [{"size": "4"}]}}}, "dtype": {"type": "DT_INT32"}}}, {"name": "model/tf__focus/strided_slice_1/stack", "op": "Const", "attr": {"dtype": {"type": "DT_INT32"}, "value": {"tensor": {"dtype": "DT_INT32", "tensorShape": {"dim": [{"size": "4"}]}}}}}, {"name": "model/tf__focus/strided_slice_1/stack_1", "op": "Const", "attr": {"dtype": {"type": "DT_INT32"}, "value": {"tensor": {"dtype": "DT_INT32", "tensorShape": {"dim": [{"size": "4"}]}}}}}, {"name": "model/tf__focus/strided_slice_1/stack_2", "op": "Const", "attr": {"dtype": {"type": "DT_INT32"}, "value": {"tensor": {"dtype": "DT_INT32", "tensorShape": {"dim": [{"size": "4"}]}}}}}, {"name": "model/tf__focus/strided_slice_2/stack", "op": "Const", "attr": {"dtype": {"type": "DT_INT32"}, "value": {"tensor": {"dtype": "DT_INT32", "tensorShape": {"dim": [{"size": "4"}]}}}}}, {"name": "model/tf__focus/strided_slice_2/stack_1", "op": "Const", "attr": {"dtype": {"type": "DT_INT32"}, "value": {"tensor": {"dtype": "DT_INT32", "tensorShape": {"dim": [{"size": "4"}]}}}}}, {"name": "model/tf__focus/strided_slice_2/stack_2", "op": "Const", "attr": {"value": {"tensor": {"dtype": "DT_INT32", "tensorShape": {"dim": [{"size": "4"}]}}}, "dtype": {"type": "DT_INT32"}}}, {"name": "model/tf__focus/strided_slice_3/stack", "op": "Const", "attr": {"dtype": {"type": "DT_INT32"}, "value": {"tensor": {"dtype": "DT_INT32", "tensorShape": {"dim": [{"size": "4"}]}}}}}, {"name": "model/tf__focus/strided_slice_3/stack_1", "op": "Const", "attr": {"value": {"tensor": {"dtype": "DT_INT32", "tensorShape": {"dim": [{"size": "4"}]}}}, "dtype": {"type": "DT_INT32"}}}, {"name": "model/tf__focus/strided_slice_3/stack_2", "op": "Const", "attr": {"value": {"tensor": {"dtype": "DT_INT32", "tensorShape": {"dim": [{"size": "4"}]}}}, "dtype": {"type": "DT_INT32"}}}, {"name": "model/tf__focus/concat/axis", "op": "Const", "attr": {"value": {"tensor": {"dtype": "DT_INT32", "tensorShape": {}}}, "dtype": {"type": "DT_INT32"}}}, {"name": "model/tf__conv_1/sequential/tf__pad/Pad/paddings", "op": "Const", "device": "/job:localhost/replica:0/task:0/device:CPU:0", "attr": {"dtype": {"type": "DT_INT32"}, "value": {"tensor": {"dtype": "DT_INT32", "tensorShape": {"dim": [{"size": "4"}, {"size": "2"}]}}}}}, {"name": "model/tf__c3/concat/axis", "op": "Const", "attr": {"value": {"tensor": {"dtype": "DT_INT32", "tensorShape": {}}}, "dtype": {"type": "DT_INT32"}}}, {"name": "model/tf__conv_7/sequential_2/tf__pad_1/Pad/paddings", "op": "Const", "device": "/job:localhost/replica:0/task:0/device:CPU:0", "attr": {"value": {"tensor": {"dtype": "DT_INT32", "tensorShape": {"dim": [{"size": "4"}, {"size": "2"}]}}}, "dtype": {"type": "DT_INT32"}}}, {"name": "model/tf__c3_1/concat/axis", "op": "Const", "attr": {"dtype": {"type": "DT_INT32"}, "value": {"tensor": {"dtype": "DT_INT32", "tensorShape": {}}}}}, {"name": "model/tf__conv_17/sequential_4/tf__pad_2/Pad/paddings", "op": "Const", "device": "/job:localhost/replica:0/task:0/device:CPU:0", "attr": {"dtype": {"type": "DT_INT32"}, "value": {"tensor": {"dtype": "DT_INT32", "tensorShape": {"dim": [{"size": "4"}, {"size": "2"}]}}}}}, {"name": "model/tf__c3_2/concat/axis", "op": "Const", "attr": {"value": {"tensor": {"dtype": "DT_INT32", "tensorShape": {}}}, "dtype": {"type": "DT_INT32"}}}, {"name": "model/tf__conv_27/sequential_6/tf__pad_3/Pad/paddings", "op": "Const", "device": "/job:localhost/replica:0/task:0/device:CPU:0", "attr": {"value": {"tensor": {"dtype": "DT_INT32", "tensorShape": {"dim": [{"size": "4"}, {"size": "2"}]}}}, "dtype": {"type": "DT_INT32"}}}, {"name": "model/tf_spp/concat/axis", "op": "Const", "attr": {"dtype": {"type": "DT_INT32"}, "value": {"tensor": {"dtype": "DT_INT32", "tensorShape": {}}}}}, {"name": "model/tf__c3_3/concat/axis", "op": "Const", "attr": {"dtype": {"type": "DT_INT32"}, "value": {"tensor": {"dtype": "DT_INT32", "tensorShape": {}}}}}, {"name": "model/tf__concat_3/concat/axis", "op": "Const", "attr": {"dtype": {"type": "DT_INT32"}, "value": {"tensor": {"dtype": "DT_INT32", "tensorShape": {}}}}}, {"name": "model/tf__c3_7/concat/axis", "op": "Const", "attr": {"value": {"tensor": {"dtype": "DT_INT32", "tensorShape": {}}}, "dtype": {"type": "DT_INT32"}}}, {"name": "model/tf__detect/tf__conv2d_2/conv2d_61/Conv2D/ReadVariableOp", "op": "Const", "attr": {"dtype": {"type": "DT_FLOAT"}, "value": {"tensor": {"dtype": "DT_FLOAT", "tensorShape": {"dim": [{"size": "1"}, {"size": "1"}, {"size": "512"}, {"size": "255"}]}}}}}, {"name": "model/tf__detect/tf__conv2d_2/conv2d_61/BiasAdd/ReadVariableOp", "op": "Const", "attr": {"value": {"tensor": {"dtype": "DT_FLOAT", "tensorShape": {"dim": [{"size": "255"}]}}}, "dtype": {"type": "DT_FLOAT"}}}, {"name": "model/tf__detect/Reshape_4/shape_1", "op": "Const", "attr": {"dtype": {"type": "DT_INT32"}, "value": {"tensor": {"dtype": "DT_INT32", "tensorShape": {"dim": [{"size": "4"}]}}}}}, {"name": "model/tf__detect/transpose_2/perm", "op": "Const", "attr": {"value": {"tensor": {"dtype": "DT_INT32", "tensorShape": {"dim": [{"size": "4"}]}}}, "dtype": {"type": "DT_INT32"}}}, {"name": "model/tf__detect/strided_slice_20/stack", "op": "Const", "attr": {"dtype": {"type": "DT_INT32"}, "value": {"tensor": {"dtype": "DT_INT32", "tensorShape": {"dim": [{"size": "2"}]}}}}}, {"name": "model/tf__detect/strided_slice_20/stack_1", "op": "Const", "attr": {"dtype": {"type": "DT_INT32"}, "value": {"tensor": {"dtype": "DT_INT32", "tensorShape": {"dim": [{"size": "2"}]}}}}}, {"name": "model/tf__detect/strided_slice_20/stack_2", "op": "Const", "attr": {"value": {"tensor": {"dtype": "DT_INT32", "tensorShape": {"dim": [{"size": "2"}]}}}, "dtype": {"type": "DT_INT32"}}}, {"name": "model/tf__detect/concat_2/axis", "op": "Const", "attr": {"value": {"tensor": {"dtype": "DT_INT32", "tensorShape": {}}}, "dtype": {"type": "DT_INT32"}}}, {"name": "model/tf__detect/Reshape_5/shape_1", "op": "Const", "attr": {"dtype": {"type": "DT_INT32"}, "value": {"tensor": {"dtype": "DT_INT32", "tensorShape": {"dim": [{"size": "3"}]}}}}}, {"name": "model/tf__detect/concat_3/axis", "op": "Const", "attr": {"dtype": {"type": "DT_INT32"}, "value": {"tensor": {"dtype": "DT_INT32", "tensorShape": {}}}}}, {"name": "model/tf.__operators__.getitem_2/strided_slice/stack", "op": "Const", "attr": {"dtype": {"type": "DT_INT32"}, "value": {"tensor": {"dtype": "DT_INT32", "tensorShape": {"dim": [{"size": "3"}]}}}}}, {"name": "model/tf.__operators__.getitem_2/strided_slice/stack_1", "op": "Const", "attr": {"dtype": {"type": "DT_INT32"}, "value": {"tensor": {"dtype": "DT_INT32", "tensorShape": {"dim": [{"size": "3"}]}}}}}, {"name": "model/tf.__operators__.getitem_2/strided_slice/stack_2", "op": "Const", "attr": {"value": {"tensor": {"dtype": "DT_INT32", "tensorShape": {"dim": [{"size": "3"}]}}}, "dtype": {"type": "DT_INT32"}}}, {"name": "model/agnostic_nms_layer_1/agnostic_nms/TensorArrayUnstack_2/TensorListFromTensor/element_shape", "op": "Const", "attr": {"value": {"tensor": {"dtype": "DT_INT32", "tensorShape": {"dim": [{"size": "2"}]}}}, "dtype": {"type": "DT_INT32"}}}, {"name": "model/agnostic_nms_layer_1/agnostic_nms/while/maximum_iterations", "op": "Const", "attr": {"dtype": {"type": "DT_INT32"}, "value": {"tensor": {"dtype": "DT_INT32", "tensorShape": {}}}}}, {"name": "model/agnostic_nms_layer_1/agnostic_nms/Const", "op": "Const", "attr": {"value": {"tensor": {"dtype": "DT_INT32", "tensorShape": {}}}, "dtype": {"type": "DT_INT32"}}}, {"name": "model/agnostic_nms_layer_1/agnostic_nms/while/loop_counter", "op": "Const", "attr": {"dtype": {"type": "DT_INT32"}, "value": {"tensor": {"dtype": "DT_INT32", "tensorShape": {}}}}}, {"name": "model/agnostic_nms_layer_1/agnostic_nms/TensorArrayV2Stack_3/Const", "op": "Const", "attr": {"dtype": {"type": "DT_INT32"}, "value": {"tensor": {"dtype": "DT_INT32", "tensorShape": {"dim": [{}]}}}}}, {"name": "x", "op": "Placeholder", "attr": {"shape": {"shape": {"dim": [{"size": "1"}, {"size": "320"}, {"size": "320"}, {"size": "3"}]}}, "dtype": {"type": "DT_FLOAT"}}}, {"name": "model/tf__focus/tf__conv/conv2d/Conv2D_weights", "op": "Const", "attr": {"dtype": {"type": "DT_FLOAT"}, "value": {"tensor": {"dtype": "DT_FLOAT", "tensorShape": {"dim": [{"size": "3"}, {"size": "3"}, {"size": "12"}, {"size": "32"}]}}}}}, {"name": "model/tf__focus/tf__conv/conv2d/Conv2D_bn_offset", "op": "Const", "attr": {"dtype": {"type": "DT_FLOAT"}, "value": {"tensor": {"dtype": "DT_FLOAT", "tensorShape": {"dim": [{"size": "32"}]}}}}}, {"name": "model/tf__conv_1/sequential/conv2d_1/Conv2D_weights", "op": "Const", "attr": {"value": {"tensor": {"dtype": "DT_FLOAT", "tensorShape": {"dim": [{"size": "3"}, {"size": "3"}, {"size": "32"}, {"size": "64"}]}}}, "dtype": {"type": "DT_FLOAT"}}}, {"name": "model/tf__conv_1/sequential/conv2d_1/Conv2D_bn_offset", "op": "Const", "attr": {"value": {"tensor": {"dtype": "DT_FLOAT", "tensorShape": {"dim": [{"size": "64"}]}}}, "dtype": {"type": "DT_FLOAT"}}}, {"name": "model/tf__c3/tf__conv_2/conv2d_2/Conv2D_weights", "op": "Const", "attr": {"value": {"tensor": {"dtype": "DT_FLOAT", "tensorShape": {"dim": [{"size": "1"}, {"size": "1"}, {"size": "64"}, {"size": "32"}]}}}, "dtype": {"type": "DT_FLOAT"}}}, {"name": "model/tf__c3/tf__conv_2/conv2d_2/Conv2D_bn_offset", "op": "Const", "attr": {"value": {"tensor": {"dtype": "DT_FLOAT", "tensorShape": {"dim": [{"size": "32"}]}}}, "dtype": {"type": "DT_FLOAT"}}}, {"name": "model/tf__c3/tf__conv_3/conv2d_3/Conv2D_weights", "op": "Const", "attr": {"value": {"tensor": {"dtype": "DT_FLOAT", "tensorShape": {"dim": [{"size": "1"}, {"size": "1"}, {"size": "64"}, {"size": "32"}]}}}, "dtype": {"type": "DT_FLOAT"}}}, {"name": "model/tf__c3/tf__conv_3/conv2d_3/Conv2D_bn_offset", "op": "Const", "attr": {"value": {"tensor": {"dtype": "DT_FLOAT", "tensorShape": {"dim": [{"size": "32"}]}}}, "dtype": {"type": "DT_FLOAT"}}}, {"name": "model/tf__c3/sequential_1/tf__bottleneck/tf__conv_5/conv2d_5/Conv2D_weights", "op": "Const", "attr": {"value": {"tensor": {"dtype": "DT_FLOAT", "tensorShape": {"dim": [{"size": "1"}, {"size": "1"}, {"size": "32"}, {"size": "32"}]}}}, "dtype": {"type": "DT_FLOAT"}}}, {"name": "model/tf__c3/sequential_1/tf__bottleneck/tf__conv_5/conv2d_5/Conv2D_bn_offset", "op": "Const", "attr": {"value": {"tensor": {"dtype": "DT_FLOAT", "tensorShape": {"dim": [{"size": "32"}]}}}, "dtype": {"type": "DT_FLOAT"}}}, {"name": "model/tf__c3/sequential_1/tf__bottleneck/tf__conv_6/conv2d_6/Conv2D_weights", "op": "Const", "attr": {"value": {"tensor": {"dtype": "DT_FLOAT", "tensorShape": {"dim": [{"size": "3"}, {"size": "3"}, {"size": "32"}, {"size": "32"}]}}}, "dtype": {"type": "DT_FLOAT"}}}, {"name": "model/tf__c3/sequential_1/tf__bottleneck/tf__conv_6/conv2d_6/Conv2D_bn_offset", "op": "Const", "attr": {"value": {"tensor": {"dtype": "DT_FLOAT", "tensorShape": {"dim": [{"size": "32"}]}}}, "dtype": {"type": "DT_FLOAT"}}}, {"name": "model/tf__c3/tf__conv_4/conv2d_4/Conv2D_weights", "op": "Const", "attr": {"value": {"tensor": {"dtype": "DT_FLOAT", "tensorShape": {"dim": [{"size": "1"}, {"size": "1"}, {"size": "64"}, {"size": "64"}]}}}, "dtype": {"type": "DT_FLOAT"}}}, {"name": "model/tf__c3/tf__conv_4/conv2d_4/Conv2D_bn_offset", "op": "Const", "attr": {"dtype": {"type": "DT_FLOAT"}, "value": {"tensor": {"dtype": "DT_FLOAT", "tensorShape": {"dim": [{"size": "64"}]}}}}}, {"name": "model/tf__conv_7/sequential_2/conv2d_7/Conv2D_weights", "op": "Const", "attr": {"dtype": {"type": "DT_FLOAT"}, "value": {"tensor": {"dtype": "DT_FLOAT", "tensorShape": {"dim": [{"size": "3"}, {"size": "3"}, {"size": "64"}, {"size": "128"}]}}}}}, {"name": "model/tf__conv_7/sequential_2/conv2d_7/Conv2D_bn_offset", "op": "Const", "attr": {"dtype": {"type": "DT_FLOAT"}, "value": {"tensor": {"dtype": "DT_FLOAT", "tensorShape": {"dim": [{"size": "128"}]}}}}}, {"name": "model/tf__c3_1/tf__conv_8/conv2d_8/Conv2D_weights", "op": "Const", "attr": {"dtype": {"type": "DT_FLOAT"}, "value": {"tensor": {"dtype": "DT_FLOAT", "tensorShape": {"dim": [{"size": "1"}, {"size": "1"}, {"size": "128"}, {"size": "64"}]}}}}}, {"name": "model/tf__c3_1/tf__conv_8/conv2d_8/Conv2D_bn_offset", "op": "Const", "attr": {"value": {"tensor": {"dtype": "DT_FLOAT", "tensorShape": {"dim": [{"size": "64"}]}}}, "dtype": {"type": "DT_FLOAT"}}}, {"name": "model/tf__c3_1/tf__conv_9/conv2d_9/Conv2D_weights", "op": "Const", "attr": {"value": {"tensor": {"dtype": "DT_FLOAT", "tensorShape": {"dim": [{"size": "1"}, {"size": "1"}, {"size": "128"}, {"size": "64"}]}}}, "dtype": {"type": "DT_FLOAT"}}}, {"name": "model/tf__c3_1/tf__conv_9/conv2d_9/Conv2D_bn_offset", "op": "Const", "attr": {"value": {"tensor": {"dtype": "DT_FLOAT", "tensorShape": {"dim": [{"size": "64"}]}}}, "dtype": {"type": "DT_FLOAT"}}}, {"name": "model/tf__c3_1/sequential_3/tf__bottleneck_1/tf__conv_11/conv2d_11/Conv2D_weights", "op": "Const", "attr": {"dtype": {"type": "DT_FLOAT"}, "value": {"tensor": {"dtype": "DT_FLOAT", "tensorShape": {"dim": [{"size": "1"}, {"size": "1"}, {"size": "64"}, {"size": "64"}]}}}}}, {"name": "model/tf__c3_1/sequential_3/tf__bottleneck_1/tf__conv_11/conv2d_11/Conv2D_bn_offset", "op": "Const", "attr": {"dtype": {"type": "DT_FLOAT"}, "value": {"tensor": {"dtype": "DT_FLOAT", "tensorShape": {"dim": [{"size": "64"}]}}}}}, {"name": "model/tf__c3_1/sequential_3/tf__bottleneck_1/tf__conv_12/conv2d_12/Conv2D_weights", "op": "Const", "attr": {"value": {"tensor": {"dtype": "DT_FLOAT", "tensorShape": {"dim": [{"size": "3"}, {"size": "3"}, {"size": "64"}, {"size": "64"}]}}}, "dtype": {"type": "DT_FLOAT"}}}, {"name": "model/tf__c3_1/sequential_3/tf__bottleneck_1/tf__conv_12/conv2d_12/Conv2D_bn_offset", "op": "Const", "attr": {"dtype": {"type": "DT_FLOAT"}, "value": {"tensor": {"dtype": "DT_FLOAT", "tensorShape": {"dim": [{"size": "64"}]}}}}}, {"name": "model/tf__c3_1/sequential_3/tf__bottleneck_2/tf__conv_13/conv2d_13/Conv2D_weights", "op": "Const", "attr": {"value": {"tensor": {"dtype": "DT_FLOAT", "tensorShape": {"dim": [{"size": "1"}, {"size": "1"}, {"size": "64"}, {"size": "64"}]}}}, "dtype": {"type": "DT_FLOAT"}}}, {"name": "model/tf__c3_1/sequential_3/tf__bottleneck_2/tf__conv_13/conv2d_13/Conv2D_bn_offset", "op": "Const", "attr": {"dtype": {"type": "DT_FLOAT"}, "value": {"tensor": {"dtype": "DT_FLOAT", "tensorShape": {"dim": [{"size": "64"}]}}}}}, {"name": "model/tf__c3_1/sequential_3/tf__bottleneck_2/tf__conv_14/conv2d_14/Conv2D_weights", "op": "Const", "attr": {"value": {"tensor": {"dtype": "DT_FLOAT", "tensorShape": {"dim": [{"size": "3"}, {"size": "3"}, {"size": "64"}, {"size": "64"}]}}}, "dtype": {"type": "DT_FLOAT"}}}, {"name": "model/tf__c3_1/sequential_3/tf__bottleneck_2/tf__conv_14/conv2d_14/Conv2D_bn_offset", "op": "Const", "attr": {"dtype": {"type": "DT_FLOAT"}, "value": {"tensor": {"dtype": "DT_FLOAT", "tensorShape": {"dim": [{"size": "64"}]}}}}}, {"name": "model/tf__c3_1/sequential_3/tf__bottleneck_3/tf__conv_15/conv2d_15/Conv2D_weights", "op": "Const", "attr": {"dtype": {"type": "DT_FLOAT"}, "value": {"tensor": {"dtype": "DT_FLOAT", "tensorShape": {"dim": [{"size": "1"}, {"size": "1"}, {"size": "64"}, {"size": "64"}]}}}}}, {"name": "model/tf__c3_1/sequential_3/tf__bottleneck_3/tf__conv_15/conv2d_15/Conv2D_bn_offset", "op": "Const", "attr": {"value": {"tensor": {"dtype": "DT_FLOAT", "tensorShape": {"dim": [{"size": "64"}]}}}, "dtype": {"type": "DT_FLOAT"}}}, {"name": "model/tf__c3_1/sequential_3/tf__bottleneck_3/tf__conv_16/conv2d_16/Conv2D_weights", "op": "Const", "attr": {"dtype": {"type": "DT_FLOAT"}, "value": {"tensor": {"dtype": "DT_FLOAT", "tensorShape": {"dim": [{"size": "3"}, {"size": "3"}, {"size": "64"}, {"size": "64"}]}}}}}, {"name": "model/tf__c3_1/sequential_3/tf__bottleneck_3/tf__conv_16/conv2d_16/Conv2D_bn_offset", "op": "Const", "attr": {"dtype": {"type": "DT_FLOAT"}, "value": {"tensor": {"dtype": "DT_FLOAT", "tensorShape": {"dim": [{"size": "64"}]}}}}}, {"name": "model/tf__c3_1/tf__conv_10/conv2d_10/Conv2D_weights", "op": "Const", "attr": {"value": {"tensor": {"dtype": "DT_FLOAT", "tensorShape": {"dim": [{"size": "1"}, {"size": "1"}, {"size": "128"}, {"size": "128"}]}}}, "dtype": {"type": "DT_FLOAT"}}}, {"name": "model/tf__c3_1/tf__conv_10/conv2d_10/Conv2D_bn_offset", "op": "Const", "attr": {"value": {"tensor": {"dtype": "DT_FLOAT", "tensorShape": {"dim": [{"size": "128"}]}}}, "dtype": {"type": "DT_FLOAT"}}}, {"name": "model/tf__conv_17/sequential_4/conv2d_17/Conv2D_weights", "op": "Const", "attr": {"dtype": {"type": "DT_FLOAT"}, "value": {"tensor": {"dtype": "DT_FLOAT", "tensorShape": {"dim": [{"size": "3"}, {"size": "3"}, {"size": "128"}, {"size": "256"}]}}}}}, {"name": "model/tf__conv_17/sequential_4/conv2d_17/Conv2D_bn_offset", "op": "Const", "attr": {"dtype": {"type": "DT_FLOAT"}, "value": {"tensor": {"dtype": "DT_FLOAT", "tensorShape": {"dim": [{"size": "256"}]}}}}}, {"name": "model/tf__c3_2/tf__conv_18/conv2d_18/Conv2D_weights", "op": "Const", "attr": {"dtype": {"type": "DT_FLOAT"}, "value": {"tensor": {"dtype": "DT_FLOAT", "tensorShape": {"dim": [{"size": "1"}, {"size": "1"}, {"size": "256"}, {"size": "128"}]}}}}}, {"name": "model/tf__c3_2/tf__conv_18/conv2d_18/Conv2D_bn_offset", "op": "Const", "attr": {"value": {"tensor": {"dtype": "DT_FLOAT", "tensorShape": {"dim": [{"size": "128"}]}}}, "dtype": {"type": "DT_FLOAT"}}}, {"name": "model/tf__c3_2/tf__conv_19/conv2d_19/Conv2D_weights", "op": "Const", "attr": {"value": {"tensor": {"dtype": "DT_FLOAT", "tensorShape": {"dim": [{"size": "1"}, {"size": "1"}, {"size": "256"}, {"size": "128"}]}}}, "dtype": {"type": "DT_FLOAT"}}}, {"name": "model/tf__c3_2/tf__conv_19/conv2d_19/Conv2D_bn_offset", "op": "Const", "attr": {"value": {"tensor": {"dtype": "DT_FLOAT", "tensorShape": {"dim": [{"size": "128"}]}}}, "dtype": {"type": "DT_FLOAT"}}}, {"name": "model/tf__c3_2/sequential_5/tf__bottleneck_4/tf__conv_21/conv2d_21/Conv2D_weights", "op": "Const", "attr": {"dtype": {"type": "DT_FLOAT"}, "value": {"tensor": {"dtype": "DT_FLOAT", "tensorShape": {"dim": [{"size": "1"}, {"size": "1"}, {"size": "128"}, {"size": "128"}]}}}}}, {"name": "model/tf__c3_2/sequential_5/tf__bottleneck_4/tf__conv_21/conv2d_21/Conv2D_bn_offset", "op": "Const", "attr": {"value": {"tensor": {"dtype": "DT_FLOAT", "tensorShape": {"dim": [{"size": "128"}]}}}, "dtype": {"type": "DT_FLOAT"}}}, {"name": "model/tf__c3_2/sequential_5/tf__bottleneck_4/tf__conv_22/conv2d_22/Conv2D_weights", "op": "Const", "attr": {"value": {"tensor": {"dtype": "DT_FLOAT", "tensorShape": {"dim": [{"size": "3"}, {"size": "3"}, {"size": "128"}, {"size": "128"}]}}}, "dtype": {"type": "DT_FLOAT"}}}, {"name": "model/tf__c3_2/sequential_5/tf__bottleneck_4/tf__conv_22/conv2d_22/Conv2D_bn_offset", "op": "Const", "attr": {"value": {"tensor": {"dtype": "DT_FLOAT", "tensorShape": {"dim": [{"size": "128"}]}}}, "dtype": {"type": "DT_FLOAT"}}}, {"name": "model/tf__c3_2/sequential_5/tf__bottleneck_5/tf__conv_23/conv2d_23/Conv2D_weights", "op": "Const", "attr": {"dtype": {"type": "DT_FLOAT"}, "value": {"tensor": {"dtype": "DT_FLOAT", "tensorShape": {"dim": [{"size": "1"}, {"size": "1"}, {"size": "128"}, {"size": "128"}]}}}}}, {"name": "model/tf__c3_2/sequential_5/tf__bottleneck_5/tf__conv_23/conv2d_23/Conv2D_bn_offset", "op": "Const", "attr": {"dtype": {"type": "DT_FLOAT"}, "value": {"tensor": {"dtype": "DT_FLOAT", "tensorShape": {"dim": [{"size": "128"}]}}}}}, {"name": "model/tf__c3_2/sequential_5/tf__bottleneck_5/tf__conv_24/conv2d_24/Conv2D_weights", "op": "Const", "attr": {"value": {"tensor": {"dtype": "DT_FLOAT", "tensorShape": {"dim": [{"size": "3"}, {"size": "3"}, {"size": "128"}, {"size": "128"}]}}}, "dtype": {"type": "DT_FLOAT"}}}, {"name": "model/tf__c3_2/sequential_5/tf__bottleneck_5/tf__conv_24/conv2d_24/Conv2D_bn_offset", "op": "Const", "attr": {"value": {"tensor": {"dtype": "DT_FLOAT", "tensorShape": {"dim": [{"size": "128"}]}}}, "dtype": {"type": "DT_FLOAT"}}}, {"name": "model/tf__c3_2/sequential_5/tf__bottleneck_6/tf__conv_25/conv2d_25/Conv2D_weights", "op": "Const", "attr": {"value": {"tensor": {"dtype": "DT_FLOAT", "tensorShape": {"dim": [{"size": "1"}, {"size": "1"}, {"size": "128"}, {"size": "128"}]}}}, "dtype": {"type": "DT_FLOAT"}}}, {"name": "model/tf__c3_2/sequential_5/tf__bottleneck_6/tf__conv_25/conv2d_25/Conv2D_bn_offset", "op": "Const", "attr": {"dtype": {"type": "DT_FLOAT"}, "value": {"tensor": {"dtype": "DT_FLOAT", "tensorShape": {"dim": [{"size": "128"}]}}}}}, {"name": "model/tf__c3_2/sequential_5/tf__bottleneck_6/tf__conv_26/conv2d_26/Conv2D_weights", "op": "Const", "attr": {"dtype": {"type": "DT_FLOAT"}, "value": {"tensor": {"dtype": "DT_FLOAT", "tensorShape": {"dim": [{"size": "3"}, {"size": "3"}, {"size": "128"}, {"size": "128"}]}}}}}, {"name": "model/tf__c3_2/sequential_5/tf__bottleneck_6/tf__conv_26/conv2d_26/Conv2D_bn_offset", "op": "Const", "attr": {"value": {"tensor": {"dtype": "DT_FLOAT", "tensorShape": {"dim": [{"size": "128"}]}}}, "dtype": {"type": "DT_FLOAT"}}}, {"name": "model/tf__c3_2/tf__conv_20/conv2d_20/Conv2D_weights", "op": "Const", "attr": {"dtype": {"type": "DT_FLOAT"}, "value": {"tensor": {"dtype": "DT_FLOAT", "tensorShape": {"dim": [{"size": "1"}, {"size": "1"}, {"size": "256"}, {"size": "256"}]}}}}}, {"name": "model/tf__c3_2/tf__conv_20/conv2d_20/Conv2D_bn_offset", "op": "Const", "attr": {"value": {"tensor": {"dtype": "DT_FLOAT", "tensorShape": {"dim": [{"size": "256"}]}}}, "dtype": {"type": "DT_FLOAT"}}}, {"name": "model/tf__conv_27/sequential_6/conv2d_27/Conv2D_weights", "op": "Const", "attr": {"value": {"tensor": {"dtype": "DT_FLOAT", "tensorShape": {"dim": [{"size": "3"}, {"size": "3"}, {"size": "256"}, {"size": "512"}]}}}, "dtype": {"type": "DT_FLOAT"}}}, {"name": "model/tf__conv_27/sequential_6/conv2d_27/Conv2D_bn_offset", "op": "Const", "attr": {"dtype": {"type": "DT_FLOAT"}, "value": {"tensor": {"dtype": "DT_FLOAT", "tensorShape": {"dim": [{"size": "512"}]}}}}}, {"name": "model/tf_spp/tf__conv_28/conv2d_28/Conv2D_weights", "op": "Const", "attr": {"value": {"tensor": {"dtype": "DT_FLOAT", "tensorShape": {"dim": [{"size": "1"}, {"size": "1"}, {"size": "512"}, {"size": "256"}]}}}, "dtype": {"type": "DT_FLOAT"}}}, {"name": "model/tf_spp/tf__conv_28/conv2d_28/Conv2D_bn_offset", "op": "Const", "attr": {"dtype": {"type": "DT_FLOAT"}, "value": {"tensor": {"dtype": "DT_FLOAT", "tensorShape": {"dim": [{"size": "256"}]}}}}}, {"name": "model/tf_spp/tf__conv_29/conv2d_29/Conv2D_weights", "op": "Const", "attr": {"value": {"tensor": {"dtype": "DT_FLOAT", "tensorShape": {"dim": [{"size": "1"}, {"size": "1"}, {"size": "1024"}, {"size": "512"}]}}}, "dtype": {"type": "DT_FLOAT"}}}, {"name": "model/tf_spp/tf__conv_29/conv2d_29/Conv2D_bn_offset", "op": "Const", "attr": {"dtype": {"type": "DT_FLOAT"}, "value": {"tensor": {"dtype": "DT_FLOAT", "tensorShape": {"dim": [{"size": "512"}]}}}}}, {"name": "model/tf__c3_3/tf__conv_30/conv2d_30/Conv2D_weights", "op": "Const", "attr": {"dtype": {"type": "DT_FLOAT"}, "value": {"tensor": {"dtype": "DT_FLOAT", "tensorShape": {"dim": [{"size": "1"}, {"size": "1"}, {"size": "512"}, {"size": "256"}]}}}}}, {"name": "model/tf__c3_3/tf__conv_30/conv2d_30/Conv2D_bn_offset", "op": "Const", "attr": {"dtype": {"type": "DT_FLOAT"}, "value": {"tensor": {"dtype": "DT_FLOAT", "tensorShape": {"dim": [{"size": "256"}]}}}}}, {"name": "model/tf__c3_3/tf__conv_31/conv2d_31/Conv2D_weights", "op": "Const", "attr": {"value": {"tensor": {"dtype": "DT_FLOAT", "tensorShape": {"dim": [{"size": "1"}, {"size": "1"}, {"size": "512"}, {"size": "256"}]}}}, "dtype": {"type": "DT_FLOAT"}}}, {"name": "model/tf__c3_3/tf__conv_31/conv2d_31/Conv2D_bn_offset", "op": "Const", "attr": {"dtype": {"type": "DT_FLOAT"}, "value": {"tensor": {"dtype": "DT_FLOAT", "tensorShape": {"dim": [{"size": "256"}]}}}}}, {"name": "model/tf__c3_3/sequential_7/tf__bottleneck_7/tf__conv_33/conv2d_33/Conv2D_weights", "op": "Const", "attr": {"value": {"tensor": {"dtype": "DT_FLOAT", "tensorShape": {"dim": [{"size": "1"}, {"size": "1"}, {"size": "256"}, {"size": "256"}]}}}, "dtype": {"type": "DT_FLOAT"}}}, {"name": "model/tf__c3_3/sequential_7/tf__bottleneck_7/tf__conv_33/conv2d_33/Conv2D_bn_offset", "op": "Const", "attr": {"dtype": {"type": "DT_FLOAT"}, "value": {"tensor": {"dtype": "DT_FLOAT", "tensorShape": {"dim": [{"size": "256"}]}}}}}, {"name": "model/tf__c3_3/sequential_7/tf__bottleneck_7/tf__conv_34/conv2d_34/Conv2D_weights", "op": "Const", "attr": {"value": {"tensor": {"dtype": "DT_FLOAT", "tensorShape": {"dim": [{"size": "3"}, {"size": "3"}, {"size": "256"}, {"size": "256"}]}}}, "dtype": {"type": "DT_FLOAT"}}}, {"name": "model/tf__c3_3/sequential_7/tf__bottleneck_7/tf__conv_34/conv2d_34/Conv2D_bn_offset", "op": "Const", "attr": {"value": {"tensor": {"dtype": "DT_FLOAT", "tensorShape": {"dim": [{"size": "256"}]}}}, "dtype": {"type": "DT_FLOAT"}}}, {"name": "model/tf__c3_3/tf__conv_32/conv2d_32/Conv2D_weights", "op": "Const", "attr": {"value": {"tensor": {"dtype": "DT_FLOAT", "tensorShape": {"dim": [{"size": "1"}, {"size": "1"}, {"size": "512"}, {"size": "512"}]}}}, "dtype": {"type": "DT_FLOAT"}}}, {"name": "model/tf__c3_3/tf__conv_32/conv2d_32/Conv2D_bn_offset", "op": "Const", "attr": {"dtype": {"type": "DT_FLOAT"}, "value": {"tensor": {"dtype": "DT_FLOAT", "tensorShape": {"dim": [{"size": "512"}]}}}}}, {"name": "model/tf__conv_35/conv2d_35/Conv2D_weights", "op": "Const", "attr": {"value": {"tensor": {"dtype": "DT_FLOAT", "tensorShape": {"dim": [{"size": "1"}, {"size": "1"}, {"size": "512"}, {"size": "256"}]}}}, "dtype": {"type": "DT_FLOAT"}}}, {"name": "model/tf__conv_35/conv2d_35/Conv2D_bn_offset", "op": "Const", "attr": {"dtype": {"type": "DT_FLOAT"}, "value": {"tensor": {"dtype": "DT_FLOAT", "tensorShape": {"dim": [{"size": "256"}]}}}}}, {"name": "model/tf__c3_4/tf__conv_36/conv2d_36/Conv2D_weights", "op": "Const", "attr": {"value": {"tensor": {"dtype": "DT_FLOAT", "tensorShape": {"dim": [{"size": "1"}, {"size": "1"}, {"size": "512"}, {"size": "128"}]}}}, "dtype": {"type": "DT_FLOAT"}}}, {"name": "model/tf__c3_4/tf__conv_36/conv2d_36/Conv2D_bn_offset", "op": "Const", "attr": {"value": {"tensor": {"dtype": "DT_FLOAT", "tensorShape": {"dim": [{"size": "128"}]}}}, "dtype": {"type": "DT_FLOAT"}}}, {"name": "model/tf__c3_4/tf__conv_37/conv2d_37/Conv2D_weights", "op": "Const", "attr": {"value": {"tensor": {"dtype": "DT_FLOAT", "tensorShape": {"dim": [{"size": "1"}, {"size": "1"}, {"size": "512"}, {"size": "128"}]}}}, "dtype": {"type": "DT_FLOAT"}}}, {"name": "model/tf__c3_4/tf__conv_37/conv2d_37/Conv2D_bn_offset", "op": "Const", "attr": {"value": {"tensor": {"dtype": "DT_FLOAT", "tensorShape": {"dim": [{"size": "128"}]}}}, "dtype": {"type": "DT_FLOAT"}}}, {"name": "model/tf__c3_4/sequential_8/tf__bottleneck_8/tf__conv_39/conv2d_39/Conv2D_weights", "op": "Const", "attr": {"dtype": {"type": "DT_FLOAT"}, "value": {"tensor": {"dtype": "DT_FLOAT", "tensorShape": {"dim": [{"size": "1"}, {"size": "1"}, {"size": "128"}, {"size": "128"}]}}}}}, {"name": "model/tf__c3_4/sequential_8/tf__bottleneck_8/tf__conv_39/conv2d_39/Conv2D_bn_offset", "op": "Const", "attr": {"dtype": {"type": "DT_FLOAT"}, "value": {"tensor": {"dtype": "DT_FLOAT", "tensorShape": {"dim": [{"size": "128"}]}}}}}, {"name": "model/tf__c3_4/sequential_8/tf__bottleneck_8/tf__conv_40/conv2d_40/Conv2D_weights", "op": "Const", "attr": {"dtype": {"type": "DT_FLOAT"}, "value": {"tensor": {"dtype": "DT_FLOAT", "tensorShape": {"dim": [{"size": "3"}, {"size": "3"}, {"size": "128"}, {"size": "128"}]}}}}}, {"name": "model/tf__c3_4/sequential_8/tf__bottleneck_8/tf__conv_40/conv2d_40/Conv2D_bn_offset", "op": "Const", "attr": {"value": {"tensor": {"dtype": "DT_FLOAT", "tensorShape": {"dim": [{"size": "128"}]}}}, "dtype": {"type": "DT_FLOAT"}}}, {"name": "model/tf__c3_4/tf__conv_38/conv2d_38/Conv2D_weights", "op": "Const", "attr": {"dtype": {"type": "DT_FLOAT"}, "value": {"tensor": {"dtype": "DT_FLOAT", "tensorShape": {"dim": [{"size": "1"}, {"size": "1"}, {"size": "256"}, {"size": "256"}]}}}}}, {"name": "model/tf__c3_4/tf__conv_38/conv2d_38/Conv2D_bn_offset", "op": "Const", "attr": {"dtype": {"type": "DT_FLOAT"}, "value": {"tensor": {"dtype": "DT_FLOAT", "tensorShape": {"dim": [{"size": "256"}]}}}}}, {"name": "model/tf__conv_41/conv2d_41/Conv2D_weights", "op": "Const", "attr": {"value": {"tensor": {"dtype": "DT_FLOAT", "tensorShape": {"dim": [{"size": "1"}, {"size": "1"}, {"size": "256"}, {"size": "128"}]}}}, "dtype": {"type": "DT_FLOAT"}}}, {"name": "model/tf__conv_41/conv2d_41/Conv2D_bn_offset", "op": "Const", "attr": {"value": {"tensor": {"dtype": "DT_FLOAT", "tensorShape": {"dim": [{"size": "128"}]}}}, "dtype": {"type": "DT_FLOAT"}}}, {"name": "model/tf__c3_5/tf__conv_42/conv2d_42/Conv2D_weights", "op": "Const", "attr": {"dtype": {"type": "DT_FLOAT"}, "value": {"tensor": {"dtype": "DT_FLOAT", "tensorShape": {"dim": [{"size": "1"}, {"size": "1"}, {"size": "256"}, {"size": "64"}]}}}}}, {"name": "model/tf__c3_5/tf__conv_42/conv2d_42/Conv2D_bn_offset", "op": "Const", "attr": {"value": {"tensor": {"dtype": "DT_FLOAT", "tensorShape": {"dim": [{"size": "64"}]}}}, "dtype": {"type": "DT_FLOAT"}}}, {"name": "model/tf__c3_5/tf__conv_43/conv2d_43/Conv2D_weights", "op": "Const", "attr": {"value": {"tensor": {"dtype": "DT_FLOAT", "tensorShape": {"dim": [{"size": "1"}, {"size": "1"}, {"size": "256"}, {"size": "64"}]}}}, "dtype": {"type": "DT_FLOAT"}}}, {"name": "model/tf__c3_5/tf__conv_43/conv2d_43/Conv2D_bn_offset", "op": "Const", "attr": {"dtype": {"type": "DT_FLOAT"}, "value": {"tensor": {"dtype": "DT_FLOAT", "tensorShape": {"dim": [{"size": "64"}]}}}}}, {"name": "model/tf__c3_5/sequential_9/tf__bottleneck_9/tf__conv_45/conv2d_45/Conv2D_weights", "op": "Const", "attr": {"dtype": {"type": "DT_FLOAT"}, "value": {"tensor": {"dtype": "DT_FLOAT", "tensorShape": {"dim": [{"size": "1"}, {"size": "1"}, {"size": "64"}, {"size": "64"}]}}}}}, {"name": "model/tf__c3_5/sequential_9/tf__bottleneck_9/tf__conv_45/conv2d_45/Conv2D_bn_offset", "op": "Const", "attr": {"value": {"tensor": {"dtype": "DT_FLOAT", "tensorShape": {"dim": [{"size": "64"}]}}}, "dtype": {"type": "DT_FLOAT"}}}, {"name": "model/tf__c3_5/sequential_9/tf__bottleneck_9/tf__conv_46/conv2d_46/Conv2D_weights", "op": "Const", "attr": {"dtype": {"type": "DT_FLOAT"}, "value": {"tensor": {"dtype": "DT_FLOAT", "tensorShape": {"dim": [{"size": "3"}, {"size": "3"}, {"size": "64"}, {"size": "64"}]}}}}}, {"name": "model/tf__c3_5/sequential_9/tf__bottleneck_9/tf__conv_46/conv2d_46/Conv2D_bn_offset", "op": "Const", "attr": {"dtype": {"type": "DT_FLOAT"}, "value": {"tensor": {"dtype": "DT_FLOAT", "tensorShape": {"dim": [{"size": "64"}]}}}}}, {"name": "model/tf__c3_5/tf__conv_44/conv2d_44/Conv2D_weights", "op": "Const", "attr": {"value": {"tensor": {"dtype": "DT_FLOAT", "tensorShape": {"dim": [{"size": "1"}, {"size": "1"}, {"size": "128"}, {"size": "128"}]}}}, "dtype": {"type": "DT_FLOAT"}}}, {"name": "model/tf__c3_5/tf__conv_44/conv2d_44/Conv2D_bn_offset", "op": "Const", "attr": {"value": {"tensor": {"dtype": "DT_FLOAT", "tensorShape": {"dim": [{"size": "128"}]}}}, "dtype": {"type": "DT_FLOAT"}}}, {"name": "model/tf__conv_47/sequential_10/conv2d_47/Conv2D_weights", "op": "Const", "attr": {"dtype": {"type": "DT_FLOAT"}, "value": {"tensor": {"dtype": "DT_FLOAT", "tensorShape": {"dim": [{"size": "3"}, {"size": "3"}, {"size": "128"}, {"size": "128"}]}}}}}, {"name": "model/tf__conv_47/sequential_10/conv2d_47/Conv2D_bn_offset", "op": "Const", "attr": {"value": {"tensor": {"dtype": "DT_FLOAT", "tensorShape": {"dim": [{"size": "128"}]}}}, "dtype": {"type": "DT_FLOAT"}}}, {"name": "model/tf__c3_6/tf__conv_48/conv2d_48/Conv2D_weights", "op": "Const", "attr": {"dtype": {"type": "DT_FLOAT"}, "value": {"tensor": {"dtype": "DT_FLOAT", "tensorShape": {"dim": [{"size": "1"}, {"size": "1"}, {"size": "256"}, {"size": "128"}]}}}}}, {"name": "model/tf__c3_6/tf__conv_48/conv2d_48/Conv2D_bn_offset", "op": "Const", "attr": {"value": {"tensor": {"dtype": "DT_FLOAT", "tensorShape": {"dim": [{"size": "128"}]}}}, "dtype": {"type": "DT_FLOAT"}}}, {"name": "model/tf__c3_6/tf__conv_49/conv2d_49/Conv2D_weights", "op": "Const", "attr": {"value": {"tensor": {"dtype": "DT_FLOAT", "tensorShape": {"dim": [{"size": "1"}, {"size": "1"}, {"size": "256"}, {"size": "128"}]}}}, "dtype": {"type": "DT_FLOAT"}}}, {"name": "model/tf__c3_6/tf__conv_49/conv2d_49/Conv2D_bn_offset", "op": "Const", "attr": {"dtype": {"type": "DT_FLOAT"}, "value": {"tensor": {"dtype": "DT_FLOAT", "tensorShape": {"dim": [{"size": "128"}]}}}}}, {"name": "model/tf__c3_6/sequential_11/tf__bottleneck_10/tf__conv_51/conv2d_51/Conv2D_weights", "op": "Const", "attr": {"value": {"tensor": {"dtype": "DT_FLOAT", "tensorShape": {"dim": [{"size": "1"}, {"size": "1"}, {"size": "128"}, {"size": "128"}]}}}, "dtype": {"type": "DT_FLOAT"}}}, {"name": "model/tf__c3_6/sequential_11/tf__bottleneck_10/tf__conv_51/conv2d_51/Conv2D_bn_offset", "op": "Const", "attr": {"value": {"tensor": {"dtype": "DT_FLOAT", "tensorShape": {"dim": [{"size": "128"}]}}}, "dtype": {"type": "DT_FLOAT"}}}, {"name": "model/tf__c3_6/sequential_11/tf__bottleneck_10/tf__conv_52/conv2d_52/Conv2D_weights", "op": "Const", "attr": {"value": {"tensor": {"dtype": "DT_FLOAT", "tensorShape": {"dim": [{"size": "3"}, {"size": "3"}, {"size": "128"}, {"size": "128"}]}}}, "dtype": {"type": "DT_FLOAT"}}}, {"name": "model/tf__c3_6/sequential_11/tf__bottleneck_10/tf__conv_52/conv2d_52/Conv2D_bn_offset", "op": "Const", "attr": {"value": {"tensor": {"dtype": "DT_FLOAT", "tensorShape": {"dim": [{"size": "128"}]}}}, "dtype": {"type": "DT_FLOAT"}}}, {"name": "model/tf__c3_6/tf__conv_50/conv2d_50/Conv2D_weights", "op": "Const", "attr": {"dtype": {"type": "DT_FLOAT"}, "value": {"tensor": {"dtype": "DT_FLOAT", "tensorShape": {"dim": [{"size": "1"}, {"size": "1"}, {"size": "256"}, {"size": "256"}]}}}}}, {"name": "model/tf__c3_6/tf__conv_50/conv2d_50/Conv2D_bn_offset", "op": "Const", "attr": {"value": {"tensor": {"dtype": "DT_FLOAT", "tensorShape": {"dim": [{"size": "256"}]}}}, "dtype": {"type": "DT_FLOAT"}}}, {"name": "model/tf__conv_53/sequential_12/conv2d_53/Conv2D_weights", "op": "Const", "attr": {"value": {"tensor": {"dtype": "DT_FLOAT", "tensorShape": {"dim": [{"size": "3"}, {"size": "3"}, {"size": "256"}, {"size": "256"}]}}}, "dtype": {"type": "DT_FLOAT"}}}, {"name": "model/tf__conv_53/sequential_12/conv2d_53/Conv2D_bn_offset", "op": "Const", "attr": {"dtype": {"type": "DT_FLOAT"}, "value": {"tensor": {"dtype": "DT_FLOAT", "tensorShape": {"dim": [{"size": "256"}]}}}}}, {"name": "model/tf__c3_7/tf__conv_54/conv2d_54/Conv2D_weights", "op": "Const", "attr": {"dtype": {"type": "DT_FLOAT"}, "value": {"tensor": {"dtype": "DT_FLOAT", "tensorShape": {"dim": [{"size": "1"}, {"size": "1"}, {"size": "512"}, {"size": "256"}]}}}}}, {"name": "model/tf__c3_7/tf__conv_54/conv2d_54/Conv2D_bn_offset", "op": "Const", "attr": {"value": {"tensor": {"dtype": "DT_FLOAT", "tensorShape": {"dim": [{"size": "256"}]}}}, "dtype": {"type": "DT_FLOAT"}}}, {"name": "model/tf__c3_7/tf__conv_55/conv2d_55/Conv2D_weights", "op": "Const", "attr": {"value": {"tensor": {"dtype": "DT_FLOAT", "tensorShape": {"dim": [{"size": "1"}, {"size": "1"}, {"size": "512"}, {"size": "256"}]}}}, "dtype": {"type": "DT_FLOAT"}}}, {"name": "model/tf__c3_7/tf__conv_55/conv2d_55/Conv2D_bn_offset", "op": "Const", "attr": {"value": {"tensor": {"dtype": "DT_FLOAT", "tensorShape": {"dim": [{"size": "256"}]}}}, "dtype": {"type": "DT_FLOAT"}}}, {"name": "model/tf__c3_7/sequential_13/tf__bottleneck_11/tf__conv_57/conv2d_57/Conv2D_weights", "op": "Const", "attr": {"value": {"tensor": {"dtype": "DT_FLOAT", "tensorShape": {"dim": [{"size": "1"}, {"size": "1"}, {"size": "256"}, {"size": "256"}]}}}, "dtype": {"type": "DT_FLOAT"}}}, {"name": "model/tf__c3_7/sequential_13/tf__bottleneck_11/tf__conv_57/conv2d_57/Conv2D_bn_offset", "op": "Const", "attr": {"value": {"tensor": {"dtype": "DT_FLOAT", "tensorShape": {"dim": [{"size": "256"}]}}}, "dtype": {"type": "DT_FLOAT"}}}, {"name": "model/tf__c3_7/sequential_13/tf__bottleneck_11/tf__conv_58/conv2d_58/Conv2D_weights", "op": "Const", "attr": {"value": {"tensor": {"dtype": "DT_FLOAT", "tensorShape": {"dim": [{"size": "3"}, {"size": "3"}, {"size": "256"}, {"size": "256"}]}}}, "dtype": {"type": "DT_FLOAT"}}}, {"name": "model/tf__c3_7/sequential_13/tf__bottleneck_11/tf__conv_58/conv2d_58/Conv2D_bn_offset", "op": "Const", "attr": {"value": {"tensor": {"dtype": "DT_FLOAT", "tensorShape": {"dim": [{"size": "256"}]}}}, "dtype": {"type": "DT_FLOAT"}}}, {"name": "model/tf__c3_7/tf__conv_56/conv2d_56/Conv2D_weights", "op": "Const", "attr": {"dtype": {"type": "DT_FLOAT"}, "value": {"tensor": {"dtype": "DT_FLOAT", "tensorShape": {"dim": [{"size": "1"}, {"size": "1"}, {"size": "512"}, {"size": "512"}]}}}}}, {"name": "model/tf__c3_7/tf__conv_56/conv2d_56/Conv2D_bn_offset", "op": "Const", "attr": {"value": {"tensor": {"dtype": "DT_FLOAT", "tensorShape": {"dim": [{"size": "512"}]}}}, "dtype": {"type": "DT_FLOAT"}}}, {"name": "model/agnostic_nms_layer_1/agnostic_nms/TensorArrayV2_3", "op": "TensorListReserve", "input": ["model/agnostic_nms_layer_1/agnostic_nms/TensorArrayV2_3/element_shape", "model/agnostic_nms_layer_1/agnostic_nms/TensorArrayV2_3/num_elements"], "attr": {"shape_type": {"type": "DT_INT32"}, "element_dtype": {"type": "DT_FLOAT"}}}, {"name": "model/agnostic_nms_layer_1/agnostic_nms/TensorArrayV2_4", "op": "TensorListReserve", "input": ["model/agnostic_nms_layer_1/agnostic_nms/TensorArrayV2_4/element_shape", "model/agnostic_nms_layer_1/agnostic_nms/TensorArrayV2_4/num_elements"], "attr": {"shape_type": {"type": "DT_INT32"}, "element_dtype": {"type": "DT_FLOAT"}}}, {"name": "model/agnostic_nms_layer_1/agnostic_nms/TensorArrayV2_5", "op": "TensorListReserve", "input": ["model/agnostic_nms_layer_1/agnostic_nms/TensorArrayV2_5/element_shape", "model/agnostic_nms_layer_1/agnostic_nms/TensorArrayV2_5/num_elements"], "attr": {"element_dtype": {"type": "DT_FLOAT"}, "shape_type": {"type": "DT_INT32"}}}, {"name": "model/agnostic_nms_layer_1/agnostic_nms/TensorArrayV2_6", "op": "TensorListReserve", "input": ["model/agnostic_nms_layer_1/agnostic_nms/TensorArrayV2_6/element_shape", "model/agnostic_nms_layer_1/agnostic_nms/TensorArrayV2_6/num_elements"], "attr": {"element_dtype": {"type": "DT_INT32"}, "shape_type": {"type": "DT_INT32"}}}, {"name": "model/agnostic_nms_layer_1/agnostic_nms/while/enter/_3", "op": "Enter", "input": ["model/agnostic_nms_layer_1/agnostic_nms/while/maximum_iterations"], "attr": {"frame_name": {"s": "bW9kZWwvYWdub3N0aWNfbm1zX2xheWVyXzEvYWdub3N0aWNfbm1zL3doaWxl"}, "is_constant": {"b": false}, "parallel_iterations": {"i": "10"}, "T": {"type": "DT_INT32"}}}, {"name": "model/agnostic_nms_layer_1/agnostic_nms/while/enter/_4", "op": "Enter", "input": ["model/agnostic_nms_layer_1/agnostic_nms/Const"], "attr": {"frame_name": {"s": "bW9kZWwvYWdub3N0aWNfbm1zX2xheWVyXzEvYWdub3N0aWNfbm1zL3doaWxl"}, "parallel_iterations": {"i": "10"}, "is_constant": {"b": false}, "T": {"type": "DT_INT32"}}}, {"name": "model/agnostic_nms_layer_1/agnostic_nms/while/enter/_2", "op": "Enter", "input": ["model/agnostic_nms_layer_1/agnostic_nms/while/loop_counter"], "attr": {"frame_name": {"s": "bW9kZWwvYWdub3N0aWNfbm1zX2xheWVyXzEvYWdub3N0aWNfbm1zL3doaWxl"}, "parallel_iterations": {"i": "10"}, "T": {"type": "DT_INT32"}, "is_constant": {"b": false}}}, {"name": "model/tf__focus/strided_slice", "op": "StridedSlice", "input": ["x", "model/tf__focus/strided_slice/stack", "model/tf__focus/strided_slice/stack_1", "model/tf__focus/strided_slice/stack_2"], "attr": {"new_axis_mask": {"i": "0"}, "shrink_axis_mask": {"i": "0"}, "Index": {"type": "DT_INT32"}, "ellipsis_mask": {"i": "0"}, "begin_mask": {"i": "15"}, "T": {"type": "DT_FLOAT"}, "end_mask": {"i": "15"}}}, {"name": "model/tf__focus/strided_slice_1", "op": "StridedSlice", "input": ["x", "model/tf__focus/strided_slice_1/stack", "model/tf__focus/strided_slice_1/stack_1", "model/tf__focus/strided_slice_1/stack_2"], "attr": {"ellipsis_mask": {"i": "0"}, "Index": {"type": "DT_INT32"}, "T": {"type": "DT_FLOAT"}, "begin_mask": {"i": "13"}, "shrink_axis_mask": {"i": "0"}, "new_axis_mask": {"i": "0"}, "end_mask": {"i": "15"}}}, {"name": "model/tf__focus/strided_slice_2", "op": "StridedSlice", "input": ["x", "model/tf__focus/strided_slice_2/stack", "model/tf__focus/strided_slice_2/stack_1", "model/tf__focus/strided_slice_2/stack_2"], "attr": {"end_mask": {"i": "15"}, "Index": {"type": "DT_INT32"}, "new_axis_mask": {"i": "0"}, "ellipsis_mask": {"i": "0"}, "T": {"type": "DT_FLOAT"}, "shrink_axis_mask": {"i": "0"}, "begin_mask": {"i": "11"}}}, {"name": "model/tf__focus/strided_slice_3", "op": "StridedSlice", "input": ["x", "model/tf__focus/strided_slice_3/stack", "model/tf__focus/strided_slice_3/stack_1", "model/tf__focus/strided_slice_3/stack_2"], "attr": {"Index": {"type": "DT_INT32"}, "new_axis_mask": {"i": "0"}, "begin_mask": {"i": "9"}, "ellipsis_mask": {"i": "0"}, "shrink_axis_mask": {"i": "0"}, "T": {"type": "DT_FLOAT"}, "end_mask": {"i": "15"}}}, {"name": "model/agnostic_nms_layer_1/agnostic_nms/while/enter/_5", "op": "Enter", "input": ["model/agnostic_nms_layer_1/agnostic_nms/TensorArrayV2_3"], "attr": {"frame_name": {"s": "bW9kZWwvYWdub3N0aWNfbm1zX2xheWVyXzEvYWdub3N0aWNfbm1zL3doaWxl"}, "is_constant": {"b": false}, "parallel_iterations": {"i": "10"}, "T": {"type": "DT_VARIANT"}}}, {"name": "model/agnostic_nms_layer_1/agnostic_nms/while/enter/_6", "op": "Enter", "input": ["model/agnostic_nms_layer_1/agnostic_nms/TensorArrayV2_4"], "attr": {"T": {"type": "DT_VARIANT"}, "frame_name": {"s": "bW9kZWwvYWdub3N0aWNfbm1zX2xheWVyXzEvYWdub3N0aWNfbm1zL3doaWxl"}, "parallel_iterations": {"i": "10"}, "is_constant": {"b": false}}}, {"name": "model/agnostic_nms_layer_1/agnostic_nms/while/enter/_7", "op": "Enter", "input": ["model/agnostic_nms_layer_1/agnostic_nms/TensorArrayV2_5"], "attr": {"parallel_iterations": {"i": "10"}, "T": {"type": "DT_VARIANT"}, "is_constant": {"b": false}, "frame_name": {"s": "bW9kZWwvYWdub3N0aWNfbm1zX2xheWVyXzEvYWdub3N0aWNfbm1zL3doaWxl"}}}, {"name": "model/agnostic_nms_layer_1/agnostic_nms/while/enter/_8", "op": "Enter", "input": ["model/agnostic_nms_layer_1/agnostic_nms/TensorArrayV2_6"], "attr": {"T": {"type": "DT_VARIANT"}, "frame_name": {"s": "bW9kZWwvYWdub3N0aWNfbm1zX2xheWVyXzEvYWdub3N0aWNfbm1zL3doaWxl"}, "parallel_iterations": {"i": "10"}, "is_constant": {"b": false}}}, {"name": "model/agnostic_nms_layer_1/agnostic_nms/while/merge/_13", "op": "Merge", "input": ["model/agnostic_nms_layer_1/agnostic_nms/while/enter/_3", "model/agnostic_nms_layer_1/agnostic_nms/while/next_iteration/_46"], "attr": {"T": {"type": "DT_INT32"}, "N": {"i": "2"}}}, {"name": "model/agnostic_nms_layer_1/agnostic_nms/while/merge/_14", "op": "Merge", "input": ["model/agnostic_nms_layer_1/agnostic_nms/while/enter/_4", "model/agnostic_nms_layer_1/agnostic_nms/while/next_iteration/_47"], "attr": {"N": {"i": "2"}, "T": {"type": "DT_INT32"}}}, {"name": "model/agnostic_nms_layer_1/agnostic_nms/while/merge/_12", "op": "Merge", "input": ["model/agnostic_nms_layer_1/agnostic_nms/while/enter/_2", "model/agnostic_nms_layer_1/agnostic_nms/while/next_iteration/_45"], "attr": {"N": {"i": "2"}, "T": {"type": "DT_INT32"}}}, {"name": "model/tf__focus/concat", "op": "ConcatV2", "input": ["model/tf__focus/strided_slice", "model/tf__focus/strided_slice_1", "model/tf__focus/strided_slice_2", "model/tf__focus/strided_slice_3", "model/tf__focus/concat/axis"], "attr": {"N": {"i": "4"}, "T": {"type": "DT_FLOAT"}, "Tidx": {"type": "DT_INT32"}}}, {"name": "model/agnostic_nms_layer_1/agnostic_nms/while/merge/_15", "op": "Merge", "input": ["model/agnostic_nms_layer_1/agnostic_nms/while/enter/_5", "model/agnostic_nms_layer_1/agnostic_nms/while/next_iteration/_48"], "attr": {"N": {"i": "2"}, "T": {"type": "DT_VARIANT"}}}, {"name": "model/agnostic_nms_layer_1/agnostic_nms/while/merge/_16", "op": "Merge", "input": ["model/agnostic_nms_layer_1/agnostic_nms/while/enter/_6", "model/agnostic_nms_layer_1/agnostic_nms/while/next_iteration/_49"], "attr": {"T": {"type": "DT_VARIANT"}, "N": {"i": "2"}}}, {"name": "model/agnostic_nms_layer_1/agnostic_nms/while/merge/_17", "op": "Merge", "input": ["model/agnostic_nms_layer_1/agnostic_nms/while/enter/_7", "model/agnostic_nms_layer_1/agnostic_nms/while/next_iteration/_50"], "attr": {"N": {"i": "2"}, "T": {"type": "DT_VARIANT"}}}, {"name": "model/agnostic_nms_layer_1/agnostic_nms/while/merge/_18", "op": "Merge", "input": ["model/agnostic_nms_layer_1/agnostic_nms/while/enter/_8", "model/agnostic_nms_layer_1/agnostic_nms/while/next_iteration/_51"], "attr": {"N": {"i": "2"}, "T": {"type": "DT_VARIANT"}}}, {"name": "model/agnostic_nms_layer_1/agnostic_nms/while/cond/_0/model/agnostic_nms_layer_1/agnostic_nms/while/Less_1", "op": "Less", "input": ["model/agnostic_nms_layer_1/agnostic_nms/while/merge/_12", "model/agnostic_nms_layer_1/agnostic_nms/while/merge/_13"], "attr": {"T": {"type": "DT_INT32"}}}, {"name": "model/agnostic_nms_layer_1/agnostic_nms/while/cond/_0/model/agnostic_nms_layer_1/agnostic_nms/while/Less/y", "op": "Const", "input": ["^model/agnostic_nms_layer_1/agnostic_nms/while/merge/_12"], "attr": {"value": {"tensor": {"dtype": "DT_INT32", "tensorShape": {}}}, "dtype": {"type": "DT_INT32"}}}, {"name": "model/tf__focus/tf__conv/tf_bn/batch_normalization/FusedBatchNormV3", "op": "_FusedConv2D", "input": ["model/tf__focus/concat", "model/tf__focus/tf__conv/conv2d/Conv2D_weights", "model/tf__focus/tf__conv/conv2d/Conv2D_bn_offset"], "device": "/device:CPU:0", "attr": {"num_args": {"i": "1"}, "epsilon": {"f": 0.0}, "use_cudnn_on_gpu": {"b": true}, "strides": {"list": {"i": ["1", "1", "1", "1"]}}, "dilations": {"list": {"i": ["1", "1", "1", "1"]}}, "explicit_paddings": {"list": {}}, "data_format": {"s": "TkhXQw=="}, "fused_ops": {"list": {"s": ["Qmlhc0FkZA=="]}}, "T": {"type": "DT_FLOAT"}, "padding": {"s": "U0FNRQ=="}}}, {"name": "model/agnostic_nms_layer_1/agnostic_nms/while/cond/_0/model/agnostic_nms_layer_1/agnostic_nms/while/Less", "op": "Less", "input": ["model/agnostic_nms_layer_1/agnostic_nms/while/merge/_14", "model/agnostic_nms_layer_1/agnostic_nms/while/cond/_0/model/agnostic_nms_layer_1/agnostic_nms/while/Less/y", "^model/agnostic_nms_layer_1/agnostic_nms/while/merge/_12"], "attr": {"T": {"type": "DT_INT32"}}}, {"name": "model/tf__focus/tf__conv/Sigmoid", "op": "Sigmoid", "input": ["model/tf__focus/tf__conv/tf_bn/batch_normalization/FusedBatchNormV3"], "attr": {"T": {"type": "DT_FLOAT"}}}, {"name": "model/agnostic_nms_layer_1/agnostic_nms/while/cond/_0/model/agnostic_nms_layer_1/agnostic_nms/while/LogicalAnd", "op": "LogicalAnd", "input": ["model/agnostic_nms_layer_1/agnostic_nms/while/cond/_0/model/agnostic_nms_layer_1/agnostic_nms/while/Less_1", "model/agnostic_nms_layer_1/agnostic_nms/while/cond/_0/model/agnostic_nms_layer_1/agnostic_nms/while/Less"]}, {"name": "model/tf__focus/tf__conv/mul", "op": "Mul", "input": ["model/tf__focus/tf__conv/tf_bn/batch_normalization/FusedBatchNormV3", "model/tf__focus/tf__conv/Sigmoid"], "attr": {"T": {"type": "DT_FLOAT"}}}, {"name": "model/agnostic_nms_layer_1/agnostic_nms/while/LoopCond/_22", "op": "LoopCond", "input": ["model/agnostic_nms_layer_1/agnostic_nms/while/cond/_0/model/agnostic_nms_layer_1/agnostic_nms/while/LogicalAnd"]}, {"name": "model/tf__conv_1/sequential/tf__pad/Pad", "op": "Pad", "input": ["model/tf__focus/tf__conv/mul", "model/tf__conv_1/sequential/tf__pad/Pad/paddings"], "attr": {"Tpaddings": {"type": "DT_INT32"}, "T": {"type": "DT_FLOAT"}}}, {"name": "model/agnostic_nms_layer_1/agnostic_nms/while/model/agnostic_nms_layer_1/agnostic_nms/TensorArrayV2_3_switch/_26", "op": "Switch", "input": ["model/agnostic_nms_layer_1/agnostic_nms/while/merge/_15", "model/agnostic_nms_layer_1/agnostic_nms/while/LoopCond/_22"], "attr": {"T": {"type": "DT_VARIANT"}}}, {"name": "model/agnostic_nms_layer_1/agnostic_nms/while/model/agnostic_nms_layer_1/agnostic_nms/TensorArrayV2_4_switch/_27", "op": "Switch", "input": ["model/agnostic_nms_layer_1/agnostic_nms/while/merge/_16", "model/agnostic_nms_layer_1/agnostic_nms/while/LoopCond/_22"], "attr": {"T": {"type": "DT_VARIANT"}}}, {"name": "model/agnostic_nms_layer_1/agnostic_nms/while/model/agnostic_nms_layer_1/agnostic_nms/TensorArrayV2_5_switch/_28", "op": "Switch", "input": ["model/agnostic_nms_layer_1/agnostic_nms/while/merge/_17", "model/agnostic_nms_layer_1/agnostic_nms/while/LoopCond/_22"], "attr": {"T": {"type": "DT_VARIANT"}}}, {"name": "model/agnostic_nms_layer_1/agnostic_nms/while/model/agnostic_nms_layer_1/agnostic_nms/while/maximum_iterations_switch/_24", "op": "Switch", "input": ["model/agnostic_nms_layer_1/agnostic_nms/while/merge/_13", "model/agnostic_nms_layer_1/agnostic_nms/while/LoopCond/_22"], "attr": {"T": {"type": "DT_INT32"}}}, {"name": "model/agnostic_nms_layer_1/agnostic_nms/while/model/agnostic_nms_layer_1/agnostic_nms/Const_switch/_25", "op": "Switch", "input": ["model/agnostic_nms_layer_1/agnostic_nms/while/merge/_14", "model/agnostic_nms_layer_1/agnostic_nms/while/LoopCond/_22"], "attr": {"T": {"type": "DT_INT32"}}}, {"name": "model/agnostic_nms_layer_1/agnostic_nms/while/model/agnostic_nms_layer_1/agnostic_nms/while/loop_counter_switch/_23", "op": "Switch", "input": ["model/agnostic_nms_layer_1/agnostic_nms/while/merge/_12", "model/agnostic_nms_layer_1/agnostic_nms/while/LoopCond/_22"], "attr": {"T": {"type": "DT_INT32"}}}, {"name": "model/agnostic_nms_layer_1/agnostic_nms/while/model/agnostic_nms_layer_1/agnostic_nms/TensorArrayV2_6_switch/_29", "op": "Switch", "input": ["model/agnostic_nms_layer_1/agnostic_nms/while/merge/_18", "model/agnostic_nms_layer_1/agnostic_nms/while/LoopCond/_22"], "attr": {"T": {"type": "DT_VARIANT"}}}, {"name": "model/tf__conv_1/tf_bn_1/batch_normalization_1/FusedBatchNormV3", "op": "_FusedConv2D", "input": ["model/tf__conv_1/sequential/tf__pad/Pad", "model/tf__conv_1/sequential/conv2d_1/Conv2D_weights", "model/tf__conv_1/sequential/conv2d_1/Conv2D_bn_offset"], "device": "/device:CPU:0", "attr": {"padding": {"s": "VkFMSUQ="}, "fused_ops": {"list": {"s": ["Qmlhc0FkZA=="]}}, "epsilon": {"f": 0.0}, "data_format": {"s": "TkhXQw=="}, "dilations": {"list": {"i": ["1", "1", "1", "1"]}}, "strides": {"list": {"i": ["1", "2", "2", "1"]}}, "use_cudnn_on_gpu": {"b": true}, "T": {"type": "DT_FLOAT"}, "num_args": {"i": "1"}, "explicit_paddings": {"list": {}}}}, {"name": "model/agnostic_nms_layer_1/agnostic_nms/while/exit/_37", "op": "Exit", "input": ["model/agnostic_nms_layer_1/agnostic_nms/while/model/agnostic_nms_layer_1/agnostic_nms/TensorArrayV2_3_switch/_26"], "attr": {"T": {"type": "DT_VARIANT"}}}, {"name": "model/agnostic_nms_layer_1/agnostic_nms/while/exit/_38", "op": "Exit", "input": ["model/agnostic_nms_layer_1/agnostic_nms/while/model/agnostic_nms_layer_1/agnostic_nms/TensorArrayV2_4_switch/_27"], "attr": {"T": {"type": "DT_VARIANT"}}}, {"name": "model/agnostic_nms_layer_1/agnostic_nms/while/exit/_39", "op": "Exit", "input": ["model/agnostic_nms_layer_1/agnostic_nms/while/model/agnostic_nms_layer_1/agnostic_nms/TensorArrayV2_5_switch/_28"], "attr": {"T": {"type": "DT_VARIANT"}}}, {"name": "model/agnostic_nms_layer_1/agnostic_nms/while/loop_body_control/_33", "op": "Identity", "input": ["model/agnostic_nms_layer_1/agnostic_nms/while/model/agnostic_nms_layer_1/agnostic_nms/while/loop_counter_switch/_23:1"], "attr": {"T": {"type": "DT_INT32"}}}, {"name": "model/agnostic_nms_layer_1/agnostic_nms/while/exit/_40", "op": "Exit", "input": ["model/agnostic_nms_layer_1/agnostic_nms/while/model/agnostic_nms_layer_1/agnostic_nms/TensorArrayV2_6_switch/_29"], "attr": {"T": {"type": "DT_VARIANT"}}}, {"name": "model/tf__conv_1/Sigmoid", "op": "Sigmoid", "input": ["model/tf__conv_1/tf_bn_1/batch_normalization_1/FusedBatchNormV3"], "attr": {"T": {"type": "DT_FLOAT"}}}, {"name": "model/agnostic_nms_layer_1/agnostic_nms/TensorArrayV2Stack/TensorListStack", "op": "TensorListStack", "input": ["model/agnostic_nms_layer_1/agnostic_nms/while/exit/_37", "model/agnostic_nms_layer_1/agnostic_nms/TensorArrayV2Stack/TensorListStack/element_shape"], "attr": {"element_dtype": {"type": "DT_FLOAT"}, "num_elements": {"i": "1"}}}, {"name": "model/agnostic_nms_layer_1/agnostic_nms/TensorArrayV2Stack_1/TensorListStack", "op": "TensorListStack", "input": ["model/agnostic_nms_layer_1/agnostic_nms/while/exit/_38", "model/agnostic_nms_layer_1/agnostic_nms/TensorArrayV2Stack_1/TensorListStack/element_shape"], "attr": {"num_elements": {"i": "1"}, "element_dtype": {"type": "DT_FLOAT"}}}, {"name": "model/agnostic_nms_layer_1/agnostic_nms/TensorArrayV2Stack_2/TensorListStack", "op": "TensorListStack", "input": ["model/agnostic_nms_layer_1/agnostic_nms/while/exit/_39", "model/agnostic_nms_layer_1/agnostic_nms/TensorArrayV2Stack_2/TensorListStack/element_shape"], "attr": {"num_elements": {"i": "1"}, "element_dtype": {"type": "DT_FLOAT"}}}, {"name": "model/agnostic_nms_layer_1/agnostic_nms/while/body/_1/model/agnostic_nms_layer_1/agnostic_nms/while/Pad/paddings/0/0", "op": "Const", "input": ["^model/agnostic_nms_layer_1/agnostic_nms/while/loop_body_control/_33"], "attr": {"dtype": {"type": "DT_INT32"}, "value": {"tensor": {"dtype": "DT_INT32", "tensorShape": {}}}}}, {"name": "model/agnostic_nms_layer_1/agnostic_nms/while/body/_1/model/agnostic_nms_layer_1/agnostic_nms/while/sub/x", "op": "Const", "input": ["^model/agnostic_nms_layer_1/agnostic_nms/while/loop_body_control/_33"], "attr": {"dtype": {"type": "DT_INT32"}, "value": {"tensor": {"dtype": "DT_INT32", "tensorShape": {}}}}}, {"name": "model/agnostic_nms_layer_1/agnostic_nms/while/body/_1/model/agnostic_nms_layer_1/agnostic_nms/while/strided_slice/stack", "op": "Const", "input": ["^model/agnostic_nms_layer_1/agnostic_nms/while/loop_body_control/_33"], "attr": {"value": {"tensor": {"dtype": "DT_INT32", "tensorShape": {"dim": [{"size": "1"}]}}}, "dtype": {"type": "DT_INT32"}}}, {"name": "model/agnostic_nms_layer_1/agnostic_nms/while/body/_1/model/agnostic_nms_layer_1/agnostic_nms/while/strided_slice/stack_1", "op": "Const", "input": ["^model/agnostic_nms_layer_1/agnostic_nms/while/loop_body_control/_33"], "attr": {"dtype": {"type": "DT_INT32"}, "value": {"tensor": {"dtype": "DT_INT32", "tensorShape": {"dim": [{"size": "1"}]}}}}}, {"name": "model/agnostic_nms_layer_1/agnostic_nms/while/body/_1/model/agnostic_nms_layer_1/agnostic_nms/while/strided_slice/stack_2", "op": "Const", "input": ["^model/agnostic_nms_layer_1/agnostic_nms/while/loop_body_control/_33"], "attr": {"value": {"tensor": {"dtype": "DT_INT32", "tensorShape": {"dim": [{"size": "1"}]}}}, "dtype": {"type": "DT_INT32"}}}, {"name": "model/agnostic_nms_layer_1/agnostic_nms/while/body/_1/model/agnostic_nms_layer_1/agnostic_nms/while/Pad/paddings/1_1", "op": "Const", "input": ["^model/agnostic_nms_layer_1/agnostic_nms/while/loop_body_control/_33"], "attr": {"dtype": {"type": "DT_INT32"}, "value": {"tensor": {"dtype": "DT_INT32", "tensorShape": {"dim": [{"size": "2"}]}}}}}, {"name": "model/agnostic_nms_layer_1/agnostic_nms/while/body/_1/model/agnostic_nms_layer_1/agnostic_nms/while/GatherV2_1/axis", "op": "Const", "input": ["^model/agnostic_nms_layer_1/agnostic_nms/while/loop_body_control/_33"], "attr": {"value": {"tensor": {"dtype": "DT_INT32", "tensorShape": {}}}, "dtype": {"type": "DT_INT32"}}}, {"name": "model/agnostic_nms_layer_1/agnostic_nms/while/body/_1/model/agnostic_nms_layer_1/agnostic_nms/while/PadV2/paddings/0/0", "op": "Const", "input": ["^model/agnostic_nms_layer_1/agnostic_nms/while/loop_body_control/_33"], "attr": {"value": {"tensor": {"dtype": "DT_INT32", "tensorShape": {}}}, "dtype": {"type": "DT_INT32"}}}, {"name": "model/agnostic_nms_layer_1/agnostic_nms/while/body/_1/model/agnostic_nms_layer_1/agnostic_nms/while/sub_1/x", "op": "Const", "input": ["^model/agnostic_nms_layer_1/agnostic_nms/while/loop_body_control/_33"], "attr": {"dtype": {"type": "DT_INT32"}, "value": {"tensor": {"dtype": "DT_INT32", "tensorShape": {}}}}}, {"name": "model/agnostic_nms_layer_1/agnostic_nms/while/body/_1/model/agnostic_nms_layer_1/agnostic_nms/while/strided_slice_1/stack", "op": "Const", "input": ["^model/agnostic_nms_layer_1/agnostic_nms/while/loop_body_control/_33"], "attr": {"value": {"tensor": {"dtype": "DT_INT32", "tensorShape": {"dim": [{"size": "1"}]}}}, "dtype": {"type": "DT_INT32"}}}, {"name": "model/agnostic_nms_layer_1/agnostic_nms/while/body/_1/model/agnostic_nms_layer_1/agnostic_nms/while/strided_slice_1/stack_1", "op": "Const", "input": ["^model/agnostic_nms_layer_1/agnostic_nms/while/loop_body_control/_33"], "attr": {"dtype": {"type": "DT_INT32"}, "value": {"tensor": {"dtype": "DT_INT32", "tensorShape": {"dim": [{"size": "1"}]}}}}}, {"name": "model/agnostic_nms_layer_1/agnostic_nms/while/body/_1/model/agnostic_nms_layer_1/agnostic_nms/while/strided_slice_1/stack_2", "op": "Const", "input": ["^model/agnostic_nms_layer_1/agnostic_nms/while/loop_body_control/_33"], "attr": {"value": {"tensor": {"dtype": "DT_INT32", "tensorShape": {"dim": [{"size": "1"}]}}}, "dtype": {"type": "DT_INT32"}}}, {"name": "model/agnostic_nms_layer_1/agnostic_nms/while/body/_1/model/agnostic_nms_layer_1/agnostic_nms/while/PadV2/constant_values", "op": "Const", "input": ["^model/agnostic_nms_layer_1/agnostic_nms/while/loop_body_control/_33"], "attr": {"value": {"tensor": {"dtype": "DT_FLOAT", "tensorShape": {}}}, "dtype": {"type": "DT_FLOAT"}}}, {"name": "model/agnostic_nms_layer_1/agnostic_nms/while/body/_1/model/agnostic_nms_layer_1/agnostic_nms/while/TensorArrayV2Read_1/TensorListGetItem/element_shape", "op": "Const", "input": ["^model/agnostic_nms_layer_1/agnostic_nms/while/loop_body_control/_33"], "attr": {"value": {"tensor": {"dtype": "DT_INT32", "tensorShape": {"dim": [{"size": "2"}]}}}, "dtype": {"type": "DT_INT32"}}}, {"name": "model/agnostic_nms_layer_1/agnostic_nms/while/body/_1/model/agnostic_nms_layer_1/agnostic_nms/while/ArgMax/dimension", "op": "Const", "input": ["^model/agnostic_nms_layer_1/agnostic_nms/while/loop_body_control/_33"], "attr": {"dtype": {"type": "DT_INT32"}, "value": {"tensor": {"dtype": "DT_INT32", "tensorShape": {}}}}}, {"name": "model/agnostic_nms_layer_1/agnostic_nms/while/body/_1/model/agnostic_nms_layer_1/agnostic_nms/while/GatherV2_2/axis", "op": "Const", "input": ["^model/agnostic_nms_layer_1/agnostic_nms/while/loop_body_control/_33"], "attr": {"dtype": {"type": "DT_INT32"}, "value": {"tensor": {"dtype": "DT_INT32", "tensorShape": {}}}}}, {"name": "model/agnostic_nms_layer_1/agnostic_nms/while/body/_1/model/agnostic_nms_layer_1/agnostic_nms/while/PadV2_1/paddings/0/0", "op": "Const", "input": ["^model/agnostic_nms_layer_1/agnostic_nms/while/loop_body_control/_33"], "attr": {"value": {"tensor": {"dtype": "DT_INT32", "tensorShape": {}}}, "dtype": {"type": "DT_INT32"}}}, {"name": "model/agnostic_nms_layer_1/agnostic_nms/while/body/_1/model/agnostic_nms_layer_1/agnostic_nms/while/sub_2/x", "op": "Const", "input": ["^model/agnostic_nms_layer_1/agnostic_nms/while/loop_body_control/_33"], "attr": {"dtype": {"type": "DT_INT32"}, "value": {"tensor": {"dtype": "DT_INT32", "tensorShape": {}}}}}, {"name": "model/agnostic_nms_layer_1/agnostic_nms/while/body/_1/model/agnostic_nms_layer_1/agnostic_nms/while/GatherV2/axis", "op": "Const", "input": ["^model/agnostic_nms_layer_1/agnostic_nms/while/loop_body_control/_33"], "attr": {"dtype": {"type": "DT_INT32"}, "value": {"tensor": {"dtype": "DT_INT32", "tensorShape": {}}}}}, {"name": "model/agnostic_nms_layer_1/agnostic_nms/while/body/_1/model/agnostic_nms_layer_1/agnostic_nms/while/strided_slice_2/stack", "op": "Const", "input": ["^model/agnostic_nms_layer_1/agnostic_nms/while/loop_body_control/_33"], "attr": {"value": {"tensor": {"dtype": "DT_INT32", "tensorShape": {"dim": [{"size": "1"}]}}}, "dtype": {"type": "DT_INT32"}}}, {"name": "model/agnostic_nms_layer_1/agnostic_nms/while/body/_1/model/agnostic_nms_layer_1/agnostic_nms/while/strided_slice_2/stack_1", "op": "Const", "input": ["^model/agnostic_nms_layer_1/agnostic_nms/while/loop_body_control/_33"], "attr": {"value": {"tensor": {"dtype": "DT_INT32", "tensorShape": {"dim": [{"size": "1"}]}}}, "dtype": {"type": "DT_INT32"}}}, {"name": "model/agnostic_nms_layer_1/agnostic_nms/while/body/_1/model/agnostic_nms_layer_1/agnostic_nms/while/strided_slice_2/stack_2", "op": "Const", "input": ["^model/agnostic_nms_layer_1/agnostic_nms/while/loop_body_control/_33"], "attr": {"value": {"tensor": {"dtype": "DT_INT32", "tensorShape": {"dim": [{"size": "1"}]}}}, "dtype": {"type": "DT_INT32"}}}, {"name": "model/agnostic_nms_layer_1/agnostic_nms/while/body/_1/model/agnostic_nms_layer_1/agnostic_nms/while/PadV2_1/constant_values", "op": "Const", "input": ["^model/agnostic_nms_layer_1/agnostic_nms/while/loop_body_control/_33"], "attr": {"value": {"tensor": {"dtype": "DT_FLOAT", "tensorShape": {}}}, "dtype": {"type": "DT_FLOAT"}}}, {"name": "model/agnostic_nms_layer_1/agnostic_nms/while/body/_1/model/agnostic_nms_layer_1/agnostic_nms/while/TensorArrayV2Read/TensorListGetItem/element_shape", "op": "Const", "input": ["^model/agnostic_nms_layer_1/agnostic_nms/while/loop_body_control/_33"], "attr": {"value": {"tensor": {"dtype": "DT_INT32", "tensorShape": {"dim": [{"size": "2"}]}}}, "dtype": {"type": "DT_INT32"}}}, {"name": "model/agnostic_nms_layer_1/agnostic_nms/while/body/_1/model/agnostic_nms_layer_1/agnostic_nms/while/TensorArrayV2Read_2/TensorListGetItem/element_shape", "op": "Const", "input": ["^model/agnostic_nms_layer_1/agnostic_nms/while/loop_body_control/_33"], "attr": {"value": {"tensor": {"dtype": "DT_INT32", "tensorShape": {"dim": [{"size": "2"}]}}}, "dtype": {"type": "DT_INT32"}}}, {"name": "model/agnostic_nms_layer_1/agnostic_nms/while/body/_1/model/agnostic_nms_layer_1/agnostic_nms/while/Max/reduction_indices", "op": "Const", "input": ["^model/agnostic_nms_layer_1/agnostic_nms/while/loop_body_control/_33"], "attr": {"value": {"tensor": {"dtype": "DT_INT32", "tensorShape": {}}}, "dtype": {"type": "DT_INT32"}}}, {"name": "model/agnostic_nms_layer_1/agnostic_nms/while/body/_1/model/agnostic_nms_layer_1/agnostic_nms/while/non_max_suppression/NonMaxSuppressionV3/max_output_size", "op": "Const", "input": ["^model/agnostic_nms_layer_1/agnostic_nms/while/loop_body_control/_33"], "attr": {"value": {"tensor": {"dtype": "DT_INT32", "tensorShape": {}}}, "dtype": {"type": "DT_INT32"}}}, {"name": "model/agnostic_nms_layer_1/agnostic_nms/while/body/_1/model/agnostic_nms_layer_1/agnostic_nms/while/non_max_suppression/iou_threshold", "op": "Const", "input": ["^model/agnostic_nms_layer_1/agnostic_nms/while/loop_body_control/_33"], "attr": {"value": {"tensor": {"dtype": "DT_FLOAT", "tensorShape": {}}}, "dtype": {"type": "DT_FLOAT"}}}, {"name": "model/agnostic_nms_layer_1/agnostic_nms/while/body/_1/model/agnostic_nms_layer_1/agnostic_nms/while/non_max_suppression/score_threshold", "op": "Const", "input": ["^model/agnostic_nms_layer_1/agnostic_nms/while/loop_body_control/_33"], "attr": {"dtype": {"type": "DT_FLOAT"}, "value": {"tensor": {"dtype": "DT_FLOAT", "tensorShape": {}}}}}, {"name": "model/agnostic_nms_layer_1/agnostic_nms/while/body/_1/model/agnostic_nms_layer_1/agnostic_nms/while/strided_slice_3/stack", "op": "Const", "input": ["^model/agnostic_nms_layer_1/agnostic_nms/while/loop_body_control/_33"], "attr": {"dtype": {"type": "DT_INT32"}, "value": {"tensor": {"dtype": "DT_INT32", "tensorShape": {"dim": [{"size": "1"}]}}}}}, {"name": "model/agnostic_nms_layer_1/agnostic_nms/while/body/_1/model/agnostic_nms_layer_1/agnostic_nms/while/strided_slice_3/stack_1", "op": "Const", "input": ["^model/agnostic_nms_layer_1/agnostic_nms/while/loop_body_control/_33"], "attr": {"dtype": {"type": "DT_INT32"}, "value": {"tensor": {"dtype": "DT_INT32", "tensorShape": {"dim": [{"size": "1"}]}}}}}, {"name": "model/agnostic_nms_layer_1/agnostic_nms/while/body/_1/model/agnostic_nms_layer_1/agnostic_nms/while/strided_slice_3/stack_2", "op": "Const", "input": ["^model/agnostic_nms_layer_1/agnostic_nms/while/loop_body_control/_33"], "attr": {"dtype": {"type": "DT_INT32"}, "value": {"tensor": {"dtype": "DT_INT32", "tensorShape": {"dim": [{"size": "1"}]}}}}}, {"name": "model/agnostic_nms_layer_1/agnostic_nms/while/next_iteration/_46", "op": "NextIteration", "input": ["model/agnostic_nms_layer_1/agnostic_nms/while/model/agnostic_nms_layer_1/agnostic_nms/while/maximum_iterations_switch/_24:1", "^model/agnostic_nms_layer_1/agnostic_nms/while/loop_body_control/_33"], "attr": {"T": {"type": "DT_INT32"}}}, {"name": "Func/model/agnostic_nms_layer_1/agnostic_nms/while/body/_1/input/_70", "op": "Identity", "input": ["model/agnostic_nms_layer_1/agnostic_nms/while/model/agnostic_nms_layer_1/agnostic_nms/Const_switch/_25:1", "^model/agnostic_nms_layer_1/agnostic_nms/while/loop_body_control/_33"], "attr": {"T": {"type": "DT_INT32"}}}, {"name": "model/agnostic_nms_layer_1/agnostic_nms/while/body/_1/model/agnostic_nms_layer_1/agnostic_nms/while/add/y", "op": "Const", "input": ["^model/agnostic_nms_layer_1/agnostic_nms/while/loop_body_control/_33"], "attr": {"dtype": {"type": "DT_INT32"}, "value": {"tensor": {"dtype": "DT_INT32", "tensorShape": {}}}}}, {"name": "model/agnostic_nms_layer_1/agnostic_nms/while/body/_1/model/agnostic_nms_layer_1/agnostic_nms/while/add_1/y", "op": "Const", "input": ["^model/agnostic_nms_layer_1/agnostic_nms/while/loop_body_control/_33"], "attr": {"value": {"tensor": {"dtype": "DT_INT32", "tensorShape": {}}}, "dtype": {"type": "DT_INT32"}}}, {"name": "model/agnostic_nms_layer_1/agnostic_nms/TensorArrayV2Stack_3/TensorListStack", "op": "TensorListStack", "input": ["model/agnostic_nms_layer_1/agnostic_nms/while/exit/_40", "model/agnostic_nms_layer_1/agnostic_nms/TensorArrayV2Stack_3/Const"], "attr": {"element_dtype": {"type": "DT_INT32"}, "num_elements": {"i": "1"}}}, {"name": "model/tf__conv_1/mul", "op": "Mul", "input": ["model/tf__conv_1/tf_bn_1/batch_normalization_1/FusedBatchNormV3", "model/tf__conv_1/Sigmoid"], "attr": {"T": {"type": "DT_FLOAT"}}}, {"name": "Identity", "op": "Identity", "input": ["model/agnostic_nms_layer_1/agnostic_nms/TensorArrayV2Stack/TensorListStack"], "attr": {"T": {"type": "DT_FLOAT"}}}, {"name": "Identity_1", "op": "Identity", "input": ["model/agnostic_nms_layer_1/agnostic_nms/TensorArrayV2Stack_1/TensorListStack"], "attr": {"T": {"type": "DT_FLOAT"}}}, {"name": "Identity_2", "op": "Identity", "input": ["model/agnostic_nms_layer_1/agnostic_nms/TensorArrayV2Stack_2/TensorListStack"], "attr": {"T": {"type": "DT_FLOAT"}}}, {"name": "model/agnostic_nms_layer_1/agnostic_nms/while/body/_1/model/agnostic_nms_layer_1/agnostic_nms/while/add", "op": "AddV2", "input": ["Func/model/agnostic_nms_layer_1/agnostic_nms/while/body/_1/input/_70", "model/agnostic_nms_layer_1/agnostic_nms/while/body/_1/model/agnostic_nms_layer_1/agnostic_nms/while/add/y"], "attr": {"T": {"type": "DT_INT32"}}}, {"name": "model/agnostic_nms_layer_1/agnostic_nms/while/body/_1/model/agnostic_nms_layer_1/agnostic_nms/while/add_1", "op": "AddV2", "input": ["model/agnostic_nms_layer_1/agnostic_nms/while/model/agnostic_nms_layer_1/agnostic_nms/while/loop_counter_switch/_23:1", "model/agnostic_nms_layer_1/agnostic_nms/while/body/_1/model/agnostic_nms_layer_1/agnostic_nms/while/add_1/y"], "attr": {"T": {"type": "DT_INT32"}}}, {"name": "Identity_3", "op": "Identity", "input": ["model/agnostic_nms_layer_1/agnostic_nms/TensorArrayV2Stack_3/TensorListStack"], "attr": {"T": {"type": "DT_INT32"}}}, {"name": "model/tf__c3/tf__conv_2/tf_bn_2/batch_normalization_2/FusedBatchNormV3", "op": "_FusedConv2D", "input": ["model/tf__conv_1/mul", "model/tf__c3/tf__conv_2/conv2d_2/Conv2D_weights", "model/tf__c3/tf__conv_2/conv2d_2/Conv2D_bn_offset"], "device": "/device:CPU:0", "attr": {"dilations": {"list": {"i": ["1", "1", "1", "1"]}}, "T": {"type": "DT_FLOAT"}, "num_args": {"i": "1"}, "strides": {"list": {"i": ["1", "1", "1", "1"]}}, "padding": {"s": "U0FNRQ=="}, "explicit_paddings": {"list": {}}, "data_format": {"s": "TkhXQw=="}, "epsilon": {"f": 0.0}, "use_cudnn_on_gpu": {"b": true}, "fused_ops": {"list": {"s": ["Qmlhc0FkZA=="]}}}}, {"name": "model/tf__c3/tf__conv_3/tf_bn_3/batch_normalization_3/FusedBatchNormV3", "op": "_FusedConv2D", "input": ["model/tf__conv_1/mul", "model/tf__c3/tf__conv_3/conv2d_3/Conv2D_weights", "model/tf__c3/tf__conv_3/conv2d_3/Conv2D_bn_offset"], "device": "/device:CPU:0", "attr": {"dilations": {"list": {"i": ["1", "1", "1", "1"]}}, "strides": {"list": {"i": ["1", "1", "1", "1"]}}, "data_format": {"s": "TkhXQw=="}, "fused_ops": {"list": {"s": ["Qmlhc0FkZA=="]}}, "epsilon": {"f": 0.0}, "use_cudnn_on_gpu": {"b": true}, "padding": {"s": "U0FNRQ=="}, "T": {"type": "DT_FLOAT"}, "num_args": {"i": "1"}, "explicit_paddings": {"list": {}}}}, {"name": "model/agnostic_nms_layer_1/agnostic_nms/while/next_iteration/_47", "op": "NextIteration", "input": ["model/agnostic_nms_layer_1/agnostic_nms/while/body/_1/model/agnostic_nms_layer_1/agnostic_nms/while/add", "^model/agnostic_nms_layer_1/agnostic_nms/while/loop_body_control/_33"], "attr": {"T": {"type": "DT_INT32"}}}, {"name": "model/agnostic_nms_layer_1/agnostic_nms/while/next_iteration/_45", "op": "NextIteration", "input": ["model/agnostic_nms_layer_1/agnostic_nms/while/body/_1/model/agnostic_nms_layer_1/agnostic_nms/while/add_1", "^model/agnostic_nms_layer_1/agnostic_nms/while/loop_body_control/_33"], "attr": {"T": {"type": "DT_INT32"}}}, {"name": "model/tf__c3/tf__conv_2/Sigmoid", "op": "Sigmoid", "input": ["model/tf__c3/tf__conv_2/tf_bn_2/batch_normalization_2/FusedBatchNormV3"], "attr": {"T": {"type": "DT_FLOAT"}}}, {"name": "model/tf__c3/tf__conv_3/Sigmoid", "op": "Sigmoid", "input": ["model/tf__c3/tf__conv_3/tf_bn_3/batch_normalization_3/FusedBatchNormV3"], "attr": {"T": {"type": "DT_FLOAT"}}}, {"name": "model/tf__c3/tf__conv_2/mul", "op": "Mul", "input": ["model/tf__c3/tf__conv_2/tf_bn_2/batch_normalization_2/FusedBatchNormV3", "model/tf__c3/tf__conv_2/Sigmoid"], "attr": {"T": {"type": "DT_FLOAT"}}}, {"name": "model/tf__c3/tf__conv_3/mul", "op": "Mul", "input": ["model/tf__c3/tf__conv_3/tf_bn_3/batch_normalization_3/FusedBatchNormV3", "model/tf__c3/tf__conv_3/Sigmoid"], "attr": {"T": {"type": "DT_FLOAT"}}}, {"name": "model/tf__c3/sequential_1/tf__bottleneck/tf__conv_5/tf_bn_5/batch_normalization_5/FusedBatchNormV3", "op": "_FusedConv2D", "input": ["model/tf__c3/tf__conv_2/mul", "model/tf__c3/sequential_1/tf__bottleneck/tf__conv_5/conv2d_5/Conv2D_weights", "model/tf__c3/sequential_1/tf__bottleneck/tf__conv_5/conv2d_5/Conv2D_bn_offset"], "device": "/device:CPU:0", "attr": {"T": {"type": "DT_FLOAT"}, "data_format": {"s": "TkhXQw=="}, "explicit_paddings": {"list": {}}, "padding": {"s": "U0FNRQ=="}, "dilations": {"list": {"i": ["1", "1", "1", "1"]}}, "strides": {"list": {"i": ["1", "1", "1", "1"]}}, "use_cudnn_on_gpu": {"b": true}, "num_args": {"i": "1"}, "epsilon": {"f": 0.0}, "fused_ops": {"list": {"s": ["Qmlhc0FkZA=="]}}}}, {"name": "model/tf__c3/sequential_1/tf__bottleneck/tf__conv_5/Sigmoid", "op": "Sigmoid", "input": ["model/tf__c3/sequential_1/tf__bottleneck/tf__conv_5/tf_bn_5/batch_normalization_5/FusedBatchNormV3"], "attr": {"T": {"type": "DT_FLOAT"}}}, {"name": "model/tf__c3/sequential_1/tf__bottleneck/tf__conv_5/mul", "op": "Mul", "input": ["model/tf__c3/sequential_1/tf__bottleneck/tf__conv_5/tf_bn_5/batch_normalization_5/FusedBatchNormV3", "model/tf__c3/sequential_1/tf__bottleneck/tf__conv_5/Sigmoid"], "attr": {"T": {"type": "DT_FLOAT"}}}, {"name": "model/tf__c3/sequential_1/tf__bottleneck/tf__conv_6/tf_bn_6/batch_normalization_6/FusedBatchNormV3", "op": "_FusedConv2D", "input": ["model/tf__c3/sequential_1/tf__bottleneck/tf__conv_5/mul", "model/tf__c3/sequential_1/tf__bottleneck/tf__conv_6/conv2d_6/Conv2D_weights", "model/tf__c3/sequential_1/tf__bottleneck/tf__conv_6/conv2d_6/Conv2D_bn_offset"], "device": "/device:CPU:0", "attr": {"num_args": {"i": "1"}, "strides": {"list": {"i": ["1", "1", "1", "1"]}}, "fused_ops": {"list": {"s": ["Qmlhc0FkZA=="]}}, "dilations": {"list": {"i": ["1", "1", "1", "1"]}}, "padding": {"s": "U0FNRQ=="}, "epsilon": {"f": 0.0}, "T": {"type": "DT_FLOAT"}, "data_format": {"s": "TkhXQw=="}, "explicit_paddings": {"list": {}}, "use_cudnn_on_gpu": {"b": true}}}, {"name": "model/tf__c3/sequential_1/tf__bottleneck/tf__conv_6/Sigmoid", "op": "Sigmoid", "input": ["model/tf__c3/sequential_1/tf__bottleneck/tf__conv_6/tf_bn_6/batch_normalization_6/FusedBatchNormV3"], "attr": {"T": {"type": "DT_FLOAT"}}}, {"name": "model/tf__c3/sequential_1/tf__bottleneck/tf__conv_6/mul", "op": "Mul", "input": ["model/tf__c3/sequential_1/tf__bottleneck/tf__conv_6/tf_bn_6/batch_normalization_6/FusedBatchNormV3", "model/tf__c3/sequential_1/tf__bottleneck/tf__conv_6/Sigmoid"], "attr": {"T": {"type": "DT_FLOAT"}}}, {"name": "model/tf__c3/sequential_1/tf__bottleneck/add", "op": "AddV2", "input": ["model/tf__c3/tf__conv_2/mul", "model/tf__c3/sequential_1/tf__bottleneck/tf__conv_6/mul"], "attr": {"T": {"type": "DT_FLOAT"}}}, {"name": "model/tf__c3/concat", "op": "ConcatV2", "input": ["model/tf__c3/sequential_1/tf__bottleneck/add", "model/tf__c3/tf__conv_3/mul", "model/tf__c3/concat/axis"], "attr": {"Tidx": {"type": "DT_INT32"}, "T": {"type": "DT_FLOAT"}, "N": {"i": "2"}}}, {"name": "model/tf__c3/tf__conv_4/tf_bn_4/batch_normalization_4/FusedBatchNormV3", "op": "_FusedConv2D", "input": ["model/tf__c3/concat", "model/tf__c3/tf__conv_4/conv2d_4/Conv2D_weights", "model/tf__c3/tf__conv_4/conv2d_4/Conv2D_bn_offset"], "device": "/device:CPU:0", "attr": {"strides": {"list": {"i": ["1", "1", "1", "1"]}}, "padding": {"s": "U0FNRQ=="}, "num_args": {"i": "1"}, "use_cudnn_on_gpu": {"b": true}, "dilations": {"list": {"i": ["1", "1", "1", "1"]}}, "fused_ops": {"list": {"s": ["Qmlhc0FkZA=="]}}, "explicit_paddings": {"list": {}}, "epsilon": {"f": 0.0}, "data_format": {"s": "TkhXQw=="}, "T": {"type": "DT_FLOAT"}}}, {"name": "model/tf__c3/tf__conv_4/Sigmoid", "op": "Sigmoid", "input": ["model/tf__c3/tf__conv_4/tf_bn_4/batch_normalization_4/FusedBatchNormV3"], "attr": {"T": {"type": "DT_FLOAT"}}}, {"name": "model/tf__c3/tf__conv_4/mul", "op": "Mul", "input": ["model/tf__c3/tf__conv_4/tf_bn_4/batch_normalization_4/FusedBatchNormV3", "model/tf__c3/tf__conv_4/Sigmoid"], "attr": {"T": {"type": "DT_FLOAT"}}}, {"name": "model/tf__conv_7/sequential_2/tf__pad_1/Pad", "op": "Pad", "input": ["model/tf__c3/tf__conv_4/mul", "model/tf__conv_7/sequential_2/tf__pad_1/Pad/paddings"], "attr": {"T": {"type": "DT_FLOAT"}, "Tpaddings": {"type": "DT_INT32"}}}, {"name": "model/tf__conv_7/tf_bn_7/batch_normalization_7/FusedBatchNormV3", "op": "_FusedConv2D", "input": ["model/tf__conv_7/sequential_2/tf__pad_1/Pad", "model/tf__conv_7/sequential_2/conv2d_7/Conv2D_weights", "model/tf__conv_7/sequential_2/conv2d_7/Conv2D_bn_offset"], "device": "/device:CPU:0", "attr": {"T": {"type": "DT_FLOAT"}, "fused_ops": {"list": {"s": ["Qmlhc0FkZA=="]}}, "num_args": {"i": "1"}, "epsilon": {"f": 0.0}, "dilations": {"list": {"i": ["1", "1", "1", "1"]}}, "use_cudnn_on_gpu": {"b": true}, "strides": {"list": {"i": ["1", "2", "2", "1"]}}, "explicit_paddings": {"list": {}}, "data_format": {"s": "TkhXQw=="}, "padding": {"s": "VkFMSUQ="}}}, {"name": "model/tf__conv_7/Sigmoid", "op": "Sigmoid", "input": ["model/tf__conv_7/tf_bn_7/batch_normalization_7/FusedBatchNormV3"], "attr": {"T": {"type": "DT_FLOAT"}}}, {"name": "model/tf__conv_7/mul", "op": "Mul", "input": ["model/tf__conv_7/tf_bn_7/batch_normalization_7/FusedBatchNormV3", "model/tf__conv_7/Sigmoid"], "attr": {"T": {"type": "DT_FLOAT"}}}, {"name": "model/tf__c3_1/tf__conv_8/tf_bn_8/batch_normalization_8/FusedBatchNormV3", "op": "_FusedConv2D", "input": ["model/tf__conv_7/mul", "model/tf__c3_1/tf__conv_8/conv2d_8/Conv2D_weights", "model/tf__c3_1/tf__conv_8/conv2d_8/Conv2D_bn_offset"], "device": "/device:CPU:0", "attr": {"use_cudnn_on_gpu": {"b": true}, "strides": {"list": {"i": ["1", "1", "1", "1"]}}, "epsilon": {"f": 0.0}, "explicit_paddings": {"list": {}}, "num_args": {"i": "1"}, "dilations": {"list": {"i": ["1", "1", "1", "1"]}}, "padding": {"s": "U0FNRQ=="}, "fused_ops": {"list": {"s": ["Qmlhc0FkZA=="]}}, "data_format": {"s": "TkhXQw=="}, "T": {"type": "DT_FLOAT"}}}, {"name": "model/tf__c3_1/tf__conv_9/tf_bn_9/batch_normalization_9/FusedBatchNormV3", "op": "_FusedConv2D", "input": ["model/tf__conv_7/mul", "model/tf__c3_1/tf__conv_9/conv2d_9/Conv2D_weights", "model/tf__c3_1/tf__conv_9/conv2d_9/Conv2D_bn_offset"], "device": "/device:CPU:0", "attr": {"use_cudnn_on_gpu": {"b": true}, "fused_ops": {"list": {"s": ["Qmlhc0FkZA=="]}}, "strides": {"list": {"i": ["1", "1", "1", "1"]}}, "epsilon": {"f": 0.0}, "dilations": {"list": {"i": ["1", "1", "1", "1"]}}, "explicit_paddings": {"list": {}}, "T": {"type": "DT_FLOAT"}, "num_args": {"i": "1"}, "data_format": {"s": "TkhXQw=="}, "padding": {"s": "U0FNRQ=="}}}, {"name": "model/tf__c3_1/tf__conv_8/Sigmoid", "op": "Sigmoid", "input": ["model/tf__c3_1/tf__conv_8/tf_bn_8/batch_normalization_8/FusedBatchNormV3"], "attr": {"T": {"type": "DT_FLOAT"}}}, {"name": "model/tf__c3_1/tf__conv_9/Sigmoid", "op": "Sigmoid", "input": ["model/tf__c3_1/tf__conv_9/tf_bn_9/batch_normalization_9/FusedBatchNormV3"], "attr": {"T": {"type": "DT_FLOAT"}}}, {"name": "model/tf__c3_1/tf__conv_8/mul", "op": "Mul", "input": ["model/tf__c3_1/tf__conv_8/tf_bn_8/batch_normalization_8/FusedBatchNormV3", "model/tf__c3_1/tf__conv_8/Sigmoid"], "attr": {"T": {"type": "DT_FLOAT"}}}, {"name": "model/tf__c3_1/tf__conv_9/mul", "op": "Mul", "input": ["model/tf__c3_1/tf__conv_9/tf_bn_9/batch_normalization_9/FusedBatchNormV3", "model/tf__c3_1/tf__conv_9/Sigmoid"], "attr": {"T": {"type": "DT_FLOAT"}}}, {"name": "model/tf__c3_1/sequential_3/tf__bottleneck_1/tf__conv_11/tf_bn_11/batch_normalization_11/FusedBatchNormV3", "op": "_FusedConv2D", "input": ["model/tf__c3_1/tf__conv_8/mul", "model/tf__c3_1/sequential_3/tf__bottleneck_1/tf__conv_11/conv2d_11/Conv2D_weights", "model/tf__c3_1/sequential_3/tf__bottleneck_1/tf__conv_11/conv2d_11/Conv2D_bn_offset"], "device": "/device:CPU:0", "attr": {"data_format": {"s": "TkhXQw=="}, "dilations": {"list": {"i": ["1", "1", "1", "1"]}}, "padding": {"s": "U0FNRQ=="}, "epsilon": {"f": 0.0}, "num_args": {"i": "1"}, "use_cudnn_on_gpu": {"b": true}, "strides": {"list": {"i": ["1", "1", "1", "1"]}}, "fused_ops": {"list": {"s": ["Qmlhc0FkZA=="]}}, "explicit_paddings": {"list": {}}, "T": {"type": "DT_FLOAT"}}}, {"name": "model/tf__c3_1/sequential_3/tf__bottleneck_1/tf__conv_11/Sigmoid", "op": "Sigmoid", "input": ["model/tf__c3_1/sequential_3/tf__bottleneck_1/tf__conv_11/tf_bn_11/batch_normalization_11/FusedBatchNormV3"], "attr": {"T": {"type": "DT_FLOAT"}}}, {"name": "model/tf__c3_1/sequential_3/tf__bottleneck_1/tf__conv_11/mul", "op": "Mul", "input": ["model/tf__c3_1/sequential_3/tf__bottleneck_1/tf__conv_11/tf_bn_11/batch_normalization_11/FusedBatchNormV3", "model/tf__c3_1/sequential_3/tf__bottleneck_1/tf__conv_11/Sigmoid"], "attr": {"T": {"type": "DT_FLOAT"}}}, {"name": "model/tf__c3_1/sequential_3/tf__bottleneck_1/tf__conv_12/tf_bn_12/batch_normalization_12/FusedBatchNormV3", "op": "_FusedConv2D", "input": ["model/tf__c3_1/sequential_3/tf__bottleneck_1/tf__conv_11/mul", "model/tf__c3_1/sequential_3/tf__bottleneck_1/tf__conv_12/conv2d_12/Conv2D_weights", "model/tf__c3_1/sequential_3/tf__bottleneck_1/tf__conv_12/conv2d_12/Conv2D_bn_offset"], "device": "/device:CPU:0", "attr": {"num_args": {"i": "1"}, "T": {"type": "DT_FLOAT"}, "use_cudnn_on_gpu": {"b": true}, "dilations": {"list": {"i": ["1", "1", "1", "1"]}}, "epsilon": {"f": 0.0}, "fused_ops": {"list": {"s": ["Qmlhc0FkZA=="]}}, "padding": {"s": "U0FNRQ=="}, "data_format": {"s": "TkhXQw=="}, "strides": {"list": {"i": ["1", "1", "1", "1"]}}, "explicit_paddings": {"list": {}}}}, {"name": "model/tf__c3_1/sequential_3/tf__bottleneck_1/tf__conv_12/Sigmoid", "op": "Sigmoid", "input": ["model/tf__c3_1/sequential_3/tf__bottleneck_1/tf__conv_12/tf_bn_12/batch_normalization_12/FusedBatchNormV3"], "attr": {"T": {"type": "DT_FLOAT"}}}, {"name": "model/tf__c3_1/sequential_3/tf__bottleneck_1/tf__conv_12/mul", "op": "Mul", "input": ["model/tf__c3_1/sequential_3/tf__bottleneck_1/tf__conv_12/tf_bn_12/batch_normalization_12/FusedBatchNormV3", "model/tf__c3_1/sequential_3/tf__bottleneck_1/tf__conv_12/Sigmoid"], "attr": {"T": {"type": "DT_FLOAT"}}}, {"name": "model/tf__c3_1/sequential_3/tf__bottleneck_1/add", "op": "AddV2", "input": ["model/tf__c3_1/tf__conv_8/mul", "model/tf__c3_1/sequential_3/tf__bottleneck_1/tf__conv_12/mul"], "attr": {"T": {"type": "DT_FLOAT"}}}, {"name": "model/tf__c3_1/sequential_3/tf__bottleneck_2/tf__conv_13/tf_bn_13/batch_normalization_13/FusedBatchNormV3", "op": "_FusedConv2D", "input": ["model/tf__c3_1/sequential_3/tf__bottleneck_1/add", "model/tf__c3_1/sequential_3/tf__bottleneck_2/tf__conv_13/conv2d_13/Conv2D_weights", "model/tf__c3_1/sequential_3/tf__bottleneck_2/tf__conv_13/conv2d_13/Conv2D_bn_offset"], "device": "/device:CPU:0", "attr": {"data_format": {"s": "TkhXQw=="}, "epsilon": {"f": 0.0}, "use_cudnn_on_gpu": {"b": true}, "padding": {"s": "U0FNRQ=="}, "fused_ops": {"list": {"s": ["Qmlhc0FkZA=="]}}, "num_args": {"i": "1"}, "strides": {"list": {"i": ["1", "1", "1", "1"]}}, "T": {"type": "DT_FLOAT"}, "explicit_paddings": {"list": {}}, "dilations": {"list": {"i": ["1", "1", "1", "1"]}}}}, {"name": "model/tf__c3_1/sequential_3/tf__bottleneck_2/tf__conv_13/Sigmoid", "op": "Sigmoid", "input": ["model/tf__c3_1/sequential_3/tf__bottleneck_2/tf__conv_13/tf_bn_13/batch_normalization_13/FusedBatchNormV3"], "attr": {"T": {"type": "DT_FLOAT"}}}, {"name": "model/tf__c3_1/sequential_3/tf__bottleneck_2/tf__conv_13/mul", "op": "Mul", "input": ["model/tf__c3_1/sequential_3/tf__bottleneck_2/tf__conv_13/tf_bn_13/batch_normalization_13/FusedBatchNormV3", "model/tf__c3_1/sequential_3/tf__bottleneck_2/tf__conv_13/Sigmoid"], "attr": {"T": {"type": "DT_FLOAT"}}}, {"name": "model/tf__c3_1/sequential_3/tf__bottleneck_2/tf__conv_14/tf_bn_14/batch_normalization_14/FusedBatchNormV3", "op": "_FusedConv2D", "input": ["model/tf__c3_1/sequential_3/tf__bottleneck_2/tf__conv_13/mul", "model/tf__c3_1/sequential_3/tf__bottleneck_2/tf__conv_14/conv2d_14/Conv2D_weights", "model/tf__c3_1/sequential_3/tf__bottleneck_2/tf__conv_14/conv2d_14/Conv2D_bn_offset"], "device": "/device:CPU:0", "attr": {"data_format": {"s": "TkhXQw=="}, "padding": {"s": "U0FNRQ=="}, "strides": {"list": {"i": ["1", "1", "1", "1"]}}, "dilations": {"list": {"i": ["1", "1", "1", "1"]}}, "use_cudnn_on_gpu": {"b": true}, "T": {"type": "DT_FLOAT"}, "epsilon": {"f": 0.0}, "num_args": {"i": "1"}, "explicit_paddings": {"list": {}}, "fused_ops": {"list": {"s": ["Qmlhc0FkZA=="]}}}}, {"name": "model/tf__c3_1/sequential_3/tf__bottleneck_2/tf__conv_14/Sigmoid", "op": "Sigmoid", "input": ["model/tf__c3_1/sequential_3/tf__bottleneck_2/tf__conv_14/tf_bn_14/batch_normalization_14/FusedBatchNormV3"], "attr": {"T": {"type": "DT_FLOAT"}}}, {"name": "model/tf__c3_1/sequential_3/tf__bottleneck_2/tf__conv_14/mul", "op": "Mul", "input": ["model/tf__c3_1/sequential_3/tf__bottleneck_2/tf__conv_14/tf_bn_14/batch_normalization_14/FusedBatchNormV3", "model/tf__c3_1/sequential_3/tf__bottleneck_2/tf__conv_14/Sigmoid"], "attr": {"T": {"type": "DT_FLOAT"}}}, {"name": "model/tf__c3_1/sequential_3/tf__bottleneck_2/add", "op": "AddV2", "input": ["model/tf__c3_1/sequential_3/tf__bottleneck_1/add", "model/tf__c3_1/sequential_3/tf__bottleneck_2/tf__conv_14/mul"], "attr": {"T": {"type": "DT_FLOAT"}}}, {"name": "model/tf__c3_1/sequential_3/tf__bottleneck_3/tf__conv_15/tf_bn_15/batch_normalization_15/FusedBatchNormV3", "op": "_FusedConv2D", "input": ["model/tf__c3_1/sequential_3/tf__bottleneck_2/add", "model/tf__c3_1/sequential_3/tf__bottleneck_3/tf__conv_15/conv2d_15/Conv2D_weights", "model/tf__c3_1/sequential_3/tf__bottleneck_3/tf__conv_15/conv2d_15/Conv2D_bn_offset"], "device": "/device:CPU:0", "attr": {"T": {"type": "DT_FLOAT"}, "strides": {"list": {"i": ["1", "1", "1", "1"]}}, "num_args": {"i": "1"}, "data_format": {"s": "TkhXQw=="}, "use_cudnn_on_gpu": {"b": true}, "explicit_paddings": {"list": {}}, "epsilon": {"f": 0.0}, "padding": {"s": "U0FNRQ=="}, "fused_ops": {"list": {"s": ["Qmlhc0FkZA=="]}}, "dilations": {"list": {"i": ["1", "1", "1", "1"]}}}}, {"name": "model/tf__c3_1/sequential_3/tf__bottleneck_3/tf__conv_15/Sigmoid", "op": "Sigmoid", "input": ["model/tf__c3_1/sequential_3/tf__bottleneck_3/tf__conv_15/tf_bn_15/batch_normalization_15/FusedBatchNormV3"], "attr": {"T": {"type": "DT_FLOAT"}}}, {"name": "model/tf__c3_1/sequential_3/tf__bottleneck_3/tf__conv_15/mul", "op": "Mul", "input": ["model/tf__c3_1/sequential_3/tf__bottleneck_3/tf__conv_15/tf_bn_15/batch_normalization_15/FusedBatchNormV3", "model/tf__c3_1/sequential_3/tf__bottleneck_3/tf__conv_15/Sigmoid"], "attr": {"T": {"type": "DT_FLOAT"}}}, {"name": "model/tf__c3_1/sequential_3/tf__bottleneck_3/tf__conv_16/tf_bn_16/batch_normalization_16/FusedBatchNormV3", "op": "_FusedConv2D", "input": ["model/tf__c3_1/sequential_3/tf__bottleneck_3/tf__conv_15/mul", "model/tf__c3_1/sequential_3/tf__bottleneck_3/tf__conv_16/conv2d_16/Conv2D_weights", "model/tf__c3_1/sequential_3/tf__bottleneck_3/tf__conv_16/conv2d_16/Conv2D_bn_offset"], "device": "/device:CPU:0", "attr": {"dilations": {"list": {"i": ["1", "1", "1", "1"]}}, "strides": {"list": {"i": ["1", "1", "1", "1"]}}, "fused_ops": {"list": {"s": ["Qmlhc0FkZA=="]}}, "T": {"type": "DT_FLOAT"}, "num_args": {"i": "1"}, "padding": {"s": "U0FNRQ=="}, "data_format": {"s": "TkhXQw=="}, "explicit_paddings": {"list": {}}, "use_cudnn_on_gpu": {"b": true}, "epsilon": {"f": 0.0}}}, {"name": "model/tf__c3_1/sequential_3/tf__bottleneck_3/tf__conv_16/Sigmoid", "op": "Sigmoid", "input": ["model/tf__c3_1/sequential_3/tf__bottleneck_3/tf__conv_16/tf_bn_16/batch_normalization_16/FusedBatchNormV3"], "attr": {"T": {"type": "DT_FLOAT"}}}, {"name": "model/tf__c3_1/sequential_3/tf__bottleneck_3/tf__conv_16/mul", "op": "Mul", "input": ["model/tf__c3_1/sequential_3/tf__bottleneck_3/tf__conv_16/tf_bn_16/batch_normalization_16/FusedBatchNormV3", "model/tf__c3_1/sequential_3/tf__bottleneck_3/tf__conv_16/Sigmoid"], "attr": {"T": {"type": "DT_FLOAT"}}}, {"name": "model/tf__c3_1/sequential_3/tf__bottleneck_3/add", "op": "AddV2", "input": ["model/tf__c3_1/sequential_3/tf__bottleneck_2/add", "model/tf__c3_1/sequential_3/tf__bottleneck_3/tf__conv_16/mul"], "attr": {"T": {"type": "DT_FLOAT"}}}, {"name": "model/tf__c3_1/concat", "op": "ConcatV2", "input": ["model/tf__c3_1/sequential_3/tf__bottleneck_3/add", "model/tf__c3_1/tf__conv_9/mul", "model/tf__c3_1/concat/axis"], "attr": {"N": {"i": "2"}, "T": {"type": "DT_FLOAT"}, "Tidx": {"type": "DT_INT32"}}}, {"name": "model/tf__c3_1/tf__conv_10/tf_bn_10/batch_normalization_10/FusedBatchNormV3", "op": "_FusedConv2D", "input": ["model/tf__c3_1/concat", "model/tf__c3_1/tf__conv_10/conv2d_10/Conv2D_weights", "model/tf__c3_1/tf__conv_10/conv2d_10/Conv2D_bn_offset"], "device": "/device:CPU:0", "attr": {"padding": {"s": "U0FNRQ=="}, "strides": {"list": {"i": ["1", "1", "1", "1"]}}, "fused_ops": {"list": {"s": ["Qmlhc0FkZA=="]}}, "use_cudnn_on_gpu": {"b": true}, "dilations": {"list": {"i": ["1", "1", "1", "1"]}}, "T": {"type": "DT_FLOAT"}, "explicit_paddings": {"list": {}}, "epsilon": {"f": 0.0}, "data_format": {"s": "TkhXQw=="}, "num_args": {"i": "1"}}}, {"name": "model/tf__c3_1/tf__conv_10/Sigmoid", "op": "Sigmoid", "input": ["model/tf__c3_1/tf__conv_10/tf_bn_10/batch_normalization_10/FusedBatchNormV3"], "attr": {"T": {"type": "DT_FLOAT"}}}, {"name": "model/tf__c3_1/tf__conv_10/mul", "op": "Mul", "input": ["model/tf__c3_1/tf__conv_10/tf_bn_10/batch_normalization_10/FusedBatchNormV3", "model/tf__c3_1/tf__conv_10/Sigmoid"], "attr": {"T": {"type": "DT_FLOAT"}}}, {"name": "model/tf__conv_17/sequential_4/tf__pad_2/Pad", "op": "Pad", "input": ["model/tf__c3_1/tf__conv_10/mul", "model/tf__conv_17/sequential_4/tf__pad_2/Pad/paddings"], "attr": {"Tpaddings": {"type": "DT_INT32"}, "T": {"type": "DT_FLOAT"}}}, {"name": "model/tf__conv_17/tf_bn_17/batch_normalization_17/FusedBatchNormV3", "op": "_FusedConv2D", "input": ["model/tf__conv_17/sequential_4/tf__pad_2/Pad", "model/tf__conv_17/sequential_4/conv2d_17/Conv2D_weights", "model/tf__conv_17/sequential_4/conv2d_17/Conv2D_bn_offset"], "device": "/device:CPU:0", "attr": {"explicit_paddings": {"list": {}}, "fused_ops": {"list": {"s": ["Qmlhc0FkZA=="]}}, "data_format": {"s": "TkhXQw=="}, "epsilon": {"f": 0.0}, "T": {"type": "DT_FLOAT"}, "dilations": {"list": {"i": ["1", "1", "1", "1"]}}, "strides": {"list": {"i": ["1", "2", "2", "1"]}}, "use_cudnn_on_gpu": {"b": true}, "num_args": {"i": "1"}, "padding": {"s": "VkFMSUQ="}}}, {"name": "model/tf__conv_17/Sigmoid", "op": "Sigmoid", "input": ["model/tf__conv_17/tf_bn_17/batch_normalization_17/FusedBatchNormV3"], "attr": {"T": {"type": "DT_FLOAT"}}}, {"name": "model/tf__conv_17/mul", "op": "Mul", "input": ["model/tf__conv_17/tf_bn_17/batch_normalization_17/FusedBatchNormV3", "model/tf__conv_17/Sigmoid"], "attr": {"T": {"type": "DT_FLOAT"}}}, {"name": "model/tf__c3_2/tf__conv_18/tf_bn_18/batch_normalization_18/FusedBatchNormV3", "op": "_FusedConv2D", "input": ["model/tf__conv_17/mul", "model/tf__c3_2/tf__conv_18/conv2d_18/Conv2D_weights", "model/tf__c3_2/tf__conv_18/conv2d_18/Conv2D_bn_offset"], "device": "/device:CPU:0", "attr": {"data_format": {"s": "TkhXQw=="}, "num_args": {"i": "1"}, "dilations": {"list": {"i": ["1", "1", "1", "1"]}}, "padding": {"s": "U0FNRQ=="}, "epsilon": {"f": 0.0}, "T": {"type": "DT_FLOAT"}, "use_cudnn_on_gpu": {"b": true}, "strides": {"list": {"i": ["1", "1", "1", "1"]}}, "fused_ops": {"list": {"s": ["Qmlhc0FkZA=="]}}, "explicit_paddings": {"list": {}}}}, {"name": "model/tf__c3_2/tf__conv_19/tf_bn_19/batch_normalization_19/FusedBatchNormV3", "op": "_FusedConv2D", "input": ["model/tf__conv_17/mul", "model/tf__c3_2/tf__conv_19/conv2d_19/Conv2D_weights", "model/tf__c3_2/tf__conv_19/conv2d_19/Conv2D_bn_offset"], "device": "/device:CPU:0", "attr": {"epsilon": {"f": 0.0}, "explicit_paddings": {"list": {}}, "strides": {"list": {"i": ["1", "1", "1", "1"]}}, "use_cudnn_on_gpu": {"b": true}, "num_args": {"i": "1"}, "T": {"type": "DT_FLOAT"}, "fused_ops": {"list": {"s": ["Qmlhc0FkZA=="]}}, "data_format": {"s": "TkhXQw=="}, "dilations": {"list": {"i": ["1", "1", "1", "1"]}}, "padding": {"s": "U0FNRQ=="}}}, {"name": "model/tf__c3_2/tf__conv_18/Sigmoid", "op": "Sigmoid", "input": ["model/tf__c3_2/tf__conv_18/tf_bn_18/batch_normalization_18/FusedBatchNormV3"], "attr": {"T": {"type": "DT_FLOAT"}}}, {"name": "model/tf__c3_2/tf__conv_19/Sigmoid", "op": "Sigmoid", "input": ["model/tf__c3_2/tf__conv_19/tf_bn_19/batch_normalization_19/FusedBatchNormV3"], "attr": {"T": {"type": "DT_FLOAT"}}}, {"name": "model/tf__c3_2/tf__conv_18/mul", "op": "Mul", "input": ["model/tf__c3_2/tf__conv_18/tf_bn_18/batch_normalization_18/FusedBatchNormV3", "model/tf__c3_2/tf__conv_18/Sigmoid"], "attr": {"T": {"type": "DT_FLOAT"}}}, {"name": "model/tf__c3_2/tf__conv_19/mul", "op": "Mul", "input": ["model/tf__c3_2/tf__conv_19/tf_bn_19/batch_normalization_19/FusedBatchNormV3", "model/tf__c3_2/tf__conv_19/Sigmoid"], "attr": {"T": {"type": "DT_FLOAT"}}}, {"name": "model/tf__c3_2/sequential_5/tf__bottleneck_4/tf__conv_21/tf_bn_21/batch_normalization_21/FusedBatchNormV3", "op": "_FusedConv2D", "input": ["model/tf__c3_2/tf__conv_18/mul", "model/tf__c3_2/sequential_5/tf__bottleneck_4/tf__conv_21/conv2d_21/Conv2D_weights", "model/tf__c3_2/sequential_5/tf__bottleneck_4/tf__conv_21/conv2d_21/Conv2D_bn_offset"], "device": "/device:CPU:0", "attr": {"padding": {"s": "U0FNRQ=="}, "use_cudnn_on_gpu": {"b": true}, "dilations": {"list": {"i": ["1", "1", "1", "1"]}}, "fused_ops": {"list": {"s": ["Qmlhc0FkZA=="]}}, "data_format": {"s": "TkhXQw=="}, "strides": {"list": {"i": ["1", "1", "1", "1"]}}, "num_args": {"i": "1"}, "epsilon": {"f": 0.0}, "explicit_paddings": {"list": {}}, "T": {"type": "DT_FLOAT"}}}, {"name": "model/tf__c3_2/sequential_5/tf__bottleneck_4/tf__conv_21/Sigmoid", "op": "Sigmoid", "input": ["model/tf__c3_2/sequential_5/tf__bottleneck_4/tf__conv_21/tf_bn_21/batch_normalization_21/FusedBatchNormV3"], "attr": {"T": {"type": "DT_FLOAT"}}}, {"name": "model/tf__c3_2/sequential_5/tf__bottleneck_4/tf__conv_21/mul", "op": "Mul", "input": ["model/tf__c3_2/sequential_5/tf__bottleneck_4/tf__conv_21/tf_bn_21/batch_normalization_21/FusedBatchNormV3", "model/tf__c3_2/sequential_5/tf__bottleneck_4/tf__conv_21/Sigmoid"], "attr": {"T": {"type": "DT_FLOAT"}}}, {"name": "model/tf__c3_2/sequential_5/tf__bottleneck_4/tf__conv_22/tf_bn_22/batch_normalization_22/FusedBatchNormV3", "op": "_FusedConv2D", "input": ["model/tf__c3_2/sequential_5/tf__bottleneck_4/tf__conv_21/mul", "model/tf__c3_2/sequential_5/tf__bottleneck_4/tf__conv_22/conv2d_22/Conv2D_weights", "model/tf__c3_2/sequential_5/tf__bottleneck_4/tf__conv_22/conv2d_22/Conv2D_bn_offset"], "device": "/device:CPU:0", "attr": {"epsilon": {"f": 0.0}, "T": {"type": "DT_FLOAT"}, "padding": {"s": "U0FNRQ=="}, "data_format": {"s": "TkhXQw=="}, "use_cudnn_on_gpu": {"b": true}, "num_args": {"i": "1"}, "strides": {"list": {"i": ["1", "1", "1", "1"]}}, "fused_ops": {"list": {"s": ["Qmlhc0FkZA=="]}}, "dilations": {"list": {"i": ["1", "1", "1", "1"]}}, "explicit_paddings": {"list": {}}}}, {"name": "model/tf__c3_2/sequential_5/tf__bottleneck_4/tf__conv_22/Sigmoid", "op": "Sigmoid", "input": ["model/tf__c3_2/sequential_5/tf__bottleneck_4/tf__conv_22/tf_bn_22/batch_normalization_22/FusedBatchNormV3"], "attr": {"T": {"type": "DT_FLOAT"}}}, {"name": "model/tf__c3_2/sequential_5/tf__bottleneck_4/tf__conv_22/mul", "op": "Mul", "input": ["model/tf__c3_2/sequential_5/tf__bottleneck_4/tf__conv_22/tf_bn_22/batch_normalization_22/FusedBatchNormV3", "model/tf__c3_2/sequential_5/tf__bottleneck_4/tf__conv_22/Sigmoid"], "attr": {"T": {"type": "DT_FLOAT"}}}, {"name": "model/tf__c3_2/sequential_5/tf__bottleneck_4/add", "op": "AddV2", "input": ["model/tf__c3_2/tf__conv_18/mul", "model/tf__c3_2/sequential_5/tf__bottleneck_4/tf__conv_22/mul"], "attr": {"T": {"type": "DT_FLOAT"}}}, {"name": "model/tf__c3_2/sequential_5/tf__bottleneck_5/tf__conv_23/tf_bn_23/batch_normalization_23/FusedBatchNormV3", "op": "_FusedConv2D", "input": ["model/tf__c3_2/sequential_5/tf__bottleneck_4/add", "model/tf__c3_2/sequential_5/tf__bottleneck_5/tf__conv_23/conv2d_23/Conv2D_weights", "model/tf__c3_2/sequential_5/tf__bottleneck_5/tf__conv_23/conv2d_23/Conv2D_bn_offset"], "device": "/device:CPU:0", "attr": {"data_format": {"s": "TkhXQw=="}, "use_cudnn_on_gpu": {"b": true}, "epsilon": {"f": 0.0}, "strides": {"list": {"i": ["1", "1", "1", "1"]}}, "padding": {"s": "U0FNRQ=="}, "dilations": {"list": {"i": ["1", "1", "1", "1"]}}, "fused_ops": {"list": {"s": ["Qmlhc0FkZA=="]}}, "explicit_paddings": {"list": {}}, "T": {"type": "DT_FLOAT"}, "num_args": {"i": "1"}}}, {"name": "model/tf__c3_2/sequential_5/tf__bottleneck_5/tf__conv_23/Sigmoid", "op": "Sigmoid", "input": ["model/tf__c3_2/sequential_5/tf__bottleneck_5/tf__conv_23/tf_bn_23/batch_normalization_23/FusedBatchNormV3"], "attr": {"T": {"type": "DT_FLOAT"}}}, {"name": "model/tf__c3_2/sequential_5/tf__bottleneck_5/tf__conv_23/mul", "op": "Mul", "input": ["model/tf__c3_2/sequential_5/tf__bottleneck_5/tf__conv_23/tf_bn_23/batch_normalization_23/FusedBatchNormV3", "model/tf__c3_2/sequential_5/tf__bottleneck_5/tf__conv_23/Sigmoid"], "attr": {"T": {"type": "DT_FLOAT"}}}, {"name": "model/tf__c3_2/sequential_5/tf__bottleneck_5/tf__conv_24/tf_bn_24/batch_normalization_24/FusedBatchNormV3", "op": "_FusedConv2D", "input": ["model/tf__c3_2/sequential_5/tf__bottleneck_5/tf__conv_23/mul", "model/tf__c3_2/sequential_5/tf__bottleneck_5/tf__conv_24/conv2d_24/Conv2D_weights", "model/tf__c3_2/sequential_5/tf__bottleneck_5/tf__conv_24/conv2d_24/Conv2D_bn_offset"], "device": "/device:CPU:0", "attr": {"data_format": {"s": "TkhXQw=="}, "explicit_paddings": {"list": {}}, "use_cudnn_on_gpu": {"b": true}, "strides": {"list": {"i": ["1", "1", "1", "1"]}}, "T": {"type": "DT_FLOAT"}, "fused_ops": {"list": {"s": ["Qmlhc0FkZA=="]}}, "padding": {"s": "U0FNRQ=="}, "epsilon": {"f": 0.0}, "num_args": {"i": "1"}, "dilations": {"list": {"i": ["1", "1", "1", "1"]}}}}, {"name": "model/tf__c3_2/sequential_5/tf__bottleneck_5/tf__conv_24/Sigmoid", "op": "Sigmoid", "input": ["model/tf__c3_2/sequential_5/tf__bottleneck_5/tf__conv_24/tf_bn_24/batch_normalization_24/FusedBatchNormV3"], "attr": {"T": {"type": "DT_FLOAT"}}}, {"name": "model/tf__c3_2/sequential_5/tf__bottleneck_5/tf__conv_24/mul", "op": "Mul", "input": ["model/tf__c3_2/sequential_5/tf__bottleneck_5/tf__conv_24/tf_bn_24/batch_normalization_24/FusedBatchNormV3", "model/tf__c3_2/sequential_5/tf__bottleneck_5/tf__conv_24/Sigmoid"], "attr": {"T": {"type": "DT_FLOAT"}}}, {"name": "model/tf__c3_2/sequential_5/tf__bottleneck_5/add", "op": "AddV2", "input": ["model/tf__c3_2/sequential_5/tf__bottleneck_4/add", "model/tf__c3_2/sequential_5/tf__bottleneck_5/tf__conv_24/mul"], "attr": {"T": {"type": "DT_FLOAT"}}}, {"name": "model/tf__c3_2/sequential_5/tf__bottleneck_6/tf__conv_25/tf_bn_25/batch_normalization_25/FusedBatchNormV3", "op": "_FusedConv2D", "input": ["model/tf__c3_2/sequential_5/tf__bottleneck_5/add", "model/tf__c3_2/sequential_5/tf__bottleneck_6/tf__conv_25/conv2d_25/Conv2D_weights", "model/tf__c3_2/sequential_5/tf__bottleneck_6/tf__conv_25/conv2d_25/Conv2D_bn_offset"], "device": "/device:CPU:0", "attr": {"dilations": {"list": {"i": ["1", "1", "1", "1"]}}, "use_cudnn_on_gpu": {"b": true}, "T": {"type": "DT_FLOAT"}, "fused_ops": {"list": {"s": ["Qmlhc0FkZA=="]}}, "explicit_paddings": {"list": {}}, "data_format": {"s": "TkhXQw=="}, "padding": {"s": "U0FNRQ=="}, "epsilon": {"f": 0.0}, "strides": {"list": {"i": ["1", "1", "1", "1"]}}, "num_args": {"i": "1"}}}, {"name": "model/tf__c3_2/sequential_5/tf__bottleneck_6/tf__conv_25/Sigmoid", "op": "Sigmoid", "input": ["model/tf__c3_2/sequential_5/tf__bottleneck_6/tf__conv_25/tf_bn_25/batch_normalization_25/FusedBatchNormV3"], "attr": {"T": {"type": "DT_FLOAT"}}}, {"name": "model/tf__c3_2/sequential_5/tf__bottleneck_6/tf__conv_25/mul", "op": "Mul", "input": ["model/tf__c3_2/sequential_5/tf__bottleneck_6/tf__conv_25/tf_bn_25/batch_normalization_25/FusedBatchNormV3", "model/tf__c3_2/sequential_5/tf__bottleneck_6/tf__conv_25/Sigmoid"], "attr": {"T": {"type": "DT_FLOAT"}}}, {"name": "model/tf__c3_2/sequential_5/tf__bottleneck_6/tf__conv_26/tf_bn_26/batch_normalization_26/FusedBatchNormV3", "op": "_FusedConv2D", "input": ["model/tf__c3_2/sequential_5/tf__bottleneck_6/tf__conv_25/mul", "model/tf__c3_2/sequential_5/tf__bottleneck_6/tf__conv_26/conv2d_26/Conv2D_weights", "model/tf__c3_2/sequential_5/tf__bottleneck_6/tf__conv_26/conv2d_26/Conv2D_bn_offset"], "device": "/device:CPU:0", "attr": {"T": {"type": "DT_FLOAT"}, "epsilon": {"f": 0.0}, "padding": {"s": "U0FNRQ=="}, "use_cudnn_on_gpu": {"b": true}, "dilations": {"list": {"i": ["1", "1", "1", "1"]}}, "fused_ops": {"list": {"s": ["Qmlhc0FkZA=="]}}, "data_format": {"s": "TkhXQw=="}, "explicit_paddings": {"list": {}}, "strides": {"list": {"i": ["1", "1", "1", "1"]}}, "num_args": {"i": "1"}}}, {"name": "model/tf__c3_2/sequential_5/tf__bottleneck_6/tf__conv_26/Sigmoid", "op": "Sigmoid", "input": ["model/tf__c3_2/sequential_5/tf__bottleneck_6/tf__conv_26/tf_bn_26/batch_normalization_26/FusedBatchNormV3"], "attr": {"T": {"type": "DT_FLOAT"}}}, {"name": "model/tf__c3_2/sequential_5/tf__bottleneck_6/tf__conv_26/mul", "op": "Mul", "input": ["model/tf__c3_2/sequential_5/tf__bottleneck_6/tf__conv_26/tf_bn_26/batch_normalization_26/FusedBatchNormV3", "model/tf__c3_2/sequential_5/tf__bottleneck_6/tf__conv_26/Sigmoid"], "attr": {"T": {"type": "DT_FLOAT"}}}, {"name": "model/tf__c3_2/sequential_5/tf__bottleneck_6/add", "op": "AddV2", "input": ["model/tf__c3_2/sequential_5/tf__bottleneck_5/add", "model/tf__c3_2/sequential_5/tf__bottleneck_6/tf__conv_26/mul"], "attr": {"T": {"type": "DT_FLOAT"}}}, {"name": "model/tf__c3_2/concat", "op": "ConcatV2", "input": ["model/tf__c3_2/sequential_5/tf__bottleneck_6/add", "model/tf__c3_2/tf__conv_19/mul", "model/tf__c3_2/concat/axis"], "attr": {"T": {"type": "DT_FLOAT"}, "N": {"i": "2"}, "Tidx": {"type": "DT_INT32"}}}, {"name": "model/tf__c3_2/tf__conv_20/tf_bn_20/batch_normalization_20/FusedBatchNormV3", "op": "_FusedConv2D", "input": ["model/tf__c3_2/concat", "model/tf__c3_2/tf__conv_20/conv2d_20/Conv2D_weights", "model/tf__c3_2/tf__conv_20/conv2d_20/Conv2D_bn_offset"], "device": "/device:CPU:0", "attr": {"T": {"type": "DT_FLOAT"}, "padding": {"s": "U0FNRQ=="}, "num_args": {"i": "1"}, "strides": {"list": {"i": ["1", "1", "1", "1"]}}, "use_cudnn_on_gpu": {"b": true}, "epsilon": {"f": 0.0}, "data_format": {"s": "TkhXQw=="}, "explicit_paddings": {"list": {}}, "dilations": {"list": {"i": ["1", "1", "1", "1"]}}, "fused_ops": {"list": {"s": ["Qmlhc0FkZA=="]}}}}, {"name": "model/tf__c3_2/tf__conv_20/Sigmoid", "op": "Sigmoid", "input": ["model/tf__c3_2/tf__conv_20/tf_bn_20/batch_normalization_20/FusedBatchNormV3"], "attr": {"T": {"type": "DT_FLOAT"}}}, {"name": "model/tf__c3_2/tf__conv_20/mul", "op": "Mul", "input": ["model/tf__c3_2/tf__conv_20/tf_bn_20/batch_normalization_20/FusedBatchNormV3", "model/tf__c3_2/tf__conv_20/Sigmoid"], "attr": {"T": {"type": "DT_FLOAT"}}}, {"name": "model/tf__conv_27/sequential_6/tf__pad_3/Pad", "op": "Pad", "input": ["model/tf__c3_2/tf__conv_20/mul", "model/tf__conv_27/sequential_6/tf__pad_3/Pad/paddings"], "attr": {"Tpaddings": {"type": "DT_INT32"}, "T": {"type": "DT_FLOAT"}}}, {"name": "model/tf__conv_27/tf_bn_27/batch_normalization_27/FusedBatchNormV3", "op": "_FusedConv2D", "input": ["model/tf__conv_27/sequential_6/tf__pad_3/Pad", "model/tf__conv_27/sequential_6/conv2d_27/Conv2D_weights", "model/tf__conv_27/sequential_6/conv2d_27/Conv2D_bn_offset"], "device": "/device:CPU:0", "attr": {"dilations": {"list": {"i": ["1", "1", "1", "1"]}}, "data_format": {"s": "TkhXQw=="}, "strides": {"list": {"i": ["1", "2", "2", "1"]}}, "T": {"type": "DT_FLOAT"}, "epsilon": {"f": 0.0}, "explicit_paddings": {"list": {}}, "use_cudnn_on_gpu": {"b": true}, "padding": {"s": "VkFMSUQ="}, "num_args": {"i": "1"}, "fused_ops": {"list": {"s": ["Qmlhc0FkZA=="]}}}}, {"name": "model/tf__conv_27/Sigmoid", "op": "Sigmoid", "input": ["model/tf__conv_27/tf_bn_27/batch_normalization_27/FusedBatchNormV3"], "attr": {"T": {"type": "DT_FLOAT"}}}, {"name": "model/tf__conv_27/mul", "op": "Mul", "input": ["model/tf__conv_27/tf_bn_27/batch_normalization_27/FusedBatchNormV3", "model/tf__conv_27/Sigmoid"], "attr": {"T": {"type": "DT_FLOAT"}}}, {"name": "model/tf_spp/tf__conv_28/tf_bn_28/batch_normalization_28/FusedBatchNormV3", "op": "_FusedConv2D", "input": ["model/tf__conv_27/mul", "model/tf_spp/tf__conv_28/conv2d_28/Conv2D_weights", "model/tf_spp/tf__conv_28/conv2d_28/Conv2D_bn_offset"], "device": "/device:CPU:0", "attr": {"explicit_paddings": {"list": {}}, "padding": {"s": "U0FNRQ=="}, "use_cudnn_on_gpu": {"b": true}, "epsilon": {"f": 0.0}, "data_format": {"s": "TkhXQw=="}, "num_args": {"i": "1"}, "fused_ops": {"list": {"s": ["Qmlhc0FkZA=="]}}, "T": {"type": "DT_FLOAT"}, "dilations": {"list": {"i": ["1", "1", "1", "1"]}}, "strides": {"list": {"i": ["1", "1", "1", "1"]}}}}, {"name": "model/tf_spp/tf__conv_28/Sigmoid", "op": "Sigmoid", "input": ["model/tf_spp/tf__conv_28/tf_bn_28/batch_normalization_28/FusedBatchNormV3"], "attr": {"T": {"type": "DT_FLOAT"}}}, {"name": "model/tf_spp/tf__conv_28/mul", "op": "Mul", "input": ["model/tf_spp/tf__conv_28/tf_bn_28/batch_normalization_28/FusedBatchNormV3", "model/tf_spp/tf__conv_28/Sigmoid"], "attr": {"T": {"type": "DT_FLOAT"}}}, {"name": "model/tf_spp/max_pooling2d/MaxPool", "op": "MaxPool", "input": ["model/tf_spp/tf__conv_28/mul"], "attr": {"ksize": {"list": {"i": ["1", "5", "5", "1"]}}, "padding": {"s": "U0FNRQ=="}, "explicit_paddings": {"list": {}}, "data_format": {"s": "TkhXQw=="}, "strides": {"list": {"i": ["1", "1", "1", "1"]}}, "T": {"type": "DT_FLOAT"}}}, {"name": "model/tf_spp/max_pooling2d_1/MaxPool", "op": "MaxPool", "input": ["model/tf_spp/tf__conv_28/mul"], "attr": {"strides": {"list": {"i": ["1", "1", "1", "1"]}}, "explicit_paddings": {"list": {}}, "T": {"type": "DT_FLOAT"}, "padding": {"s": "U0FNRQ=="}, "ksize": {"list": {"i": ["1", "9", "9", "1"]}}, "data_format": {"s": "TkhXQw=="}}}, {"name": "model/tf_spp/max_pooling2d_2/MaxPool", "op": "MaxPool", "input": ["model/tf_spp/tf__conv_28/mul"], "attr": {"T": {"type": "DT_FLOAT"}, "strides": {"list": {"i": ["1", "1", "1", "1"]}}, "ksize": {"list": {"i": ["1", "13", "13", "1"]}}, "data_format": {"s": "TkhXQw=="}, "padding": {"s": "U0FNRQ=="}, "explicit_paddings": {"list": {}}}}, {"name": "model/tf_spp/concat", "op": "ConcatV2", "input": ["model/tf_spp/tf__conv_28/mul", "model/tf_spp/max_pooling2d/MaxPool", "model/tf_spp/max_pooling2d_1/MaxPool", "model/tf_spp/max_pooling2d_2/MaxPool", "model/tf_spp/concat/axis"], "attr": {"N": {"i": "4"}, "Tidx": {"type": "DT_INT32"}, "T": {"type": "DT_FLOAT"}}}, {"name": "model/tf_spp/tf__conv_29/tf_bn_29/batch_normalization_29/FusedBatchNormV3", "op": "_FusedConv2D", "input": ["model/tf_spp/concat", "model/tf_spp/tf__conv_29/conv2d_29/Conv2D_weights", "model/tf_spp/tf__conv_29/conv2d_29/Conv2D_bn_offset"], "device": "/device:CPU:0", "attr": {"data_format": {"s": "TkhXQw=="}, "use_cudnn_on_gpu": {"b": true}, "fused_ops": {"list": {"s": ["Qmlhc0FkZA=="]}}, "epsilon": {"f": 0.0}, "dilations": {"list": {"i": ["1", "1", "1", "1"]}}, "T": {"type": "DT_FLOAT"}, "strides": {"list": {"i": ["1", "1", "1", "1"]}}, "explicit_paddings": {"list": {}}, "padding": {"s": "U0FNRQ=="}, "num_args": {"i": "1"}}}, {"name": "model/tf_spp/tf__conv_29/Sigmoid", "op": "Sigmoid", "input": ["model/tf_spp/tf__conv_29/tf_bn_29/batch_normalization_29/FusedBatchNormV3"], "attr": {"T": {"type": "DT_FLOAT"}}}, {"name": "model/tf_spp/tf__conv_29/mul", "op": "Mul", "input": ["model/tf_spp/tf__conv_29/tf_bn_29/batch_normalization_29/FusedBatchNormV3", "model/tf_spp/tf__conv_29/Sigmoid"], "attr": {"T": {"type": "DT_FLOAT"}}}, {"name": "model/tf__c3_3/tf__conv_30/tf_bn_30/batch_normalization_30/FusedBatchNormV3", "op": "_FusedConv2D", "input": ["model/tf_spp/tf__conv_29/mul", "model/tf__c3_3/tf__conv_30/conv2d_30/Conv2D_weights", "model/tf__c3_3/tf__conv_30/conv2d_30/Conv2D_bn_offset"], "device": "/device:CPU:0", "attr": {"epsilon": {"f": 0.0}, "T": {"type": "DT_FLOAT"}, "strides": {"list": {"i": ["1", "1", "1", "1"]}}, "use_cudnn_on_gpu": {"b": true}, "explicit_paddings": {"list": {}}, "dilations": {"list": {"i": ["1", "1", "1", "1"]}}, "data_format": {"s": "TkhXQw=="}, "fused_ops": {"list": {"s": ["Qmlhc0FkZA=="]}}, "padding": {"s": "U0FNRQ=="}, "num_args": {"i": "1"}}}, {"name": "model/tf__c3_3/tf__conv_31/tf_bn_31/batch_normalization_31/FusedBatchNormV3", "op": "_FusedConv2D", "input": ["model/tf_spp/tf__conv_29/mul", "model/tf__c3_3/tf__conv_31/conv2d_31/Conv2D_weights", "model/tf__c3_3/tf__conv_31/conv2d_31/Conv2D_bn_offset"], "device": "/device:CPU:0", "attr": {"strides": {"list": {"i": ["1", "1", "1", "1"]}}, "fused_ops": {"list": {"s": ["Qmlhc0FkZA=="]}}, "dilations": {"list": {"i": ["1", "1", "1", "1"]}}, "use_cudnn_on_gpu": {"b": true}, "padding": {"s": "U0FNRQ=="}, "T": {"type": "DT_FLOAT"}, "explicit_paddings": {"list": {}}, "epsilon": {"f": 0.0}, "data_format": {"s": "TkhXQw=="}, "num_args": {"i": "1"}}}, {"name": "model/tf__c3_3/tf__conv_30/Sigmoid", "op": "Sigmoid", "input": ["model/tf__c3_3/tf__conv_30/tf_bn_30/batch_normalization_30/FusedBatchNormV3"], "attr": {"T": {"type": "DT_FLOAT"}}}, {"name": "model/tf__c3_3/tf__conv_31/Sigmoid", "op": "Sigmoid", "input": ["model/tf__c3_3/tf__conv_31/tf_bn_31/batch_normalization_31/FusedBatchNormV3"], "attr": {"T": {"type": "DT_FLOAT"}}}, {"name": "model/tf__c3_3/tf__conv_30/mul", "op": "Mul", "input": ["model/tf__c3_3/tf__conv_30/tf_bn_30/batch_normalization_30/FusedBatchNormV3", "model/tf__c3_3/tf__conv_30/Sigmoid"], "attr": {"T": {"type": "DT_FLOAT"}}}, {"name": "model/tf__c3_3/tf__conv_31/mul", "op": "Mul", "input": ["model/tf__c3_3/tf__conv_31/tf_bn_31/batch_normalization_31/FusedBatchNormV3", "model/tf__c3_3/tf__conv_31/Sigmoid"], "attr": {"T": {"type": "DT_FLOAT"}}}, {"name": "model/tf__c3_3/sequential_7/tf__bottleneck_7/tf__conv_33/tf_bn_33/batch_normalization_33/FusedBatchNormV3", "op": "_FusedConv2D", "input": ["model/tf__c3_3/tf__conv_30/mul", "model/tf__c3_3/sequential_7/tf__bottleneck_7/tf__conv_33/conv2d_33/Conv2D_weights", "model/tf__c3_3/sequential_7/tf__bottleneck_7/tf__conv_33/conv2d_33/Conv2D_bn_offset"], "device": "/device:CPU:0", "attr": {"strides": {"list": {"i": ["1", "1", "1", "1"]}}, "data_format": {"s": "TkhXQw=="}, "use_cudnn_on_gpu": {"b": true}, "num_args": {"i": "1"}, "dilations": {"list": {"i": ["1", "1", "1", "1"]}}, "T": {"type": "DT_FLOAT"}, "fused_ops": {"list": {"s": ["Qmlhc0FkZA=="]}}, "epsilon": {"f": 0.0}, "explicit_paddings": {"list": {}}, "padding": {"s": "U0FNRQ=="}}}, {"name": "model/tf__c3_3/sequential_7/tf__bottleneck_7/tf__conv_33/Sigmoid", "op": "Sigmoid", "input": ["model/tf__c3_3/sequential_7/tf__bottleneck_7/tf__conv_33/tf_bn_33/batch_normalization_33/FusedBatchNormV3"], "attr": {"T": {"type": "DT_FLOAT"}}}, {"name": "model/tf__c3_3/sequential_7/tf__bottleneck_7/tf__conv_33/mul", "op": "Mul", "input": ["model/tf__c3_3/sequential_7/tf__bottleneck_7/tf__conv_33/tf_bn_33/batch_normalization_33/FusedBatchNormV3", "model/tf__c3_3/sequential_7/tf__bottleneck_7/tf__conv_33/Sigmoid"], "attr": {"T": {"type": "DT_FLOAT"}}}, {"name": "model/tf__c3_3/sequential_7/tf__bottleneck_7/tf__conv_34/tf_bn_34/batch_normalization_34/FusedBatchNormV3", "op": "_FusedConv2D", "input": ["model/tf__c3_3/sequential_7/tf__bottleneck_7/tf__conv_33/mul", "model/tf__c3_3/sequential_7/tf__bottleneck_7/tf__conv_34/conv2d_34/Conv2D_weights", "model/tf__c3_3/sequential_7/tf__bottleneck_7/tf__conv_34/conv2d_34/Conv2D_bn_offset"], "device": "/device:CPU:0", "attr": {"use_cudnn_on_gpu": {"b": true}, "padding": {"s": "U0FNRQ=="}, "T": {"type": "DT_FLOAT"}, "data_format": {"s": "TkhXQw=="}, "dilations": {"list": {"i": ["1", "1", "1", "1"]}}, "num_args": {"i": "1"}, "fused_ops": {"list": {"s": ["Qmlhc0FkZA=="]}}, "strides": {"list": {"i": ["1", "1", "1", "1"]}}, "explicit_paddings": {"list": {}}, "epsilon": {"f": 0.0}}}, {"name": "model/tf__c3_3/sequential_7/tf__bottleneck_7/tf__conv_34/Sigmoid", "op": "Sigmoid", "input": ["model/tf__c3_3/sequential_7/tf__bottleneck_7/tf__conv_34/tf_bn_34/batch_normalization_34/FusedBatchNormV3"], "attr": {"T": {"type": "DT_FLOAT"}}}, {"name": "model/tf__c3_3/sequential_7/tf__bottleneck_7/tf__conv_34/mul", "op": "Mul", "input": ["model/tf__c3_3/sequential_7/tf__bottleneck_7/tf__conv_34/tf_bn_34/batch_normalization_34/FusedBatchNormV3", "model/tf__c3_3/sequential_7/tf__bottleneck_7/tf__conv_34/Sigmoid"], "attr": {"T": {"type": "DT_FLOAT"}}}, {"name": "model/tf__c3_3/concat", "op": "ConcatV2", "input": ["model/tf__c3_3/sequential_7/tf__bottleneck_7/tf__conv_34/mul", "model/tf__c3_3/tf__conv_31/mul", "model/tf__c3_3/concat/axis"], "attr": {"Tidx": {"type": "DT_INT32"}, "N": {"i": "2"}, "T": {"type": "DT_FLOAT"}}}, {"name": "model/tf__c3_3/tf__conv_32/tf_bn_32/batch_normalization_32/FusedBatchNormV3", "op": "_FusedConv2D", "input": ["model/tf__c3_3/concat", "model/tf__c3_3/tf__conv_32/conv2d_32/Conv2D_weights", "model/tf__c3_3/tf__conv_32/conv2d_32/Conv2D_bn_offset"], "device": "/device:CPU:0", "attr": {"explicit_paddings": {"list": {}}, "fused_ops": {"list": {"s": ["Qmlhc0FkZA=="]}}, "epsilon": {"f": 0.0}, "T": {"type": "DT_FLOAT"}, "padding": {"s": "U0FNRQ=="}, "data_format": {"s": "TkhXQw=="}, "strides": {"list": {"i": ["1", "1", "1", "1"]}}, "dilations": {"list": {"i": ["1", "1", "1", "1"]}}, "num_args": {"i": "1"}, "use_cudnn_on_gpu": {"b": true}}}, {"name": "model/tf__c3_3/tf__conv_32/Sigmoid", "op": "Sigmoid", "input": ["model/tf__c3_3/tf__conv_32/tf_bn_32/batch_normalization_32/FusedBatchNormV3"], "attr": {"T": {"type": "DT_FLOAT"}}}, {"name": "model/tf__c3_3/tf__conv_32/mul", "op": "Mul", "input": ["model/tf__c3_3/tf__conv_32/tf_bn_32/batch_normalization_32/FusedBatchNormV3", "model/tf__c3_3/tf__conv_32/Sigmoid"], "attr": {"T": {"type": "DT_FLOAT"}}}, {"name": "model/tf__conv_35/tf_bn_35/batch_normalization_35/FusedBatchNormV3", "op": "_FusedConv2D", "input": ["model/tf__c3_3/tf__conv_32/mul", "model/tf__conv_35/conv2d_35/Conv2D_weights", "model/tf__conv_35/conv2d_35/Conv2D_bn_offset"], "device": "/device:CPU:0", "attr": {"data_format": {"s": "TkhXQw=="}, "padding": {"s": "U0FNRQ=="}, "T": {"type": "DT_FLOAT"}, "explicit_paddings": {"list": {}}, "epsilon": {"f": 0.0}, "strides": {"list": {"i": ["1", "1", "1", "1"]}}, "dilations": {"list": {"i": ["1", "1", "1", "1"]}}, "num_args": {"i": "1"}, "use_cudnn_on_gpu": {"b": true}, "fused_ops": {"list": {"s": ["Qmlhc0FkZA=="]}}}}, {"name": "model/tf__conv_35/Sigmoid", "op": "Sigmoid", "input": ["model/tf__conv_35/tf_bn_35/batch_normalization_35/FusedBatchNormV3"], "attr": {"T": {"type": "DT_FLOAT"}}}, {"name": "model/tf__conv_35/mul", "op": "Mul", "input": ["model/tf__conv_35/tf_bn_35/batch_normalization_35/FusedBatchNormV3", "model/tf__conv_35/Sigmoid"], "attr": {"T": {"type": "DT_FLOAT"}}}, {"name": "model/tf__upsample/resize/ResizeNearestNeighbor", "op": "ResizeNearestNeighbor", "input": ["model/tf__conv_35/mul", "model/tf__upsample/resize/size"], "attr": {"align_corners": {"b": false}, "T": {"type": "DT_FLOAT"}, "half_pixel_centers": {"b": true}}}, {"name": "model/tf__concat/concat", "op": "ConcatV2", "input": ["model/tf__upsample/resize/ResizeNearestNeighbor", "model/tf__c3_2/tf__conv_20/mul", "model/tf__concat/concat/axis"], "attr": {"Tidx": {"type": "DT_INT32"}, "N": {"i": "2"}, "T": {"type": "DT_FLOAT"}}}, {"name": "model/tf__c3_4/tf__conv_36/tf_bn_36/batch_normalization_36/FusedBatchNormV3", "op": "_FusedConv2D", "input": ["model/tf__concat/concat", "model/tf__c3_4/tf__conv_36/conv2d_36/Conv2D_weights", "model/tf__c3_4/tf__conv_36/conv2d_36/Conv2D_bn_offset"], "device": "/device:CPU:0", "attr": {"dilations": {"list": {"i": ["1", "1", "1", "1"]}}, "strides": {"list": {"i": ["1", "1", "1", "1"]}}, "fused_ops": {"list": {"s": ["Qmlhc0FkZA=="]}}, "epsilon": {"f": 0.0}, "T": {"type": "DT_FLOAT"}, "padding": {"s": "U0FNRQ=="}, "num_args": {"i": "1"}, "data_format": {"s": "TkhXQw=="}, "use_cudnn_on_gpu": {"b": true}, "explicit_paddings": {"list": {}}}}, {"name": "model/tf__c3_4/tf__conv_37/tf_bn_37/batch_normalization_37/FusedBatchNormV3", "op": "_FusedConv2D", "input": ["model/tf__concat/concat", "model/tf__c3_4/tf__conv_37/conv2d_37/Conv2D_weights", "model/tf__c3_4/tf__conv_37/conv2d_37/Conv2D_bn_offset"], "device": "/device:CPU:0", "attr": {"T": {"type": "DT_FLOAT"}, "strides": {"list": {"i": ["1", "1", "1", "1"]}}, "epsilon": {"f": 0.0}, "padding": {"s": "U0FNRQ=="}, "use_cudnn_on_gpu": {"b": true}, "dilations": {"list": {"i": ["1", "1", "1", "1"]}}, "num_args": {"i": "1"}, "fused_ops": {"list": {"s": ["Qmlhc0FkZA=="]}}, "data_format": {"s": "TkhXQw=="}, "explicit_paddings": {"list": {}}}}, {"name": "model/tf__c3_4/tf__conv_36/Sigmoid", "op": "Sigmoid", "input": ["model/tf__c3_4/tf__conv_36/tf_bn_36/batch_normalization_36/FusedBatchNormV3"], "attr": {"T": {"type": "DT_FLOAT"}}}, {"name": "model/tf__c3_4/tf__conv_37/Sigmoid", "op": "Sigmoid", "input": ["model/tf__c3_4/tf__conv_37/tf_bn_37/batch_normalization_37/FusedBatchNormV3"], "attr": {"T": {"type": "DT_FLOAT"}}}, {"name": "model/tf__c3_4/tf__conv_36/mul", "op": "Mul", "input": ["model/tf__c3_4/tf__conv_36/tf_bn_36/batch_normalization_36/FusedBatchNormV3", "model/tf__c3_4/tf__conv_36/Sigmoid"], "attr": {"T": {"type": "DT_FLOAT"}}}, {"name": "model/tf__c3_4/tf__conv_37/mul", "op": "Mul", "input": ["model/tf__c3_4/tf__conv_37/tf_bn_37/batch_normalization_37/FusedBatchNormV3", "model/tf__c3_4/tf__conv_37/Sigmoid"], "attr": {"T": {"type": "DT_FLOAT"}}}, {"name": "model/tf__c3_4/sequential_8/tf__bottleneck_8/tf__conv_39/tf_bn_39/batch_normalization_39/FusedBatchNormV3", "op": "_FusedConv2D", "input": ["model/tf__c3_4/tf__conv_36/mul", "model/tf__c3_4/sequential_8/tf__bottleneck_8/tf__conv_39/conv2d_39/Conv2D_weights", "model/tf__c3_4/sequential_8/tf__bottleneck_8/tf__conv_39/conv2d_39/Conv2D_bn_offset"], "device": "/device:CPU:0", "attr": {"num_args": {"i": "1"}, "padding": {"s": "U0FNRQ=="}, "fused_ops": {"list": {"s": ["Qmlhc0FkZA=="]}}, "epsilon": {"f": 0.0}, "explicit_paddings": {"list": {}}, "T": {"type": "DT_FLOAT"}, "use_cudnn_on_gpu": {"b": true}, "strides": {"list": {"i": ["1", "1", "1", "1"]}}, "dilations": {"list": {"i": ["1", "1", "1", "1"]}}, "data_format": {"s": "TkhXQw=="}}}, {"name": "model/tf__c3_4/sequential_8/tf__bottleneck_8/tf__conv_39/Sigmoid", "op": "Sigmoid", "input": ["model/tf__c3_4/sequential_8/tf__bottleneck_8/tf__conv_39/tf_bn_39/batch_normalization_39/FusedBatchNormV3"], "attr": {"T": {"type": "DT_FLOAT"}}}, {"name": "model/tf__c3_4/sequential_8/tf__bottleneck_8/tf__conv_39/mul", "op": "Mul", "input": ["model/tf__c3_4/sequential_8/tf__bottleneck_8/tf__conv_39/tf_bn_39/batch_normalization_39/FusedBatchNormV3", "model/tf__c3_4/sequential_8/tf__bottleneck_8/tf__conv_39/Sigmoid"], "attr": {"T": {"type": "DT_FLOAT"}}}, {"name": "model/tf__c3_4/sequential_8/tf__bottleneck_8/tf__conv_40/tf_bn_40/batch_normalization_40/FusedBatchNormV3", "op": "_FusedConv2D", "input": ["model/tf__c3_4/sequential_8/tf__bottleneck_8/tf__conv_39/mul", "model/tf__c3_4/sequential_8/tf__bottleneck_8/tf__conv_40/conv2d_40/Conv2D_weights", "model/tf__c3_4/sequential_8/tf__bottleneck_8/tf__conv_40/conv2d_40/Conv2D_bn_offset"], "device": "/device:CPU:0", "attr": {"strides": {"list": {"i": ["1", "1", "1", "1"]}}, "padding": {"s": "U0FNRQ=="}, "dilations": {"list": {"i": ["1", "1", "1", "1"]}}, "use_cudnn_on_gpu": {"b": true}, "data_format": {"s": "TkhXQw=="}, "explicit_paddings": {"list": {}}, "T": {"type": "DT_FLOAT"}, "fused_ops": {"list": {"s": ["Qmlhc0FkZA=="]}}, "num_args": {"i": "1"}, "epsilon": {"f": 0.0}}}, {"name": "model/tf__c3_4/sequential_8/tf__bottleneck_8/tf__conv_40/Sigmoid", "op": "Sigmoid", "input": ["model/tf__c3_4/sequential_8/tf__bottleneck_8/tf__conv_40/tf_bn_40/batch_normalization_40/FusedBatchNormV3"], "attr": {"T": {"type": "DT_FLOAT"}}}, {"name": "model/tf__c3_4/sequential_8/tf__bottleneck_8/tf__conv_40/mul", "op": "Mul", "input": ["model/tf__c3_4/sequential_8/tf__bottleneck_8/tf__conv_40/tf_bn_40/batch_normalization_40/FusedBatchNormV3", "model/tf__c3_4/sequential_8/tf__bottleneck_8/tf__conv_40/Sigmoid"], "attr": {"T": {"type": "DT_FLOAT"}}}, {"name": "model/tf__c3_4/concat", "op": "ConcatV2", "input": ["model/tf__c3_4/sequential_8/tf__bottleneck_8/tf__conv_40/mul", "model/tf__c3_4/tf__conv_37/mul", "model/tf__c3_4/concat/axis"], "attr": {"N": {"i": "2"}, "Tidx": {"type": "DT_INT32"}, "T": {"type": "DT_FLOAT"}}}, {"name": "model/tf__c3_4/tf__conv_38/tf_bn_38/batch_normalization_38/FusedBatchNormV3", "op": "_FusedConv2D", "input": ["model/tf__c3_4/concat", "model/tf__c3_4/tf__conv_38/conv2d_38/Conv2D_weights", "model/tf__c3_4/tf__conv_38/conv2d_38/Conv2D_bn_offset"], "device": "/device:CPU:0", "attr": {"num_args": {"i": "1"}, "dilations": {"list": {"i": ["1", "1", "1", "1"]}}, "data_format": {"s": "TkhXQw=="}, "fused_ops": {"list": {"s": ["Qmlhc0FkZA=="]}}, "epsilon": {"f": 0.0}, "padding": {"s": "U0FNRQ=="}, "use_cudnn_on_gpu": {"b": true}, "strides": {"list": {"i": ["1", "1", "1", "1"]}}, "explicit_paddings": {"list": {}}, "T": {"type": "DT_FLOAT"}}}, {"name": "model/tf__c3_4/tf__conv_38/Sigmoid", "op": "Sigmoid", "input": ["model/tf__c3_4/tf__conv_38/tf_bn_38/batch_normalization_38/FusedBatchNormV3"], "attr": {"T": {"type": "DT_FLOAT"}}}, {"name": "model/tf__c3_4/tf__conv_38/mul", "op": "Mul", "input": ["model/tf__c3_4/tf__conv_38/tf_bn_38/batch_normalization_38/FusedBatchNormV3", "model/tf__c3_4/tf__conv_38/Sigmoid"], "attr": {"T": {"type": "DT_FLOAT"}}}, {"name": "model/tf__conv_41/tf_bn_41/batch_normalization_41/FusedBatchNormV3", "op": "_FusedConv2D", "input": ["model/tf__c3_4/tf__conv_38/mul", "model/tf__conv_41/conv2d_41/Conv2D_weights", "model/tf__conv_41/conv2d_41/Conv2D_bn_offset"], "device": "/device:CPU:0", "attr": {"T": {"type": "DT_FLOAT"}, "explicit_paddings": {"list": {}}, "fused_ops": {"list": {"s": ["Qmlhc0FkZA=="]}}, "data_format": {"s": "TkhXQw=="}, "padding": {"s": "U0FNRQ=="}, "strides": {"list": {"i": ["1", "1", "1", "1"]}}, "epsilon": {"f": 0.0}, "dilations": {"list": {"i": ["1", "1", "1", "1"]}}, "use_cudnn_on_gpu": {"b": true}, "num_args": {"i": "1"}}}, {"name": "model/tf__conv_41/Sigmoid", "op": "Sigmoid", "input": ["model/tf__conv_41/tf_bn_41/batch_normalization_41/FusedBatchNormV3"], "attr": {"T": {"type": "DT_FLOAT"}}}, {"name": "model/tf__conv_41/mul", "op": "Mul", "input": ["model/tf__conv_41/tf_bn_41/batch_normalization_41/FusedBatchNormV3", "model/tf__conv_41/Sigmoid"], "attr": {"T": {"type": "DT_FLOAT"}}}, {"name": "model/tf__upsample_1/resize/ResizeNearestNeighbor", "op": "ResizeNearestNeighbor", "input": ["model/tf__conv_41/mul", "model/tf__upsample_1/resize/size"], "attr": {"T": {"type": "DT_FLOAT"}, "half_pixel_centers": {"b": true}, "align_corners": {"b": false}}}, {"name": "model/tf__concat_1/concat", "op": "ConcatV2", "input": ["model/tf__upsample_1/resize/ResizeNearestNeighbor", "model/tf__c3_1/tf__conv_10/mul", "model/tf__concat_1/concat/axis"], "attr": {"N": {"i": "2"}, "T": {"type": "DT_FLOAT"}, "Tidx": {"type": "DT_INT32"}}}, {"name": "model/tf__c3_5/tf__conv_42/tf_bn_42/batch_normalization_42/FusedBatchNormV3", "op": "_FusedConv2D", "input": ["model/tf__concat_1/concat", "model/tf__c3_5/tf__conv_42/conv2d_42/Conv2D_weights", "model/tf__c3_5/tf__conv_42/conv2d_42/Conv2D_bn_offset"], "device": "/device:CPU:0", "attr": {"strides": {"list": {"i": ["1", "1", "1", "1"]}}, "fused_ops": {"list": {"s": ["Qmlhc0FkZA=="]}}, "dilations": {"list": {"i": ["1", "1", "1", "1"]}}, "padding": {"s": "U0FNRQ=="}, "data_format": {"s": "TkhXQw=="}, "epsilon": {"f": 0.0}, "num_args": {"i": "1"}, "explicit_paddings": {"list": {}}, "use_cudnn_on_gpu": {"b": true}, "T": {"type": "DT_FLOAT"}}}, {"name": "model/tf__c3_5/tf__conv_43/tf_bn_43/batch_normalization_43/FusedBatchNormV3", "op": "_FusedConv2D", "input": ["model/tf__concat_1/concat", "model/tf__c3_5/tf__conv_43/conv2d_43/Conv2D_weights", "model/tf__c3_5/tf__conv_43/conv2d_43/Conv2D_bn_offset"], "device": "/device:CPU:0", "attr": {"use_cudnn_on_gpu": {"b": true}, "explicit_paddings": {"list": {}}, "T": {"type": "DT_FLOAT"}, "fused_ops": {"list": {"s": ["Qmlhc0FkZA=="]}}, "strides": {"list": {"i": ["1", "1", "1", "1"]}}, "epsilon": {"f": 0.0}, "padding": {"s": "U0FNRQ=="}, "num_args": {"i": "1"}, "data_format": {"s": "TkhXQw=="}, "dilations": {"list": {"i": ["1", "1", "1", "1"]}}}}, {"name": "model/tf__c3_5/tf__conv_42/Sigmoid", "op": "Sigmoid", "input": ["model/tf__c3_5/tf__conv_42/tf_bn_42/batch_normalization_42/FusedBatchNormV3"], "attr": {"T": {"type": "DT_FLOAT"}}}, {"name": "model/tf__c3_5/tf__conv_43/Sigmoid", "op": "Sigmoid", "input": ["model/tf__c3_5/tf__conv_43/tf_bn_43/batch_normalization_43/FusedBatchNormV3"], "attr": {"T": {"type": "DT_FLOAT"}}}, {"name": "model/tf__c3_5/tf__conv_42/mul", "op": "Mul", "input": ["model/tf__c3_5/tf__conv_42/tf_bn_42/batch_normalization_42/FusedBatchNormV3", "model/tf__c3_5/tf__conv_42/Sigmoid"], "attr": {"T": {"type": "DT_FLOAT"}}}, {"name": "model/tf__c3_5/tf__conv_43/mul", "op": "Mul", "input": ["model/tf__c3_5/tf__conv_43/tf_bn_43/batch_normalization_43/FusedBatchNormV3", "model/tf__c3_5/tf__conv_43/Sigmoid"], "attr": {"T": {"type": "DT_FLOAT"}}}, {"name": "model/tf__c3_5/sequential_9/tf__bottleneck_9/tf__conv_45/tf_bn_45/batch_normalization_45/FusedBatchNormV3", "op": "_FusedConv2D", "input": ["model/tf__c3_5/tf__conv_42/mul", "model/tf__c3_5/sequential_9/tf__bottleneck_9/tf__conv_45/conv2d_45/Conv2D_weights", "model/tf__c3_5/sequential_9/tf__bottleneck_9/tf__conv_45/conv2d_45/Conv2D_bn_offset"], "device": "/device:CPU:0", "attr": {"epsilon": {"f": 0.0}, "explicit_paddings": {"list": {}}, "T": {"type": "DT_FLOAT"}, "num_args": {"i": "1"}, "strides": {"list": {"i": ["1", "1", "1", "1"]}}, "use_cudnn_on_gpu": {"b": true}, "dilations": {"list": {"i": ["1", "1", "1", "1"]}}, "data_format": {"s": "TkhXQw=="}, "padding": {"s": "U0FNRQ=="}, "fused_ops": {"list": {"s": ["Qmlhc0FkZA=="]}}}}, {"name": "model/tf__c3_5/sequential_9/tf__bottleneck_9/tf__conv_45/Sigmoid", "op": "Sigmoid", "input": ["model/tf__c3_5/sequential_9/tf__bottleneck_9/tf__conv_45/tf_bn_45/batch_normalization_45/FusedBatchNormV3"], "attr": {"T": {"type": "DT_FLOAT"}}}, {"name": "model/tf__c3_5/sequential_9/tf__bottleneck_9/tf__conv_45/mul", "op": "Mul", "input": ["model/tf__c3_5/sequential_9/tf__bottleneck_9/tf__conv_45/tf_bn_45/batch_normalization_45/FusedBatchNormV3", "model/tf__c3_5/sequential_9/tf__bottleneck_9/tf__conv_45/Sigmoid"], "attr": {"T": {"type": "DT_FLOAT"}}}, {"name": "model/tf__c3_5/sequential_9/tf__bottleneck_9/tf__conv_46/tf_bn_46/batch_normalization_46/FusedBatchNormV3", "op": "_FusedConv2D", "input": ["model/tf__c3_5/sequential_9/tf__bottleneck_9/tf__conv_45/mul", "model/tf__c3_5/sequential_9/tf__bottleneck_9/tf__conv_46/conv2d_46/Conv2D_weights", "model/tf__c3_5/sequential_9/tf__bottleneck_9/tf__conv_46/conv2d_46/Conv2D_bn_offset"], "device": "/device:CPU:0", "attr": {"fused_ops": {"list": {"s": ["Qmlhc0FkZA=="]}}, "data_format": {"s": "TkhXQw=="}, "padding": {"s": "U0FNRQ=="}, "dilations": {"list": {"i": ["1", "1", "1", "1"]}}, "epsilon": {"f": 0.0}, "use_cudnn_on_gpu": {"b": true}, "T": {"type": "DT_FLOAT"}, "num_args": {"i": "1"}, "strides": {"list": {"i": ["1", "1", "1", "1"]}}, "explicit_paddings": {"list": {}}}}, {"name": "model/tf__c3_5/sequential_9/tf__bottleneck_9/tf__conv_46/Sigmoid", "op": "Sigmoid", "input": ["model/tf__c3_5/sequential_9/tf__bottleneck_9/tf__conv_46/tf_bn_46/batch_normalization_46/FusedBatchNormV3"], "attr": {"T": {"type": "DT_FLOAT"}}}, {"name": "model/tf__c3_5/sequential_9/tf__bottleneck_9/tf__conv_46/mul", "op": "Mul", "input": ["model/tf__c3_5/sequential_9/tf__bottleneck_9/tf__conv_46/tf_bn_46/batch_normalization_46/FusedBatchNormV3", "model/tf__c3_5/sequential_9/tf__bottleneck_9/tf__conv_46/Sigmoid"], "attr": {"T": {"type": "DT_FLOAT"}}}, {"name": "model/tf__c3_5/concat", "op": "ConcatV2", "input": ["model/tf__c3_5/sequential_9/tf__bottleneck_9/tf__conv_46/mul", "model/tf__c3_5/tf__conv_43/mul", "model/tf__c3_5/concat/axis"], "attr": {"N": {"i": "2"}, "T": {"type": "DT_FLOAT"}, "Tidx": {"type": "DT_INT32"}}}, {"name": "model/tf__c3_5/tf__conv_44/tf_bn_44/batch_normalization_44/FusedBatchNormV3", "op": "_FusedConv2D", "input": ["model/tf__c3_5/concat", "model/tf__c3_5/tf__conv_44/conv2d_44/Conv2D_weights", "model/tf__c3_5/tf__conv_44/conv2d_44/Conv2D_bn_offset"], "device": "/device:CPU:0", "attr": {"explicit_paddings": {"list": {}}, "use_cudnn_on_gpu": {"b": true}, "epsilon": {"f": 0.0}, "T": {"type": "DT_FLOAT"}, "data_format": {"s": "TkhXQw=="}, "dilations": {"list": {"i": ["1", "1", "1", "1"]}}, "fused_ops": {"list": {"s": ["Qmlhc0FkZA=="]}}, "strides": {"list": {"i": ["1", "1", "1", "1"]}}, "padding": {"s": "U0FNRQ=="}, "num_args": {"i": "1"}}}, {"name": "model/tf__c3_5/tf__conv_44/Sigmoid", "op": "Sigmoid", "input": ["model/tf__c3_5/tf__conv_44/tf_bn_44/batch_normalization_44/FusedBatchNormV3"], "attr": {"T": {"type": "DT_FLOAT"}}}, {"name": "model/tf__c3_5/tf__conv_44/mul", "op": "Mul", "input": ["model/tf__c3_5/tf__conv_44/tf_bn_44/batch_normalization_44/FusedBatchNormV3", "model/tf__c3_5/tf__conv_44/Sigmoid"], "attr": {"T": {"type": "DT_FLOAT"}}}, {"name": "model/tf__detect/tf__conv2d/conv2d_59/BiasAdd", "op": "_FusedConv2D", "input": ["model/tf__c3_5/tf__conv_44/mul", "model/tf__detect/tf__conv2d/conv2d_59/Conv2D/ReadVariableOp", "model/tf__detect/tf__conv2d/conv2d_59/BiasAdd/ReadVariableOp"], "device": "/device:CPU:0", "attr": {"epsilon": {"f": 0.0}, "T": {"type": "DT_FLOAT"}, "strides": {"list": {"i": ["1", "1", "1", "1"]}}, "explicit_paddings": {"list": {}}, "dilations": {"list": {"i": ["1", "1", "1", "1"]}}, "data_format": {"s": "TkhXQw=="}, "fused_ops": {"list": {"s": ["Qmlhc0FkZA=="]}}, "use_cudnn_on_gpu": {"b": true}, "num_args": {"i": "1"}, "padding": {"s": "VkFMSUQ="}}}, {"name": "model/tf__conv_47/sequential_10/tf__pad_4/Pad", "op": "Pad", "input": ["model/tf__c3_5/tf__conv_44/mul", "model/tf__conv_47/sequential_10/tf__pad_4/Pad/paddings"], "attr": {"T": {"type": "DT_FLOAT"}, "Tpaddings": {"type": "DT_INT32"}}}, {"name": "model/tf__detect/Reshape", "op": "Reshape", "input": ["model/tf__detect/tf__conv2d/conv2d_59/BiasAdd", "model/tf__detect/Reshape/shape_1"], "attr": {"T": {"type": "DT_FLOAT"}, "Tshape": {"type": "DT_INT32"}}}, {"name": "model/tf__conv_47/tf_bn_47/batch_normalization_47/FusedBatchNormV3", "op": "_FusedConv2D", "input": ["model/tf__conv_47/sequential_10/tf__pad_4/Pad", "model/tf__conv_47/sequential_10/conv2d_47/Conv2D_weights", "model/tf__conv_47/sequential_10/conv2d_47/Conv2D_bn_offset"], "device": "/device:CPU:0", "attr": {"fused_ops": {"list": {"s": ["Qmlhc0FkZA=="]}}, "num_args": {"i": "1"}, "use_cudnn_on_gpu": {"b": true}, "padding": {"s": "VkFMSUQ="}, "dilations": {"list": {"i": ["1", "1", "1", "1"]}}, "T": {"type": "DT_FLOAT"}, "data_format": {"s": "TkhXQw=="}, "strides": {"list": {"i": ["1", "2", "2", "1"]}}, "explicit_paddings": {"list": {}}, "epsilon": {"f": 0.0}}}, {"name": "model/tf__detect/transpose", "op": "Transpose", "input": ["model/tf__detect/Reshape", "model/tf__detect/transpose/perm"], "attr": {"Tperm": {"type": "DT_INT32"}, "T": {"type": "DT_FLOAT"}}}, {"name": "model/tf__conv_47/Sigmoid", "op": "Sigmoid", "input": ["model/tf__conv_47/tf_bn_47/batch_normalization_47/FusedBatchNormV3"], "attr": {"T": {"type": "DT_FLOAT"}}}, {"name": "model/tf__detect/Sigmoid", "op": "Sigmoid", "input": ["model/tf__detect/transpose"], "attr": {"T": {"type": "DT_FLOAT"}}}, {"name": "model/tf__conv_47/mul", "op": "Mul", "input": ["model/tf__conv_47/tf_bn_47/batch_normalization_47/FusedBatchNormV3", "model/tf__conv_47/Sigmoid"], "attr": {"T": {"type": "DT_FLOAT"}}}, {"name": "model/tf__detect/strided_slice_2", "op": "StridedSlice", "input": ["model/tf__detect/Sigmoid", "model/tf__detect/strided_slice_2/stack", "model/tf__detect/strided_slice_2/stack_1", "model/tf__detect/strided_slice_2/stack_2"], "attr": {"begin_mask": {"i": "0"}, "new_axis_mask": {"i": "0"}, "ellipsis_mask": {"i": "1"}, "T": {"type": "DT_FLOAT"}, "shrink_axis_mask": {"i": "0"}, "Index": {"type": "DT_INT32"}, "end_mask": {"i": "0"}}}, {"name": "model/tf__detect/strided_slice_4", "op": "StridedSlice", "input": ["model/tf__detect/Sigmoid", "model/tf__detect/strided_slice_4/stack", "model/tf__detect/strided_slice_4/stack_1", "model/tf__detect/strided_slice_4/stack_2"], "attr": {"end_mask": {"i": "0"}, "begin_mask": {"i": "0"}, "shrink_axis_mask": {"i": "0"}, "ellipsis_mask": {"i": "1"}, "Index": {"type": "DT_INT32"}, "new_axis_mask": {"i": "0"}, "T": {"type": "DT_FLOAT"}}}, {"name": "model/tf__detect/strided_slice_6", "op": "StridedSlice", "input": ["model/tf__detect/Sigmoid", "model/tf__detect/strided_slice_6/stack", "model/tf__detect/strided_slice_6/stack_1", "model/tf__detect/strided_slice_6/stack_2"], "attr": {"new_axis_mask": {"i": "0"}, "end_mask": {"i": "2"}, "ellipsis_mask": {"i": "1"}, "Index": {"type": "DT_INT32"}, "T": {"type": "DT_FLOAT"}, "shrink_axis_mask": {"i": "0"}, "begin_mask": {"i": "0"}}}, {"name": "model/tf__concat_2/concat", "op": "ConcatV2", "input": ["model/tf__conv_47/mul", "model/tf__conv_41/mul", "model/tf__concat_2/concat/axis"], "attr": {"T": {"type": "DT_FLOAT"}, "Tidx": {"type": "DT_INT32"}, "N": {"i": "2"}}}, {"name": "model/tf__detect/mul_1", "op": "Mul", "input": ["model/tf__detect/strided_slice_2", "model/tf__detect/mul_1/y"], "attr": {"T": {"type": "DT_FLOAT"}}}, {"name": "model/tf__detect/mul_3", "op": "Mul", "input": ["model/tf__detect/strided_slice_4", "model/tf__detect/mul_3/y"], "attr": {"T": {"type": "DT_FLOAT"}}}, {"name": "model/tf__c3_6/tf__conv_48/tf_bn_48/batch_normalization_48/FusedBatchNormV3", "op": "_FusedConv2D", "input": ["model/tf__concat_2/concat", "model/tf__c3_6/tf__conv_48/conv2d_48/Conv2D_weights", "model/tf__c3_6/tf__conv_48/conv2d_48/Conv2D_bn_offset"], "device": "/device:CPU:0", "attr": {"strides": {"list": {"i": ["1", "1", "1", "1"]}}, "num_args": {"i": "1"}, "epsilon": {"f": 0.0}, "data_format": {"s": "TkhXQw=="}, "use_cudnn_on_gpu": {"b": true}, "fused_ops": {"list": {"s": ["Qmlhc0FkZA=="]}}, "explicit_paddings": {"list": {}}, "dilations": {"list": {"i": ["1", "1", "1", "1"]}}, "T": {"type": "DT_FLOAT"}, "padding": {"s": "U0FNRQ=="}}}, {"name": "model/tf__c3_6/tf__conv_49/tf_bn_49/batch_normalization_49/FusedBatchNormV3", "op": "_FusedConv2D", "input…
ile/body/_1/model/agnostic_nms_layer_1/agnostic_nms/while/TensorArrayV2Read/TensorListGetItem/element_shape"], "attr": {"element_dtype": {"type": "DT_FLOAT"}}}, {"name": "model/agnostic_nms_layer_1/agnostic_nms/while/body/_1/model/agnostic_nms_layer_1/agnostic_nms/while/non_max_suppression/NonMaxSuppressionV3", "op": "NonMaxSuppressionV3", "input": ["model/agnostic_nms_layer_1/agnostic_nms/while/body/_1/model/agnostic_nms_layer_1/agnostic_nms/while/TensorArrayV2Read/TensorListGetItem", "model/agnostic_nms_layer_1/agnostic_nms/while/body/_1/model/agnostic_nms_layer_1/agnostic_nms/while/Max", "model/agnostic_nms_layer_1/agnostic_nms/while/body/_1/model/agnostic_nms_layer_1/agnostic_nms/while/non_max_suppression/NonMaxSuppressionV3/max_output_size", "model/agnostic_nms_layer_1/agnostic_nms/while/body/_1/model/agnostic_nms_layer_1/agnostic_nms/while/non_max_suppression/iou_threshold", "model/agnostic_nms_layer_1/agnostic_nms/while/body/_1/model/agnostic_nms_layer_1/agnostic_nms/while/non_max_suppression/score_threshold"], "attr": {"T_threshold": {"type": "DT_FLOAT"}, "T": {"type": "DT_FLOAT"}}}, {"name": "model/agnostic_nms_layer_1/agnostic_nms/while/body/_1/model/agnostic_nms_layer_1/agnostic_nms/while/GatherV2_2", "op": "GatherV2", "input": ["model/agnostic_nms_layer_1/agnostic_nms/while/body/_1/model/agnostic_nms_layer_1/agnostic_nms/while/Cast", "model/agnostic_nms_layer_1/agnostic_nms/while/body/_1/model/agnostic_nms_layer_1/agnostic_nms/while/non_max_suppression/NonMaxSuppressionV3", "model/agnostic_nms_layer_1/agnostic_nms/while/body/_1/model/agnostic_nms_layer_1/agnostic_nms/while/GatherV2_2/axis"], "attr": {"Taxis": {"type": "DT_INT32"}, "batch_dims": {"i": "0"}, "Tparams": {"type": "DT_FLOAT"}, "Tindices": {"type": "DT_INT32"}}}, {"name": "model/agnostic_nms_layer_1/agnostic_nms/while/body/_1/model/agnostic_nms_layer_1/agnostic_nms/while/Shape_3", "op": "Shape", "input": ["model/agnostic_nms_layer_1/agnostic_nms/while/body/_1/model/agnostic_nms_layer_1/agnostic_nms/while/non_max_suppression/NonMaxSuppressionV3"], "attr": {"T": {"type": "DT_INT32"}, "out_type": {"type": "DT_INT32"}}}, {"name": "model/agnostic_nms_layer_1/agnostic_nms/while/body/_1/model/agnostic_nms_layer_1/agnostic_nms/while/GatherV2_1", "op": "GatherV2", "input": ["model/agnostic_nms_layer_1/agnostic_nms/while/body/_1/model/agnostic_nms_layer_1/agnostic_nms/while/Max", "model/agnostic_nms_layer_1/agnostic_nms/while/body/_1/model/agnostic_nms_layer_1/agnostic_nms/while/non_max_suppression/NonMaxSuppressionV3", "model/agnostic_nms_layer_1/agnostic_nms/while/body/_1/model/agnostic_nms_layer_1/agnostic_nms/while/GatherV2_1/axis"], "attr": {"Taxis": {"type": "DT_INT32"}, "batch_dims": {"i": "0"}, "Tparams": {"type": "DT_FLOAT"}, "Tindices": {"type": "DT_INT32"}}}, {"name": "model/agnostic_nms_layer_1/agnostic_nms/while/body/_1/model/agnostic_nms_layer_1/agnostic_nms/while/GatherV2", "op": "GatherV2", "input": ["model/agnostic_nms_layer_1/agnostic_nms/while/body/_1/model/agnostic_nms_layer_1/agnostic_nms/while/TensorArrayV2Read/TensorListGetItem", "model/agnostic_nms_layer_1/agnostic_nms/while/body/_1/model/agnostic_nms_layer_1/agnostic_nms/while/non_max_suppression/NonMaxSuppressionV3", "model/agnostic_nms_layer_1/agnostic_nms/while/body/_1/model/agnostic_nms_layer_1/agnostic_nms/while/GatherV2/axis"], "attr": {"Tparams": {"type": "DT_FLOAT"}, "batch_dims": {"i": "0"}, "Tindices": {"type": "DT_INT32"}, "Taxis": {"type": "DT_INT32"}}}, {"name": "model/agnostic_nms_layer_1/agnostic_nms/while/body/_1/model/agnostic_nms_layer_1/agnostic_nms/while/strided_slice_3", "op": "StridedSlice", "input": ["model/agnostic_nms_layer_1/agnostic_nms/while/body/_1/model/agnostic_nms_layer_1/agnostic_nms/while/Shape_3", "model/agnostic_nms_layer_1/agnostic_nms/while/body/_1/model/agnostic_nms_layer_1/agnostic_nms/while/strided_slice_3/stack", "model/agnostic_nms_layer_1/agnostic_nms/while/body/_1/model/agnostic_nms_layer_1/agnostic_nms/while/strided_slice_3/stack_1", "model/agnostic_nms_layer_1/agnostic_nms/while/body/_1/model/agnostic_nms_layer_1/agnostic_nms/while/strided_slice_3/stack_2"], "attr": {"shrink_axis_mask": {"i": "1"}, "begin_mask": {"i": "0"}, "T": {"type": "DT_INT32"}, "end_mask": {"i": "0"}, "new_axis_mask": {"i": "0"}, "Index": {"type": "DT_INT32"}, "ellipsis_mask": {"i": "0"}}}, {"name": "model/agnostic_nms_layer_1/agnostic_nms/while/body/_1/model/agnostic_nms_layer_1/agnostic_nms/while/Shape", "op": "Shape", "input": ["model/agnostic_nms_layer_1/agnostic_nms/while/body/_1/model/agnostic_nms_layer_1/agnostic_nms/while/GatherV2"], "attr": {"out_type": {"type": "DT_INT32"}, "T": {"type": "DT_FLOAT"}}}, {"name": "model/agnostic_nms_layer_1/agnostic_nms/while/body/_1/model/agnostic_nms_layer_1/agnostic_nms/while/Shape_1", "op": "Shape", "input": ["model/agnostic_nms_layer_1/agnostic_nms/while/body/_1/model/agnostic_nms_layer_1/agnostic_nms/while/GatherV2"], "attr": {"T": {"type": "DT_FLOAT"}, "out_type": {"type": "DT_INT32"}}}, {"name": "model/agnostic_nms_layer_1/agnostic_nms/while/body/_1/model/agnostic_nms_layer_1/agnostic_nms/while/Shape_2", "op": "Shape", "input": ["model/agnostic_nms_layer_1/agnostic_nms/while/body/_1/model/agnostic_nms_layer_1/agnostic_nms/while/GatherV2"], "attr": {"T": {"type": "DT_FLOAT"}, "out_type": {"type": "DT_INT32"}}}, {"name": "model/agnostic_nms_layer_1/agnostic_nms/while/body/_1/model/agnostic_nms_layer_1/agnostic_nms/while/TensorArrayV2Write_3/TensorListSetItem", "op": "TensorListSetItem", "input": ["model/agnostic_nms_layer_1/agnostic_nms/while/model/agnostic_nms_layer_1/agnostic_nms/TensorArrayV2_6_switch/_29:1", "Func/model/agnostic_nms_layer_1/agnostic_nms/while/body/_1/input/_70", "model/agnostic_nms_layer_1/agnostic_nms/while/body/_1/model/agnostic_nms_layer_1/agnostic_nms/while/strided_slice_3"], "attr": {"element_dtype": {"type": "DT_INT32"}}}, {"name": "model/agnostic_nms_layer_1/agnostic_nms/while/body/_1/model/agnostic_nms_layer_1/agnostic_nms/while/strided_slice", "op": "StridedSlice", "input": ["model/agnostic_nms_layer_1/agnostic_nms/while/body/_1/model/agnostic_nms_layer_1/agnostic_nms/while/Shape", "model/agnostic_nms_layer_1/agnostic_nms/while/body/_1/model/agnostic_nms_layer_1/agnostic_nms/while/strided_slice/stack", "model/agnostic_nms_layer_1/agnostic_nms/while/body/_1/model/agnostic_nms_layer_1/agnostic_nms/while/strided_slice/stack_1", "model/agnostic_nms_layer_1/agnostic_nms/while/body/_1/model/agnostic_nms_layer_1/agnostic_nms/while/strided_slice/stack_2"], "attr": {"T": {"type": "DT_INT32"}, "begin_mask": {"i": "0"}, "end_mask": {"i": "0"}, "Index": {"type": "DT_INT32"}, "ellipsis_mask": {"i": "0"}, "new_axis_mask": {"i": "0"}, "shrink_axis_mask": {"i": "1"}}}, {"name": "model/agnostic_nms_layer_1/agnostic_nms/while/body/_1/model/agnostic_nms_layer_1/agnostic_nms/while/strided_slice_1", "op": "StridedSlice", "input": ["model/agnostic_nms_layer_1/agnostic_nms/while/body/_1/model/agnostic_nms_layer_1/agnostic_nms/while/Shape_1", "model/agnostic_nms_layer_1/agnostic_nms/while/body/_1/model/agnostic_nms_layer_1/agnostic_nms/while/strided_slice_1/stack", "model/agnostic_nms_layer_1/agnostic_nms/while/body/_1/model/agnostic_nms_layer_1/agnostic_nms/while/strided_slice_1/stack_1", "model/agnostic_nms_layer_1/agnostic_nms/while/body/_1/model/agnostic_nms_layer_1/agnostic_nms/while/strided_slice_1/stack_2"], "attr": {"end_mask": {"i": "0"}, "Index": {"type": "DT_INT32"}, "begin_mask": {"i": "0"}, "shrink_axis_mask": {"i": "1"}, "ellipsis_mask": {"i": "0"}, "new_axis_mask": {"i": "0"}, "T": {"type": "DT_INT32"}}}, {"name": "model/agnostic_nms_layer_1/agnostic_nms/while/body/_1/model/agnostic_nms_layer_1/agnostic_nms/while/strided_slice_2", "op": "StridedSlice", "input": ["model/agnostic_nms_layer_1/agnostic_nms/while/body/_1/model/agnostic_nms_layer_1/agnostic_nms/while/Shape_2", "model/agnostic_nms_layer_1/agnostic_nms/while/body/_1/model/agnostic_nms_layer_1/agnostic_nms/while/strided_slice_2/stack", "model/agnostic_nms_layer_1/agnostic_nms/while/body/_1/model/agnostic_nms_layer_1/agnostic_nms/while/strided_slice_2/stack_1", "model/agnostic_nms_layer_1/agnostic_nms/while/body/_1/model/agnostic_nms_layer_1/agnostic_nms/while/strided_slice_2/stack_2"], "attr": {"new_axis_mask": {"i": "0"}, "end_mask": {"i": "0"}, "begin_mask": {"i": "0"}, "ellipsis_mask": {"i": "0"}, "T": {"type": "DT_INT32"}, "Index": {"type": "DT_INT32"}, "shrink_axis_mask": {"i": "1"}}}, {"name": "model/agnostic_nms_layer_1/agnostic_nms/while/next_iteration/_51", "op": "NextIteration", "input": ["model/agnostic_nms_layer_1/agnostic_nms/while/body/_1/model/agnostic_nms_layer_1/agnostic_nms/while/TensorArrayV2Write_3/TensorListSetItem", "^model/agnostic_nms_layer_1/agnostic_nms/while/loop_body_control/_33"], "attr": {"T": {"type": "DT_VARIANT"}}}, {"name": "model/agnostic_nms_layer_1/agnostic_nms/while/body/_1/model/agnostic_nms_layer_1/agnostic_nms/while/sub", "op": "Sub", "input": ["model/agnostic_nms_layer_1/agnostic_nms/while/body/_1/model/agnostic_nms_layer_1/agnostic_nms/while/sub/x", "model/agnostic_nms_layer_1/agnostic_nms/while/body/_1/model/agnostic_nms_layer_1/agnostic_nms/while/strided_slice"], "attr": {"T": {"type": "DT_INT32"}}}, {"name": "model/agnostic_nms_layer_1/agnostic_nms/while/body/_1/model/agnostic_nms_layer_1/agnostic_nms/while/sub_1", "op": "Sub", "input": ["model/agnostic_nms_layer_1/agnostic_nms/while/body/_1/model/agnostic_nms_layer_1/agnostic_nms/while/sub_1/x", "model/agnostic_nms_layer_1/agnostic_nms/while/body/_1/model/agnostic_nms_layer_1/agnostic_nms/while/strided_slice_1"], "attr": {"T": {"type": "DT_INT32"}}}, {"name": "model/agnostic_nms_layer_1/agnostic_nms/while/body/_1/model/agnostic_nms_layer_1/agnostic_nms/while/sub_2", "op": "Sub", "input": ["model/agnostic_nms_layer_1/agnostic_nms/while/body/_1/model/agnostic_nms_layer_1/agnostic_nms/while/sub_2/x", "model/agnostic_nms_layer_1/agnostic_nms/while/body/_1/model/agnostic_nms_layer_1/agnostic_nms/while/strided_slice_2"], "attr": {"T": {"type": "DT_INT32"}}}, {"name": "model/agnostic_nms_layer_1/agnostic_nms/while/body/_1/model/agnostic_nms_layer_1/agnostic_nms/while/Pad/paddings/0", "op": "Pack", "input": ["model/agnostic_nms_layer_1/agnostic_nms/while/body/_1/model/agnostic_nms_layer_1/agnostic_nms/while/Pad/paddings/0/0", "model/agnostic_nms_layer_1/agnostic_nms/while/body/_1/model/agnostic_nms_layer_1/agnostic_nms/while/sub"], "attr": {"N": {"i": "2"}, "axis": {"i": "0"}, "T": {"type": "DT_INT32"}}}, {"name": "model/agnostic_nms_layer_1/agnostic_nms/while/body/_1/model/agnostic_nms_layer_1/agnostic_nms/while/PadV2/paddings/0", "op": "Pack", "input": ["model/agnostic_nms_layer_1/agnostic_nms/while/body/_1/model/agnostic_nms_layer_1/agnostic_nms/while/PadV2/paddings/0/0", "model/agnostic_nms_layer_1/agnostic_nms/while/body/_1/model/agnostic_nms_layer_1/agnostic_nms/while/sub_1"], "attr": {"T": {"type": "DT_INT32"}, "axis": {"i": "0"}, "N": {"i": "2"}}}, {"name": "model/agnostic_nms_layer_1/agnostic_nms/while/body/_1/model/agnostic_nms_layer_1/agnostic_nms/while/PadV2_1/paddings/0", "op": "Pack", "input": ["model/agnostic_nms_layer_1/agnostic_nms/while/body/_1/model/agnostic_nms_layer_1/agnostic_nms/while/PadV2_1/paddings/0/0", "model/agnostic_nms_layer_1/agnostic_nms/while/body/_1/model/agnostic_nms_layer_1/agnostic_nms/while/sub_2"], "attr": {"T": {"type": "DT_INT32"}, "N": {"i": "2"}, "axis": {"i": "0"}}}, {"name": "model/agnostic_nms_layer_1/agnostic_nms/while/body/_1/model/agnostic_nms_layer_1/agnostic_nms/while/Pad/paddings", "op": "Pack", "input": ["model/agnostic_nms_layer_1/agnostic_nms/while/body/_1/model/agnostic_nms_layer_1/agnostic_nms/while/Pad/paddings/0", "model/agnostic_nms_layer_1/agnostic_nms/while/body/_1/model/agnostic_nms_layer_1/agnostic_nms/while/Pad/paddings/1_1"], "attr": {"N": {"i": "2"}, "T": {"type": "DT_INT32"}, "axis": {"i": "0"}}}, {"name": "ConstantFolding/model/agnostic_nms_layer_1/agnostic_nms/while/body/_1/model/agnostic_nms_layer_1/agnostic_nms/while/PadV2/paddings_const_axis", "op": "Const", "input": ["^model/agnostic_nms_layer_1/agnostic_nms/while/body/_1/model/agnostic_nms_layer_1/agnostic_nms/while/PadV2/paddings/0"], "attr": {"dtype": {"type": "DT_INT32"}, "value": {"tensor": {"dtype": "DT_INT32", "tensorShape": {}}}}}, {"name": "ConstantFolding/model/agnostic_nms_layer_1/agnostic_nms/while/body/_1/model/agnostic_nms_layer_1/agnostic_nms/while/PadV2_1/paddings_const_axis", "op": "Const", "input": ["^model/agnostic_nms_layer_1/agnostic_nms/while/body/_1/model/agnostic_nms_layer_1/agnostic_nms/while/PadV2_1/paddings/0"], "attr": {"value": {"tensor": {"dtype": "DT_INT32", "tensorShape": {}}}, "dtype": {"type": "DT_INT32"}}}, {"name": "model/agnostic_nms_layer_1/agnostic_nms/while/body/_1/model/agnostic_nms_layer_1/agnostic_nms/while/Pad", "op": "Pad", "input": ["model/agnostic_nms_layer_1/agnostic_nms/while/body/_1/model/agnostic_nms_layer_1/agnostic_nms/while/GatherV2", "model/agnostic_nms_layer_1/agnostic_nms/while/body/_1/model/agnostic_nms_layer_1/agnostic_nms/while/Pad/paddings"], "attr": {"T": {"type": "DT_FLOAT"}, "Tpaddings": {"type": "DT_INT32"}}}, {"name": "model/agnostic_nms_layer_1/agnostic_nms/while/body/_1/model/agnostic_nms_layer_1/agnostic_nms/while/PadV2/paddings", "op": "ExpandDims", "input": ["model/agnostic_nms_layer_1/agnostic_nms/while/body/_1/model/agnostic_nms_layer_1/agnostic_nms/while/PadV2/paddings/0", "ConstantFolding/model/agnostic_nms_layer_1/agnostic_nms/while/body/_1/model/agnostic_nms_layer_1/agnostic_nms/while/PadV2/paddings_const_axis"], "attr": {"Tdim": {"type": "DT_INT32"}, "T": {"type": "DT_INT32"}}}, {"name": "model/agnostic_nms_layer_1/agnostic_nms/while/body/_1/model/agnostic_nms_layer_1/agnostic_nms/while/PadV2_1/paddings", "op": "ExpandDims", "input": ["model/agnostic_nms_layer_1/agnostic_nms/while/body/_1/model/agnostic_nms_layer_1/agnostic_nms/while/PadV2_1/paddings/0", "ConstantFolding/model/agnostic_nms_layer_1/agnostic_nms/while/body/_1/model/agnostic_nms_layer_1/agnostic_nms/while/PadV2_1/paddings_const_axis"], "attr": {"T": {"type": "DT_INT32"}, "Tdim": {"type": "DT_INT32"}}}, {"name": "model/agnostic_nms_layer_1/agnostic_nms/while/body/_1/model/agnostic_nms_layer_1/agnostic_nms/while/TensorArrayV2Write/TensorListSetItem", "op": "TensorListSetItem", "input": ["model/agnostic_nms_layer_1/agnostic_nms/while/model/agnostic_nms_layer_1/agnostic_nms/TensorArrayV2_3_switch/_26:1", "Func/model/agnostic_nms_layer_1/agnostic_nms/while/body/_1/input/_70", "model/agnostic_nms_layer_1/agnostic_nms/while/body/_1/model/agnostic_nms_layer_1/agnostic_nms/while/Pad"], "attr": {"element_dtype": {"type": "DT_FLOAT"}}}, {"name": "model/agnostic_nms_layer_1/agnostic_nms/while/body/_1/model/agnostic_nms_layer_1/agnostic_nms/while/PadV2", "op": "PadV2", "input": ["model/agnostic_nms_layer_1/agnostic_nms/while/body/_1/model/agnostic_nms_layer_1/agnostic_nms/while/GatherV2_1", "model/agnostic_nms_layer_1/agnostic_nms/while/body/_1/model/agnostic_nms_layer_1/agnostic_nms/while/PadV2/paddings", "model/agnostic_nms_layer_1/agnostic_nms/while/body/_1/model/agnostic_nms_layer_1/agnostic_nms/while/PadV2/constant_values"], "attr": {"Tpaddings": {"type": "DT_INT32"}, "T": {"type": "DT_FLOAT"}}}, {"name": "model/agnostic_nms_layer_1/agnostic_nms/while/body/_1/model/agnostic_nms_layer_1/agnostic_nms/while/PadV2_1", "op": "PadV2", "input": ["model/agnostic_nms_layer_1/agnostic_nms/while/body/_1/model/agnostic_nms_layer_1/agnostic_nms/while/GatherV2_2", "model/agnostic_nms_layer_1/agnostic_nms/while/body/_1/model/agnostic_nms_layer_1/agnostic_nms/while/PadV2_1/paddings", "model/agnostic_nms_layer_1/agnostic_nms/while/body/_1/model/agnostic_nms_layer_1/agnostic_nms/while/PadV2_1/constant_values"], "attr": {"T": {"type": "DT_FLOAT"}, "Tpaddings": {"type": "DT_INT32"}}}, {"name": "model/agnostic_nms_layer_1/agnostic_nms/while/next_iteration/_48", "op": "NextIteration", "input": ["model/agnostic_nms_layer_1/agnostic_nms/while/body/_1/model/agnostic_nms_layer_1/agnostic_nms/while/TensorArrayV2Write/TensorListSetItem", "^model/agnostic_nms_layer_1/agnostic_nms/while/loop_body_control/_33"], "attr": {"T": {"type": "DT_VARIANT"}}}, {"name": "model/agnostic_nms_layer_1/agnostic_nms/while/body/_1/model/agnostic_nms_layer_1/agnostic_nms/while/TensorArrayV2Write_1/TensorListSetItem", "op": "TensorListSetItem", "input": ["model/agnostic_nms_layer_1/agnostic_nms/while/model/agnostic_nms_layer_1/agnostic_nms/TensorArrayV2_4_switch/_27:1", "Func/model/agnostic_nms_layer_1/agnostic_nms/while/body/_1/input/_70", "model/agnostic_nms_layer_1/agnostic_nms/while/body/_1/model/agnostic_nms_layer_1/agnostic_nms/while/PadV2"], "attr": {"element_dtype": {"type": "DT_FLOAT"}}}, {"name": "model/agnostic_nms_layer_1/agnostic_nms/while/body/_1/model/agnostic_nms_layer_1/agnostic_nms/while/TensorArrayV2Write_2/TensorListSetItem", "op": "TensorListSetItem", "input": ["model/agnostic_nms_layer_1/agnostic_nms/while/model/agnostic_nms_layer_1/agnostic_nms/TensorArrayV2_5_switch/_28:1", "Func/model/agnostic_nms_layer_1/agnostic_nms/while/body/_1/input/_70", "model/agnostic_nms_layer_1/agnostic_nms/while/body/_1/model/agnostic_nms_layer_1/agnostic_nms/while/PadV2_1"], "attr": {"element_dtype": {"type": "DT_FLOAT"}}}, {"name": "model/agnostic_nms_layer_1/agnostic_nms/while/next_iteration/_49", "op": "NextIteration", "input": ["model/agnostic_nms_layer_1/agnostic_nms/while/body/_1/model/agnostic_nms_layer_1/agnostic_nms/while/TensorArrayV2Write_1/TensorListSetItem", "^model/agnostic_nms_layer_1/agnostic_nms/while/loop_body_control/_33"], "attr": {"T": {"type": "DT_VARIANT"}}}, {"name": "model/agnostic_nms_layer_1/agnostic_nms/while/next_iteration/_50", "op": "NextIteration", "input": ["model/agnostic_nms_layer_1/agnostic_nms/while/body/_1/model/agnostic_nms_layer_1/agnostic_nms/while/TensorArrayV2Write_2/TensorListSetItem", "^model/agnostic_nms_layer_1/agnostic_nms/while/loop_body_control/_33"], "attr": {"T": {"type": "DT_VARIANT"}}}], "library": {}, "versions": {"producer": 561}}, "weightsManifest": [{"paths": ["group1-shard1of7.bin", "group1-shard2of7.bin", "group1-shard3of7.bin", "group1-shard4of7.bin", "group1-shard5of7.bin", "group1-shard6of7.bin", "group1-shard7of7.bin"], "weights": [{"name": "model/agnostic_nms_layer_1/agnostic_nms/TensorArrayV2_3/element_shape", "shape": [], "dtype": "int32"}, {"name": "model/agnostic_nms_layer_1/agnostic_nms/TensorArrayV2_3/num_elements", "shape": [], "dtype": "int32"}, {"name": "model/agnostic_nms_layer_1/agnostic_nms/TensorArrayV2Stack/TensorListStack/element_shape", "shape": [2], "dtype": "int32"}, {"name": "model/agnostic_nms_layer_1/agnostic_nms/TensorArrayV2_4/element_shape", "shape": [], "dtype": "int32"}, {"name": "model/agnostic_nms_layer_1/agnostic_nms/TensorArrayV2_4/num_elements", "shape": [], "dtype": "int32"}, {"name": "model/agnostic_nms_layer_1/agnostic_nms/TensorArrayV2Stack_1/TensorListStack/element_shape", "shape": [1], "dtype": "int32"}, {"name": "model/agnostic_nms_layer_1/agnostic_nms/TensorArrayV2_5/element_shape", "shape": [], "dtype": "int32"}, {"name": "model/agnostic_nms_layer_1/agnostic_nms/TensorArrayV2_5/num_elements", "shape": [], "dtype": "int32"}, {"name": "model/agnostic_nms_layer_1/agnostic_nms/TensorArrayUnstack_1/TensorListFromTensor/element_shape", "shape": [2], "dtype": "int32"}, {"name": "model/agnostic_nms_layer_1/agnostic_nms/TensorArrayV2Stack_2/TensorListStack/element_shape", "shape": [1], "dtype": "int32"}, {"name": "model/agnostic_nms_layer_1/agnostic_nms/TensorArrayV2_6/element_shape", "shape": [], "dtype": "int32"}, {"name": "model/agnostic_nms_layer_1/agnostic_nms/TensorArrayV2_6/num_elements", "shape": [], "dtype": "int32"}, {"name": "ConstantFolding/model/tf.math.truediv/truediv_recip", "shape": [], "dtype": "float32"}, {"name": "ConstantFolding/model/tf.math.truediv_1/truediv_recip", "shape": [], "dtype": "float32"}, {"name": "ConstantFolding/model/tf.math.truediv_2/truediv_recip", "shape": [], "dtype": "float32"}, {"name": "model/tf.split/split/split_dim", "shape": [], "dtype": "int32"}, {"name": "model/tf.__operators__.getitem/strided_slice/stack", "shape": [2], "dtype": "int32"}, {"name": "model/tf.__operators__.getitem/strided_slice/stack_1", "shape": [2], "dtype": "int32"}, {"name": "model/tf.__operators__.getitem/strided_slice/stack_2", "shape": [2], "dtype": "int32"}, {"name": "ConstantFolding/model/tf.math.truediv_3/truediv_recip", "shape": [], "dtype": "float32"}, {"name": "model/tf.concat/concat/axis", "shape": [], "dtype": "int32"}, {"name": "model/agnostic_nms_layer_1/agnostic_nms/TensorArrayUnstack/TensorListFromTensor/element_shape", "shape": [2], "dtype": "int32"}, {"name": "model/tf.__operators__.getitem_1/strided_slice/stack", "shape": [3], "dtype": "int32"}, {"name": "model/tf.__operators__.getitem_1/strided_slice/stack_1", "shape": [3], "dtype": "int32"}, {"name": "model/tf.__operators__.getitem_1/strided_slice/stack_2", "shape": [3], "dtype": "int32"}, {"name": "model/tf__detect/strided_slice_2/stack", "shape": [2], "dtype": "int32"}, {"name": "model/tf__detect/strided_slice_2/stack_1", "shape": [2], "dtype": "int32"}, {"name": "model/tf__detect/strided_slice_2/stack_2", "shape": [2], "dtype": "int32"}, {"name": "model/tf__detect/mul_1/y", "shape": [], "dtype": "float32"}, {"name": "model/tf__detect/sub", "shape": [1, 1, 1600, 2], "dtype": "float32"}, {"name": "model/tf__detect/mul_2", "shape": [1, 2], "dtype": "float32"}, {"name": "model/tf__detect/strided_slice_4/stack", "shape": [2], "dtype": "int32"}, {"name": "model/tf__detect/strided_slice_4/stack_1", "shape": [2], "dtype": "int32"}, {"name": "model/tf__detect/strided_slice_4/stack_2", "shape": [2], "dtype": "int32"}, {"name": "model/tf__detect/mul_3/y", "shape": [], "dtype": "float32"}, {"name": "model/tf__detect/mul_4", "shape": [1, 3, 1, 2], "dtype": "float32"}, {"name": "model/tf__detect/tf__conv2d/conv2d_59/Conv2D/ReadVariableOp", "shape": [1, 1, 128, 255], "dtype": "float32"}, {"name": "model/tf__detect/tf__conv2d/conv2d_59/BiasAdd/ReadVariableOp", "shape": [255], "dtype": "float32"}, {"name": "model/tf__detect/Reshape/shape_1", "shape": [4], "dtype": "int32"}, {"name": "model/tf__detect/transpose/perm", "shape": [4], "dtype": "int32"}, {"name": "model/tf__detect/strided_slice_6/stack", "shape": [2], "dtype": "int32"}, {"name": "model/tf__detect/strided_slice_6/stack_1", "shape": [2], "dtype": "int32"}, {"name": "model/tf__detect/strided_slice_6/stack_2", "shape": [2], "dtype": "int32"}, {"name": "model/tf__detect/concat/axis", "shape": [], "dtype": "int32"}, {"name": "model/tf__detect/Reshape_1/shape_1", "shape": [3], "dtype": "int32"}, {"name": "model/tf__detect/strided_slice_9/stack", "shape": [2], "dtype": "int32"}, {"name": "model/tf__detect/strided_slice_9/stack_1", "shape": [2], "dtype": "int32"}, {"name": "model/tf__detect/strided_slice_9/stack_2", "shape": [2], "dtype": "int32"}, {"name": "model/tf__detect/mul_8/y", "shape": [], "dtype": "float32"}, {"name": "model/tf__detect/sub_1", "shape": [1, 1, 400, 2], "dtype": "float32"}, {"name": "model/tf__detect/mul_9", "shape": [1, 2], "dtype": "float32"}, {"name": "model/tf__detect/strided_slice_11/stack", "shape": [2], "dtype": "int32"}, {"name": "model/tf__detect/strided_slice_11/stack_1", "shape": [2], "dtype": "int32"}, {"name": "model/tf__detect/strided_slice_11/stack_2", "shape": [2], "dtype": "int32"}, {"name": "model/tf__detect/mul_10/y", "shape": [], "dtype": "float32"}, {"name": "model/tf__detect/mul_11", "shape": [1, 3, 1, 2], "dtype": "float32"}, {"name": "model/tf__detect/tf__conv2d_1/conv2d_60/Conv2D/ReadVariableOp", "shape": [1, 1, 256, 255], "dtype": "float32"}, {"name": "model/tf__detect/tf__conv2d_1/conv2d_60/BiasAdd/ReadVariableOp", "shape": [255], "dtype": "float32"}, {"name": "model/tf__detect/Reshape_2/shape_1", "shape": [4], "dtype": "int32"}, {"name": "model/tf__detect/transpose_1/perm", "shape": [4], "dtype": "int32"}, {"name": "model/tf__detect/strided_slice_13/stack", "shape": [2], "dtype": "int32"}, {"name": "model/tf__detect/strided_slice_13/stack_1", "shape": [2], "dtype": "int32"}, {"name": "model/tf__detect/strided_slice_13/stack_2", "shape": [2], "dtype": "int32"}, {"name": "model/tf__detect/concat_1/axis", "shape": [], "dtype": "int32"}, {"name": "model/tf__detect/Reshape_3/shape_1", "shape": [3], "dtype": "int32"}, {"name": "model/tf__detect/strided_slice_16/stack", "shape": [2], "dtype": "int32"}, {"name": "model/tf__detect/strided_slice_16/stack_1", "shape": [2], "dtype": "int32"}, {"name": "model/tf__detect/strided_slice_16/stack_2", "shape": [2], "dtype": "int32"}, {"name": "model/tf__detect/mul_15/y", "shape": [], "dtype": "float32"}, {"name": "model/tf__detect/sub_2", "shape": [1, 1, 100, 2], "dtype": "float32"}, {"name": "model/tf__detect/mul_16", "shape": [1, 2], "dtype": "float32"}, {"name": "model/tf__detect/strided_slice_18/stack", "shape": [2], "dtype": "int32"}, {"name": "model/tf__detect/strided_slice_18/stack_1", "shape": [2], "dtype": "int32"}, {"name": "model/tf__detect/strided_slice_18/stack_2", "shape": [2], "dtype": "int32"}, {"name": "model/tf__detect/mul_17/y", "shape": [], "dtype": "float32"}, {"name": "model/tf__detect/mul_18", "shape": [1, 3, 1, 2], "dtype": "float32"}, {"name": "model/tf__upsample_1/resize/size", "shape": [2], "dtype": "int32"}, {"name": "model/tf__concat_1/concat/axis", "shape": [], "dtype": "int32"}, {"name": "model/tf__c3_5/concat/axis", "shape": [], "dtype": "int32"}, {"name": "model/tf__conv_47/sequential_10/tf__pad_4/Pad/paddings", "shape": [4, 2], "dtype": "int32"}, {"name": "model/tf__upsample/resize/size", "shape": [2], "dtype": "int32"}, {"name": "model/tf__concat/concat/axis", "shape": [], "dtype": "int32"}, {"name": "model/tf__c3_4/concat/axis", "shape": [], "dtype": "int32"}, {"name": "model/tf__concat_2/concat/axis", "shape": [], "dtype": "int32"}, {"name": "model/tf__c3_6/concat/axis", "shape": [], "dtype": "int32"}, {"name": "model/tf__conv_53/sequential_12/tf__pad_5/Pad/paddings", "shape": [4, 2], "dtype": "int32"}, {"name": "model/tf__focus/strided_slice/stack", "shape": [4], "dtype": "int32"}, {"name": "model/tf__focus/strided_slice/stack_1", "shape": [4], "dtype": "int32"}, {"name": "model/tf__focus/strided_slice/stack_2", "shape": [4], "dtype": "int32"}, {"name": "model/tf__focus/strided_slice_1/stack", "shape": [4], "dtype": "int32"}, {"name": "model/tf__focus/strided_slice_1/stack_1", "shape": [4], "dtype": "int32"}, {"name": "model/tf__focus/strided_slice_1/stack_2", "shape": [4], "dtype": "int32"}, {"name": "model/tf__focus/strided_slice_2/stack", "shape": [4], "dtype": "int32"}, {"name": "model/tf__focus/strided_slice_2/stack_1", "shape": [4], "dtype": "int32"}, {"name": "model/tf__focus/strided_slice_2/stack_2", "shape": [4], "dtype": "int32"}, {"name": "model/tf__focus/strided_slice_3/stack", "shape": [4], "dtype": "int32"}, {"name": "model/tf__focus/strided_slice_3/stack_1", "shape": [4], "dtype": "int32"}, {"name": "model/tf__focus/strided_slice_3/stack_2", "shape": [4], "dtype": "int32"}, {"name": "model/tf__focus/concat/axis", "shape": [], "dtype": "int32"}, {"name": "model/tf__conv_1/sequential/tf__pad/Pad/paddings", "shape": [4, 2], "dtype": "int32"}, {"name": "model/tf__c3/concat/axis", "shape": [], "dtype": "int32"}, {"name": "model/tf__conv_7/sequential_2/tf__pad_1/Pad/paddings", "shape": [4, 2], "dtype": "int32"}, {"name": "model/tf__c3_1/concat/axis", "shape": [], "dtype": "int32"}, {"name": "model/tf__conv_17/sequential_4/tf__pad_2/Pad/paddings", "shape": [4, 2], "dtype": "int32"}, {"name": "model/tf__c3_2/concat/axis", "shape": [], "dtype": "int32"}, {"name": "model/tf__conv_27/sequential_6/tf__pad_3/Pad/paddings", "shape": [4, 2], "dtype": "int32"}, {"name": "model/tf_spp/concat/axis", "shape": [], "dtype": "int32"}, {"name": "model/tf__c3_3/concat/axis", "shape": [], "dtype": "int32"}, {"name": "model/tf__concat_3/concat/axis", "shape": [], "dtype": "int32"}, {"name": "model/tf__c3_7/concat/axis", "shape": [], "dtype": "int32"}, {"name": "model/tf__detect/tf__conv2d_2/conv2d_61/Conv2D/ReadVariableOp", "shape": [1, 1, 512, 255], "dtype": "float32"}, {"name": "model/tf__detect/tf__conv2d_2/conv2d_61/BiasAdd/ReadVariableOp", "shape": [255], "dtype": "float32"}, {"name": "model/tf__detect/Reshape_4/shape_1", "shape": [4], "dtype": "int32"}, {"name": "model/tf__detect/transpose_2/perm", "shape": [4], "dtype": "int32"}, {"name": "model/tf__detect/strided_slice_20/stack", "shape": [2], "dtype": "int32"}, {"name": "model/tf__detect/strided_slice_20/stack_1", "shape": [2], "dtype": "int32"}, {"name": "model/tf__detect/strided_slice_20/stack_2", "shape": [2], "dtype": "int32"}, {"name": "model/tf__detect/concat_2/axis", "shape": [], "dtype": "int32"}, {"name": "model/tf__detect/Reshape_5/shape_1", "shape": [3], "dtype": "int32"}, {"name": "model/tf__detect/concat_3/axis", "shape": [], "dtype": "int32"}, {"name": "model/tf.__operators__.getitem_2/strided_slice/stack", "shape": [3], "dtype": "int32"}, {"name": "model/tf.__operators__.getitem_2/strided_slice/stack_1", "shape": [3], "dtype": "int32"}, {"name": "model/tf.__operators__.getitem_2/strided_slice/stack_2", "shape": [3], "dtype": "int32"}, {"name": "model/agnostic_nms_layer_1/agnostic_nms/TensorArrayUnstack_2/TensorListFromTensor/element_shape", "shape": [2], "dtype": "int32"}, {"name": "model/agnostic_nms_layer_1/agnostic_nms/while/maximum_iterations", "shape": [], "dtype": "int32"}, {"name": "model/agnostic_nms_layer_1/agnostic_nms/Const", "shape": [], "dtype": "int32"}, {"name": "model/agnostic_nms_layer_1/agnostic_nms/while/loop_counter", "shape": [], "dtype": "int32"}, {"name": "model/agnostic_nms_layer_1/agnostic_nms/TensorArrayV2Stack_3/Const", "shape": [0], "dtype": "int32"}, {"name": "model/tf__focus/tf__conv/conv2d/Conv2D_weights", "shape": [3, 3, 12, 32], "dtype": "float32"}, {"name": "model/tf__focus/tf__conv/conv2d/Conv2D_bn_offset", "shape": [32], "dtype": "float32"}, {"name": "model/tf__conv_1/sequential/conv2d_1/Conv2D_weights", "shape": [3, 3, 32, 64], "dtype": "float32"}, {"name": "model/tf__conv_1/sequential/conv2d_1/Conv2D_bn_offset", "shape": [64], "dtype": "float32"}, {"name": "model/tf__c3/tf__conv_2/conv2d_2/Conv2D_weights", "shape": [1, 1, 64, 32], "dtype": "float32"}, {"name": "model/tf__c3/tf__conv_2/conv2d_2/Conv2D_bn_offset", "shape": [32], "dtype": "float32"}, {"name": "model/tf__c3/tf__conv_3/conv2d_3/Conv2D_weights", "shape": [1, 1, 64, 32], "dtype": "float32"}, {"name": "model/tf__c3/tf__conv_3/conv2d_3/Conv2D_bn_offset", "shape": [32], "dtype": "float32"}, {"name": "model/tf__c3/sequential_1/tf__bottleneck/tf__conv_5/conv2d_5/Conv2D_weights", "shape": [1, 1, 32, 32], "dtype": "float32"}, {"name": "model/tf__c3/sequential_1/tf__bottleneck/tf__conv_5/conv2d_5/Conv2D_bn_offset", "shape": [32], "dtype": "float32"}, {"name": "model/tf__c3/sequential_1/tf__bottleneck/tf__conv_6/conv2d_6/Conv2D_weights", "shape": [3, 3, 32, 32], "dtype": "float32"}, {"name": "model/tf__c3/sequential_1/tf__bottleneck/tf__conv_6/conv2d_6/Conv2D_bn_offset", "shape": [32], "dtype": "float32"}, {"name": "model/tf__c3/tf__conv_4/conv2d_4/Conv2D_weights", "shape": [1, 1, 64, 64], "dtype": "float32"}, {"name": "model/tf__c3/tf__conv_4/conv2d_4/Conv2D_bn_offset", "shape": [64], "dtype": "float32"}, {"name": "model/tf__conv_7/sequential_2/conv2d_7/Conv2D_weights", "shape": [3, 3, 64, 128], "dtype": "float32"}, {"name": "model/tf__conv_7/sequential_2/conv2d_7/Conv2D_bn_offset", "shape": [128], "dtype": "float32"}, {"name": "model/tf__c3_1/tf__conv_8/conv2d_8/Conv2D_weights", "shape": [1, 1, 128, 64], "dtype": "float32"}, {"name": "model/tf__c3_1/tf__conv_8/conv2d_8/Conv2D_bn_offset", "shape": [64], "dtype": "float32"}, {"name": "model/tf__c3_1/tf__conv_9/conv2d_9/Conv2D_weights", "shape": [1, 1, 128, 64], "dtype": "float32"}, {"name": "model/tf__c3_1/tf__conv_9/conv2d_9/Conv2D_bn_offset", "shape": [64], "dtype": "float32"}, {"name": "model/tf__c3_1/sequential_3/tf__bottleneck_1/tf__conv_11/conv2d_11/Conv2D_weights", "shape": [1, 1, 64, 64], "dtype": "float32"}, {"name": "model/tf__c3_1/sequential_3/tf__bottleneck_1/tf__conv_11/conv2d_11/Conv2D_bn_offset", "shape": [64], "dtype": "float32"}, {"name": "model/tf__c3_1/sequential_3/tf__bottleneck_1/tf__conv_12/conv2d_12/Conv2D_weights", "shape": [3, 3, 64, 64], "dtype": "float32"}, {"name": "model/tf__c3_1/sequential_3/tf__bottleneck_1/tf__conv_12/conv2d_12/Conv2D_bn_offset", "shape": [64], "dtype": "float32"}, {"name": "model/tf__c3_1/sequential_3/tf__bottleneck_2/tf__conv_13/conv2d_13/Conv2D_weights", "shape": [1, 1, 64, 64], "dtype": "float32"}, {"name": "model/tf__c3_1/sequential_3/tf__bottleneck_2/tf__conv_13/conv2d_13/Conv2D_bn_offset", "shape": [64], "dtype": "float32"}, {"name": "model/tf__c3_1/sequential_3/tf__bottleneck_2/tf__conv_14/conv2d_14/Conv2D_weights", "shape": [3, 3, 64, 64], "dtype": "float32"}, {"name": "model/tf__c3_1/sequential_3/tf__bottleneck_2/tf__conv_14/conv2d_14/Conv2D_bn_offset", "shape": [64], "dtype": "float32"}, {"name": "model/tf__c3_1/sequential_3/tf__bottleneck_3/tf__conv_15/conv2d_15/Conv2D_weights", "shape": [1, 1, 64, 64], "dtype": "float32"}, {"name": "model/tf__c3_1/sequential_3/tf__bottleneck_3/tf__conv_15/conv2d_15/Conv2D_bn_offset", "shape": [64], "dtype": "float32"}, {"name": "model/tf__c3_1/sequential_3/tf__bottleneck_3/tf__conv_16/conv2d_16/Conv2D_weights", "shape": [3, 3, 64, 64], "dtype": "float32"}, {"name": "model/tf__c3_1/sequential_3/tf__bottleneck_3/tf__conv_16/conv2d_16/Conv2D_bn_offset", "shape": [64], "dtype": "float32"}, {"name": "model/tf__c3_1/tf__conv_10/conv2d_10/Conv2D_weights", "shape": [1, 1, 128, 128], "dtype": "float32"}, {"name": "model/tf__c3_1/tf__conv_10/conv2d_10/Conv2D_bn_offset", "shape": [128], "dtype": "float32"}, {"name": "model/tf__conv_17/sequential_4/conv2d_17/Conv2D_weights", "shape": [3, 3, 128, 256], "dtype": "float32"}, {"name": "model/tf__conv_17/sequential_4/conv2d_17/Conv2D_bn_offset", "shape": [256], "dtype": "float32"}, {"name": "model/tf__c3_2/tf__conv_18/conv2d_18/Conv2D_weights", "shape": [1, 1, 256, 128], "dtype": "float32"}, {"name": "model/tf__c3_2/tf__conv_18/conv2d_18/Conv2D_bn_offset", "shape": [128], "dtype": "float32"}, {"name": "model/tf__c3_2/tf__conv_19/conv2d_19/Conv2D_weights", "shape": [1, 1, 256, 128], "dtype": "float32"}, {"name": "model/tf__c3_2/tf__conv_19/conv2d_19/Conv2D_bn_offset", "shape": [128], "dtype": "float32"}, {"name": "model/tf__c3_2/sequential_5/tf__bottleneck_4/tf__conv_21/conv2d_21/Conv2D_weights", "shape": [1, 1, 128, 128], "dtype": "float32"}, {"name": "model/tf__c3_2/sequential_5/tf__bottleneck_4/tf__conv_21/conv2d_21/Conv2D_bn_offset", "shape": [128], "dtype": "float32"}, {"name": "model/tf__c3_2/sequential_5/tf__bottleneck_4/tf__conv_22/conv2d_22/Conv2D_weights", "shape": [3, 3, 128, 128], "dtype": "float32"}, {"name": "model/tf__c3_2/sequential_5/tf__bottleneck_4/tf__conv_22/conv2d_22/Conv2D_bn_offset", "shape": [128], "dtype": "float32"}, {"name": "model/tf__c3_2/sequential_5/tf__bottleneck_5/tf__conv_23/conv2d_23/Conv2D_weights", "shape": [1, 1, 128, 128], "dtype": "float32"}, {"name": "model/tf__c3_2/sequential_5/tf__bottleneck_5/tf__conv_23/conv2d_23/Conv2D_bn_offset", "shape": [128], "dtype": "float32"}, {"name": "model/tf__c3_2/sequential_5/tf__bottleneck_5/tf__conv_24/conv2d_24/Conv2D_weights", "shape": [3, 3, 128, 128], "dtype": "float32"}, {"name": "model/tf__c3_2/sequential_5/tf__bottleneck_5/tf__conv_24/conv2d_24/Conv2D_bn_offset", "shape": [128], "dtype": "float32"}, {"name": "model/tf__c3_2/sequential_5/tf__bottleneck_6/tf__conv_25/conv2d_25/Conv2D_weights", "shape": [1, 1, 128, 128], "dtype": "float32"}, {"name": "model/tf__c3_2/sequential_5/tf__bottleneck_6/tf__conv_25/conv2d_25/Conv2D_bn_offset", "shape": [128], "dtype": "float32"}, {"name": "model/tf__c3_2/sequential_5/tf__bottleneck_6/tf__conv_26/conv2d_26/Conv2D_weights", "shape": [3, 3, 128, 128], "dtype": "float32"}, {"name": "model/tf__c3_2/sequential_5/tf__bottleneck_6/tf__conv_26/conv2d_26/Conv2D_bn_offset", "shape": [128], "dtype": "float32"}, {"name": "model/tf__c3_2/tf__conv_20/conv2d_20/Conv2D_weights", "shape": [1, 1, 256, 256], "dtype": "float32"}, {"name": "model/tf__c3_2/tf__conv_20/conv2d_20/Conv2D_bn_offset", "shape": [256], "dtype": "float32"}, {"name": "model/tf__conv_27/sequential_6/conv2d_27/Conv2D_weights", "shape": [3, 3, 256, 512], "dtype": "float32"}, {"name": "model/tf__conv_27/sequential_6/conv2d_27/Conv2D_bn_offset", "shape": [512], "dtype": "float32"}, {"name": "model/tf_spp/tf__conv_28/conv2d_28/Conv2D_weights", "shape": [1, 1, 512, 256], "dtype": "float32"}, {"name": "model/tf_spp/tf__conv_28/conv2d_28/Conv2D_bn_offset", "shape": [256], "dtype": "float32"}, {"name": "model/tf_spp/tf__conv_29/conv2d_29/Conv2D_weights", "shape": [1, 1, 1024, 512], "dtype": "float32"}, {"name": "model/tf_spp/tf__conv_29/conv2d_29/Conv2D_bn_offset", "shape": [512], "dtype": "float32"}, {"name": "model/tf__c3_3/tf__conv_30/conv2d_30/Conv2D_weights", "shape": [1, 1, 512, 256], "dtype": "float32"}, {"name": "model/tf__c3_3/tf__conv_30/conv2d_30/Conv2D_bn_offset", "shape": [256], "dtype": "float32"}, {"name": "model/tf__c3_3/tf__conv_31/conv2d_31/Conv2D_weights", "shape": [1, 1, 512, 256], "dtype": "float32"}, {"name": "model/tf__c3_3/tf__conv_31/conv2d_31/Conv2D_bn_offset", "shape": [256], "dtype": "float32"}, {"name": "model/tf__c3_3/sequential_7/tf__bottleneck_7/tf__conv_33/conv2d_33/Conv2D_weights", "shape": [1, 1, 256, 256], "dtype": "float32"}, {"name": "model/tf__c3_3/sequential_7/tf__bottleneck_7/tf__conv_33/conv2d_33/Conv2D_bn_offset", "shape": [256], "dtype": "float32"}, {"name": "model/tf__c3_3/sequential_7/tf__bottleneck_7/tf__conv_34/conv2d_34/Conv2D_weights", "shape": [3, 3, 256, 256], "dtype": "float32"}, {"name": "model/tf__c3_3/sequential_7/tf__bottleneck_7/tf__conv_34/conv2d_34/Conv2D_bn_offset", "shape": [256], "dtype": "float32"}, {"name": "model/tf__c3_3/tf__conv_32/conv2d_32/Conv2D_weights", "shape": [1, 1, 512, 512], "dtype": "float32"}, {"name": "model/tf__c3_3/tf__conv_32/conv2d_32/Conv2D_bn_offset", "shape": [512], "dtype": "float32"}, {"name": "model/tf__conv_35/conv2d_35/Conv2D_weights", "shape": [1, 1, 512, 256], "dtype": "float32"}, {"name": "model/tf__conv_35/conv2d_35/Conv2D_bn_offset", "shape": [256], "dtype": "float32"}, {"name": "model/tf__c3_4/tf__conv_36/conv2d_36/Conv2D_weights", "shape": [1, 1, 512, 128], "dtype": "float32"}, {"name": "model/tf__c3_4/tf__conv_36/conv2d_36/Conv2D_bn_offset", "shape": [128], "dtype": "float32"}, {"name": "model/tf__c3_4/tf__conv_37/conv2d_37/Conv2D_weights", "shape": [1, 1, 512, 128], "dtype": "float32"}, {"name": "model/tf__c3_4/tf__conv_37/conv2d_37/Conv2D_bn_offset", "shape": [128], "dtype": "float32"}, {"name": "model/tf__c3_4/sequential_8/tf__bottleneck_8/tf__conv_39/conv2d_39/Conv2D_weights", "shape": [1, 1, 128, 128], "dtype": "float32"}, {"name": "model/tf__c3_4/sequential_8/tf__bottleneck_8/tf__conv_39/conv2d_39/Conv2D_bn_offset", "shape": [128], "dtype": "float32"}, {"name": "model/tf__c3_4/sequential_8/tf__bottleneck_8/tf__conv_40/conv2d_40/Conv2D_weights", "shape": [3, 3, 128, 128], "dtype": "float32"}, {"name": "model/tf__c3_4/sequential_8/tf__bottleneck_8/tf__conv_40/conv2d_40/Conv2D_bn_offset", "shape": [128], "dtype": "float32"}, {"name": "model/tf__c3_4/tf__conv_38/conv2d_38/Conv2D_weights", "shape": [1, 1, 256, 256], "dtype": "float32"}, {"name": "model/tf__c3_4/tf__conv_38/conv2d_38/Conv2D_bn_offset", "shape": [256], "dtype": "float32"}, {"name": "model/tf__conv_41/conv2d_41/Conv2D_weights", "shape": [1, 1, 256, 128], "dtype": "float32"}, {"name": "model/tf__conv_41/conv2d_41/Conv2D_bn_offset", "shape": [128], "dtype": "float32"}, {"name": "model/tf__c3_5/tf__conv_42/conv2d_42/Conv2D_weights", "shape": [1, 1, 256, 64], "dtype": "float32"}, {"name": "model/tf__c3_5/tf__conv_42/conv2d_42/Conv2D_bn_offset", "shape": [64], "dtype": "float32"}, {"name": "model/tf__c3_5/tf__conv_43/conv2d_43/Conv2D_weights", "shape": [1, 1, 256, 64], "dtype": "float32"}, {"name": "model/tf__c3_5/tf__conv_43/conv2d_43/Conv2D_bn_offset", "shape": [64], "dtype": "float32"}, {"name": "model/tf__c3_5/sequential_9/tf__bottleneck_9/tf__conv_45/conv2d_45/Conv2D_weights", "shape": [1, 1, 64, 64], "dtype": "float32"}, {"name": "model/tf__c3_5/sequential_9/tf__bottleneck_9/tf__conv_45/conv2d_45/Conv2D_bn_offset", "shape": [64], "dtype": "float32"}, {"name": "model/tf__c3_5/sequential_9/tf__bottleneck_9/tf__conv_46/conv2d_46/Conv2D_weights", "shape": [3, 3, 64, 64], "dtype": "float32"}, {"name": "model/tf__c3_5/sequential_9/tf__bottleneck_9/tf__conv_46/conv2d_46/Conv2D_bn_offset", "shape": [64], "dtype": "float32"}, {"name": "model/tf__c3_5/tf__conv_44/conv2d_44/Conv2D_weights", "shape": [1, 1, 128, 128], "dtype": "float32"}, {"name": "model/tf__c3_5/tf__conv_44/conv2d_44/Conv2D_bn_offset", "shape": [128], "dtype": "float32"}, {"name": "model/tf__conv_47/sequential_10/conv2d_47/Conv2D_weights", "shape": [3, 3, 128, 128], "dtype": "float32"}, {"name": "model/tf__conv_47/sequential_10/conv2d_47/Conv2D_bn_offset", "shape": [128], "dtype": "float32"}, {"name": "model/tf__c3_6/tf__conv_48/conv2d_48/Conv2D_weights", "shape": [1, 1, 256, 128], "dtype": "float32"}, {"name": "model/tf__c3_6/tf__conv_48/conv2d_48/Conv2D_bn_offset", "shape": [128], "dtype": "float32"}, {"name": "model/tf__c3_6/tf__conv_49/conv2d_49/Conv2D_weights", "shape": [1, 1, 256, 128], "dtype": "float32"}, {"name": "model/tf__c3_6/tf__conv_49/conv2d_49/Conv2D_bn_offset", "shape": [128], "dtype": "float32"}, {"name": "model/tf__c3_6/sequential_11/tf__bottleneck_10/tf__conv_51/conv2d_51/Conv2D_weights", "shape": [1, 1, 128, 128], "dtype": "float32"}, {"name": "model/tf__c3_6/sequential_11/tf__bottleneck_10/tf__conv_51/conv2d_51/Conv2D_bn_offset", "shape": [128], "dtype": "float32"}, {"name": "model/tf__c3_6/sequential_11/tf__bottleneck_10/tf__conv_52/conv2d_52/Conv2D_weights", "shape": [3, 3, 128, 128], "dtype": "float32"}, {"name": "model/tf__c3_6/sequential_11/tf__bottleneck_10/tf__conv_52/conv2d_52/Conv2D_bn_offset", "shape": [128], "dtype": "float32"}, {"name": "model/tf__c3_6/tf__conv_50/conv2d_50/Conv2D_weights", "shape": [1, 1, 256, 256], "dtype": "float32"}, {"name": "model/tf__c3_6/tf__conv_50/conv2d_50/Conv2D_bn_offset", "shape": [256], "dtype": "float32"}, {"name": "model/tf__conv_53/sequential_12/conv2d_53/Conv2D_weights", "shape": [3, 3, 256, 256], "dtype": "float32"}, {"name": "model/tf__conv_53/sequential_12/conv2d_53/Conv2D_bn_offset", "shape": [256], "dtype": "float32"}, {"name": "model/tf__c3_7/tf__conv_54/conv2d_54/Conv2D_weights", "shape": [1, 1, 512, 256], "dtype": "float32"}, {"name": "model/tf__c3_7/tf__conv_54/conv2d_54/Conv2D_bn_offset", "shape": [256], "dtype": "float32"}, {"name": "model/tf__c3_7/tf__conv_55/conv2d_55/Conv2D_weights", "shape": [1, 1, 512, 256], "dtype": "float32"}, {"name": "model/tf__c3_7/tf__conv_55/conv2d_55/Conv2D_bn_offset", "shape": [256], "dtype": "float32"}, {"name": "model/tf__c3_7/sequential_13/tf__bottleneck_11/tf__conv_57/conv2d_57/Conv2D_weights", "shape": [1, 1, 256, 256], "dtype": "float32"}, {"name": "model/tf__c3_7/sequential_13/tf__bottleneck_11/tf__conv_57/conv2d_57/Conv2D_bn_offset", "shape": [256], "dtype": "float32"}, {"name": "model/tf__c3_7/sequential_13/tf__bottleneck_11/tf__conv_58/conv2d_58/Conv2D_weights", "shape": [3, 3, 256, 256], "dtype": "float32"}, {"name": "model/tf__c3_7/sequential_13/tf__bottleneck_11/tf__conv_58/conv2d_58/Conv2D_bn_offset", "shape": [256], "dtype": "float32"}, {"name": "model/tf__c3_7/tf__conv_56/conv2d_56/Conv2D_weights", "shape": [1, 1, 512, 512], "dtype": "float32"}, {"name": "model/tf__c3_7/tf__conv_56/conv2d_56/Conv2D_bn_offset", "shape": [512], "dtype": "float32"}, {"name": "model/agnostic_nms_layer_1/agnostic_nms/while/cond/_0/model/agnostic_nms_layer_1/agnostic_nms/while/Less/y", "shape": [], "dtype": "int32"}, {"name": "model/agnostic_nms_layer_1/agnostic_nms/while/body/_1/model/agnostic_nms_layer_1/agnostic_nms/while/Pad/paddings/0/0", "shape": [], "dtype": "int32"}, {"name": "model/agnostic_nms_layer_1/agnostic_nms/while/body/_1/model/agnostic_nms_layer_1/agnostic_nms/while/sub/x", "shape": [], "dtype": "int32"}, {"name": "model/agnostic_nms_layer_1/agnostic_nms/while/body/_1/model/agnostic_nms_layer_1/agnostic_nms/while/strided_slice/stack", "shape": [1], "dtype": "int32"}, {"name": "model/agnostic_nms_layer_1/agnostic_nms/while/body/_1/model/agnostic_nms_layer_1/agnostic_nms/while/strided_slice/stack_1", "shape": [1], "dtype": "int32"}, {"name": "model/agnostic_nms_layer_1/agnostic_nms/while/body/_1/model/agnostic_nms_layer_1/agnostic_nms/while/strided_slice/stack_2", "shape": [1], "dtype": "int32"}, {"name": "model/agnostic_nms_layer_1/agnostic_nms/while/body/_1/model/agnostic_nms_layer_1/agnostic_nms/while/Pad/paddings/1_1", "shape": [2], "dtype": "int32"}, {"name": "model/agnostic_nms_layer_1/agnostic_nms/while/body/_1/model/agnostic_nms_layer_1/agnostic_nms/while/GatherV2_1/axis", "shape": [], "dtype": "int32"}, {"name": "model/agnostic_nms_layer_1/agnostic_nms/while/body/_1/model/agnostic_nms_layer_1/agnostic_nms/while/PadV2/paddings/0/0", "shape": [], "dtype": "int32"}, {"name": "model/agnostic_nms_layer_1/agnostic_nms/while/body/_1/model/agnostic_nms_layer_1/agnostic_nms/while/sub_1/x", "shape": [], "dtype": "int32"}, {"name": "model/agnostic_nms_layer_1/agnostic_nms/while/body/_1/model/agnostic_nms_layer_1/agnostic_nms/while/strided_slice_1/stack", "shape": [1], "dtype": "int32"}, {"name": "model/agnostic_nms_layer_1/agnostic_nms/while/body/_1/model/agnostic_nms_layer_1/agnostic_nms/while/strided_slice_1/stack_1", "shape": [1], "dtype": "int32"}, {"name": "model/agnostic_nms_layer_1/agnostic_nms/while/body/_1/model/agnostic_nms_layer_1/agnostic_nms/while/strided_slice_1/stack_2", "shape": [1], "dtype": "int32"}, {"name": "model/agnostic_nms_layer_1/agnostic_nms/while/body/_1/model/agnostic_nms_layer_1/agnostic_nms/while/PadV2/constant_values", "shape": [], "dtype": "float32"}, {"name": "model/agnostic_nms_layer_1/agnostic_nms/while/body/_1/model/agnostic_nms_layer_1/agnostic_nms/while/TensorArrayV2Read_1/TensorListGetItem/element_shape", "shape": [2], "dtype": "int32"}, {"name": "model/agnostic_nms_layer_1/agnostic_nms/while/body/_1/model/agnostic_nms_layer_1/agnostic_nms/while/ArgMax/dimension", "shape": [], "dtype": "int32"}, {"name": "model/agnostic_nms_layer_1/agnostic_nms/while/body/_1/model/agnostic_nms_layer_1/agnostic_nms/while/GatherV2_2/axis", "shape": [], "dtype": "int32"}, {"name": "model/agnostic_nms_layer_1/agnostic_nms/while/body/_1/model/agnostic_nms_layer_1/agnostic_nms/while/PadV2_1/paddings/0/0", "shape": [], "dtype": "int32"}, {"name": "model/agnostic_nms_layer_1/agnostic_nms/while/body/_1/model/agnostic_nms_layer_1/agnostic_nms/while/sub_2/x", "shape": [], "dtype": "int32"}, {"name": "model/agnostic_nms_layer_1/agnostic_nms/while/body/_1/model/agnostic_nms_layer_1/agnostic_nms/while/GatherV2/axis", "shape": [], "dtype": "int32"}, {"name": "model/agnostic_nms_layer_1/agnostic_nms/while/body/_1/model/agnostic_nms_layer_1/agnostic_nms/while/strided_slice_2/stack", "shape": [1], "dtype": "int32"}, {"name": "model/agnostic_nms_layer_1/agnostic_nms/while/body/_1/model/agnostic_nms_layer_1/agnostic_nms/while/strided_slice_2/stack_1", "shape": [1], "dtype": "int32"}, {"name": "model/agnostic_nms_layer_1/agnostic_nms/while/body/_1/model/agnostic_nms_layer_1/agnostic_nms/while/strided_slice_2/stack_2", "shape": [1], "dtype": "int32"}, {"name": "model/agnostic_nms_layer_1/agnostic_nms/while/body/_1/model/agnostic_nms_layer_1/agnostic_nms/while/PadV2_1/constant_values", "shape": [], "dtype": "float32"}, {"name": "model/agnostic_nms_layer_1/agnostic_nms/while/body/_1/model/agnostic_nms_layer_1/agnostic_nms/while/TensorArrayV2Read/TensorListGetItem/element_shape", "shape": [2], "dtype": "int32"}, {"name": "model/agnostic_nms_layer_1/agnostic_nms/while/body/_1/model/agnostic_nms_layer_1/agnostic_nms/while/TensorArrayV2Read_2/TensorListGetItem/element_shape", "shape": [2], "dtype": "int32"}, {"name": "model/agnostic_nms_layer_1/agnostic_nms/while/body/_1/model/agnostic_nms_layer_1/agnostic_nms/while/Max/reduction_indices", "shape": [], "dtype": "int32"}, {"name": "model/agnostic_nms_layer_1/agnostic_nms/while/body/_1/model/agnostic_nms_layer_1/agnostic_nms/while/non_max_suppression/NonMaxSuppressionV3/max_output_size", "shape": [], "dtype": "int32"}, {"name": "model/agnostic_nms_layer_1/agnostic_nms/while/body/_1/model/agnostic_nms_layer_1/agnostic_nms/while/non_max_suppression/iou_threshold", "shape": [], "dtype": "float32"}, {"name": "model/agnostic_nms_layer_1/agnostic_nms/while/body/_1/model/agnostic_nms_layer_1/agnostic_nms/while/non_max_suppression/score_threshold", "shape": [], "dtype": "float32"}, {"name": "model/agnostic_nms_layer_1/agnostic_nms/while/body/_1/model/agnostic_nms_layer_1/agnostic_nms/while/strided_slice_3/stack", "shape": [1], "dtype": "int32"}, {"name": "model/agnostic_nms_layer_1/agnostic_nms/while/body/_1/model/agnostic_nms_layer_1/agnostic_nms/while/strided_slice_3/stack_1", "shape": [1], "dtype": "int32"}, {"name": "model/agnostic_nms_layer_1/agnostic_nms/while/body/_1/model/agnostic_nms_layer_1/agnostic_nms/while/strided_slice_3/stack_2", "shape": [1], "dtype": "int32"}, {"name": "model/agnostic_nms_layer_1/agnostic_nms/while/body/_1/model/agnostic_nms_layer_1/agnostic_nms/while/add/y", "shape": [], "dtype": "int32"}, {"name": "model/agnostic_nms_layer_1/agnostic_nms/while/body/_1/model/agnostic_nms_layer_1/agnostic_nms/while/add_1/y", "shape": [], "dtype": "int32"}, {"name": "ConstantFolding/model/agnostic_nms_layer_1/agnostic_nms/while/body/_1/model/agnostic_nms_layer_1/agnostic_nms/while/PadV2/paddings_const_axis", "shape": [], "dtype": "int32"}, {"name": "ConstantFolding/model/agnostic_nms_layer_1/agnostic_nms/while/body/_1/model/agnostic_nms_layer_1/agnostic_nms/while/PadV2_1/paddings_const_axis", "shape": [], "dtype": "int32"}]}]}